FinishedEmulators/unscreened_fofr_nonlin_Pk/version_7/checkpoints/epoch=138-step=11375760.ckpt (torch, 16581 bytes, 20 tensors)

hidden_layers.0.weight f4 [16, 7]
000000 09 16 f3 3e 07 d1 3e c0 f0 0d 13 3e df b2 b0 3d
       0.4747775 -2.981508 0.14360785 0.08627867
000010 51 ec f9 be 21 cf 80 bf 58 02 4f bf 3f 0d 05 bf
       -0.48813108 -1.0063211 -0.8086295 -0.51973337
000020 c4 ce 66 bf b7 cd e2 be 5a 1e 32 be 0e 19 a6 3c
       -0.9015925 -0.44297573 -0.1739439 0.020275619
000030 d6 09 94 bf 09 d0 60 3f cd 03 f2 bd 3c 38 0f bd
       -1.1565502 0.87817436 -0.11817131 -0.03496574
000040 98 4f 23 3e e6 04 40 bc c0 2c 17 3f ae ef e0 bd
       0.15948331 -0.011719918 0.5905266 -0.10983215
000050 ae 73 e6 3c ad 91 07 bf db 79 62 3f 50 4f 1f bc
       0.028131332 -0.5295666 0.88467187 -0.009723499
000060 3c 70 d9 ba f3 91 8d 3c 42 0b 89 bf e3 a2 b6 bd
       -0.0016589235 0.017281508 -1.0706561 -0.08917787
000070 b6 03 f2 bd 1a 38 0f bd 8b 4f 23 3e 43 05 40 bc
       -0.11817114 -0.034965612 0.15948312 -0.0117200045
000080 bb 2c 17 3f a5 ef e0 bd c2 73 e6 3c dc 03 f2 bd
       0.5905263 -0.109832086 0.02813137 -0.11817142
000090 4f 38 0f bd a0 4f 23 3e ea 04 40 bc bd 2c 17 3f
       -0.03496581 0.15948343 -0.011719922 0.5905264
0000a0 bc ef e0 bd ce 73 e6 3c 92 bf 0c bf c7 27 03 c0
       -0.10983226 0.028131392 -0.54979813 -2.0493028
0000b0 9a 72 c3 be db 6c 16 be a1 d1 2b be 20 a0 26 3f
       -0.38173372 -0.14689963 -0.16779186 0.6508808
0000c0 96 9d cb 3e d5 dd 38 3e 90 b5 26 bd fc e3 d4 3f
       0.39768666 0.18053372 -0.040700495 1.6632075
0000d0 23 7c 19 3f a7 f6 83 bd 6d 0f bf 3e 20 19 1b bf
       0.5995504 -0.064435296 0.37316456 -0.6058521
0000e0 65 77 7b bf 5b dd f4 3f 38 2c 0e 3c f0 b1 0e b9
       -0.98229057 1.9130052 0.008677535 -0.00013608462
0000f0 d6 9c 39 bf ac 61 56 3f ac ae 1c c0 4a 70 88 3e
       -0.7250494 0.83742785 -2.4481611 0.2664817
000100 7f 3b cf bf 58 3d 86 be 8d 6c 91 bc c5 6d 0e 3f
       -1.6190032 -0.26218677 -0.017751956 0.55636245
000110 47 8a 10 be 65 41 94 bf c4 03 f2 bd 41 38 0f bd
       -0.14115249 -1.1582457 -0.118171245 -0.034965757
000120 97 4f 23 3e a2 04 40 bc bd 2c 17 3f c5 ef e0 bd
       0.1594833 -0.011719855 0.5905264 -0.109832324
000130 d0 73 e6 3c d7 03 f2 bd 43 38 0f bd a3 4f 23 3e
       0.028131396 -0.11817139 -0.034965765 0.15948348
000140 44 05 40 bc c0 2c 17 3f a7 ef e0 bd b4 73 e6 3c
       -0.011720005 0.5905266 -0.1098321 0.028131343
000150 e9 2f 15 40 82 9b f0 3f 5b 87 db 3d b0 ee 10 3d
       2.3310492 1.8797457 0.107191764 0.03538388
000160 7a ab b7 be a5 95 9e 3c 5e 3a f3 3e e8 7f f4 3f
       -0.35873014 0.019358465 0.47505468 1.9101534
000170 fc 2a 77 bf 7b 9b 16 3e 5c de ba 3d 8a 35 87 bd
       -0.96549964 0.14707749 0.09124443 -0.06602009
000180 5a 33 c4 be db ac bb 3f 44 b4 8b 3e cd f5 ed 3e
       -0.38320428 1.4662126 0.2728597 0.46476594
000190 d5 5b 32 bf ed 68 85 be 21 16 19 3f 73 e3 18 be
       -0.69671375 -0.26056615 0.5979939 -0.14930515
0001a0 c2 b6 74 3f ec 03 f2 bd 51 38 0f bd af 4f 23 3e
       0.95591366 -0.11817154 -0.034965817 0.15948366
0001b0 d0 04 40 bc c2 2c 17 3f ad ef e0 bd e1 73 e6 3c
       -0.011719897 0.5905267 -0.109832145 0.028131427

hidden_layers.0.bias f4 [16]
000000 77 43 18 c0 f7 e9 82 3e d1 c3 13 be a1 1e 03 3f
       -2.3791177 0.25569126 -0.14430167 0.5121861
000010 c0 c3 13 be d1 c3 13 be af bc a5 bf de d8 10 3f
       -0.14430141 -0.14430167 -1.2948207 0.56580913
000020 27 57 66 c0 35 87 8c 40 c9 c3 13 be d1 c3 13 be
       -3.5990694 4.391505 -0.14430155 -0.14430167
000030 b7 13 44 c0 b1 cb b5 bf c8 e7 b2 3f d9 c3 13 be
       -3.0637033 -1.4202787 1.3976984 -0.14430179

hidden_layers.1.weight f4 [8, 16]
000000 9e 94 a3 be 65 ab 01 3d df 05 0a 3d 8f 9c e1 bd
       -0.31949323 0.031657595 0.033697005 -0.11016189
000010 3d 06 0a 3d 90 06 0a 3d 46 66 da be 96 2c 29 3d
       0.033697356 0.033697665 -0.42656153 0.041302286
000020 61 8f 13 bf 29 44 cd bf d8 05 0a 3d d3 05 0a 3d
       -0.57640654 -1.6036426 0.03369698 0.03369696
000030 fd cb 3f 3e 80 b2 14 bd 3b ac d1 3e a0 06 0a 3d
       0.18730159 -0.036303043 0.40951714 0.033697724
000040 6e d9 9b bf 31 ec 2c bd ce 53 d2 bb 73 37 ea 3e
       -1.2175729 -0.042217437 -0.0064186817 0.4574543
000050 c6 53 d2 bb 89 54 d2 bb 06 12 1f bf 14 c8 16 3e
       -0.006418678 -0.006418769 -0.62136877 0.14724761
000060 2b 0d 3e bf 89 9e 17 c0 60 55 d2 bb b4 53 d2 bb
       -0.7423884 -2.3690512 -0.006418869 -0.0064186696
000070 32 70 08 3f 8d 53 f0 bd 28 44 dc bd 2e 53 d2 bb
       0.53296196 -0.11734686 -0.10755187 -0.006418607
000080 03 2c e4 3d a8 22 0f 3f eb 35 0d 3c f7 8c a1 3e
       0.11141207 0.55912256 0.008618812 0.3155286
000090 36 35 0d 3c 76 35 0d 3c 85 6a ee 3e 95 10 87 be
       0.0086186435 0.008618703 0.46565643 -0.2637984
0000a0 c7 4f 3e bf 78 65 01 c0 5f 36 0d 3c b3 36 0d 3c
       -0.7434048 -2.0218182 0.00861892 0.008618998
0000b0 7c f9 4b bf d5 76 29 bf e1 64 89 3e 76 35 0d 3c
       -0.7967756 -0.6619695 0.26834777 0.008618703
0000c0 79 c9 15 bf c8 b9 24 bd 00 03 b4 3c 20 39 b6 3e
       -0.5851055 -0.040216237 0.021974087 0.35590458
0000d0 68 03 b4 3c 7b 03 b4 3c 07 63 8b 3c b0 3e 87 3d
       0.02197428 0.021974316 0.017014993 0.066037536
0000e0 3b 73 29 bf 5c 75 2d bc a3 03 b4 3c 18 03 b4 3c
       -0.6619145 -0.010587063 0.02197439 0.021974131
0000f0 33 0d 9b be ba f1 23 3d 19 4a 21 bf 5f 02 b4 3c
       -0.30283508 0.04002545 -0.6300369 0.021973787
000100 46 90 70 be f2 00 5f bf 86 71 2d bd 1e b1 fa bc
       -0.23492536 -0.8711082 -0.042344593 -0.030602034
000110 39 71 2d bd 98 71 2d bd 68 06 da 3e 79 3b 04 3d
       -0.042344306 -0.04234466 0.42583013 0.03228328
000120 8a 7b 2e bf 94 91 93 3e 64 71 2d bd 94 71 2d bd
       -0.68157256 0.28822005 -0.042344466 -0.042344645
000130 63 f1 01 bf bb 4a bc bf 84 ef 72 be f6 71 2d bd
       -0.5075895 -1.4710306 -0.2372418 -0.04234501
000140 ba dd 4f bf da f6 4a 3c 6a aa 98 3b 8b c6 87 bd
       -0.811977 0.012387956 0.004658987 -0.06629666
000150 4c aa 98 3b 88 aa 98 3b 8e 19 bf 3e e9 15 19 be
       0.004658973 0.004659001 0.37324184 -0.14949764
000160 8c 47 cd bf c6 1d 9e 3e be aa 98 3b e8 ab 98 3b
       -1.6037459 0.3088209 0.004659026 0.0046591647
000170 0a 91 81 bf e0 18 87 bd c8 29 dc 3e 48 ab 98 3b
       -1.0122387 -0.065965414 0.43000627 0.00465909
000180 a4 f3 33 bf 46 ea 03 3f 17 12 30 3d 7e 89 ec 3e
       -0.7029364 0.5152935 0.042986 0.46198648
000190 fe 11 30 3d fc 11 30 3d 16 4e 8d 3e 6d 8d 42 bf
       0.04298591 0.0429859 0.27598637 -0.7599705
0001a0 18 ab 31 bf 1b bf 58 3e 26 12 30 3d ea 11 30 3d
       -0.69401693 0.21166651 0.042986058 0.042985834
0001b0 fd 10 3f bf b6 d6 e2 bb 85 10 d5 be d9 11 30 3d
       -0.746353 -0.006922568 -0.41614166 0.04298577
0001c0 22 46 e2 3e a2 f8 aa 3c c7 5c 40 bc 50 79 9b 3d
       0.44194132 0.02087051 -0.01174087 0.07591498
0001d0 41 5d 40 bc ad 5c 40 bc bf ad 2d bd 95 59 bf 3d
       -0.011740983 -0.011740846 -0.042402025 0.09343258
0001e0 7e cc 47 be 2b 54 26 bf 80 5c 40 bc ae 5c 40 bc
       -0.19511601 -0.6497218 -0.011740804 -0.011740847
0001f0 b6 7e 7c bf b6 a5 64 be e6 a0 c5 3d b1 5c 40 bc
       -0.98630846 -0.22328839 0.096498296 -0.011740849

hidden_layers.1.bias f4 [8]
000000 75 13 e9 bf 11 6a b2 bf d0 57 52 bf b7 18 1c bf
       -1.8209063 -1.3938619 -0.8216524 -0.6097521
000010 79 fc 9c bf d9 bb 01 c0 e0 bb d4 bf 46 3e 61 bf
       -1.2264549 -2.0270903 -1.6619835 -0.87985647

output_layer.weight f4 [1, 8]
000000 ee 1b 39 bf 65 10 b0 3d 94 c7 0c 3f 89 fc e1 be
       -0.7230824 0.08596877 0.5499203 -0.44137982
000010 13 52 0c bf 27 2f d7 bf dd 6c 44 bf 5a 0a a4 bd
       -0.54812735 -1.6811265 -0.7672861 -0.08009787

hidden_layers.0.weight f4 [16, 7]
000000 c7 f0 fe 3e d2 ef 15 c0 e9 66 9a 3d 4d 29 31 3d
       0.49793074 -2.3427625 0.0753916 0.043252278
000010 84 e1 cb be 69 3d 8a bf a8 ad f2 be f4 06 87 be
       -0.39820492 -1.0799991 -0.47398114 -0.26372492
000020 d7 90 6a bf 2b 42 a6 be f2 2e 17 be 35 9c 9b bd
       -0.9162726 -0.32472357 -0.14764002 -0.075981535
000030 39 0a 6c bf 63 b3 34 3f 6e 18 e2 be 4b f3 e4 bc
       -0.922031 0.7058622 -0.44159263 -0.027948042
000040 ff 0f 48 3e fe a4 f2 3c 39 c2 9a 3e df e6 88 be
       0.19537352 0.02961969 0.30226305 -0.2673864
000050 d8 20 85 3e f9 b4 dd be 97 e6 8e 3f 23 23 67 bd
       0.2600162 -0.43302134 1.116412 -0.056429993
000060 b6 4d c7 bc d4 95 aa 3d 6f 01 6e bf c2 58 33 3e
       -0.024329048 0.08329359 -0.9297094 0.17514327
000070 25 5f c9 be b9 d6 43 bc f9 dd da 3c bd 62 e1 bc
       -0.39330402 -0.011953049 0.026717173 -0.027512902
000080 46 80 ac 3e 3e 1d 8e 3d 53 27 15 3f e9 1f 8c 3e
       0.33691615 0.06939171 0.5826313 0.27368096
000090 1f dd 19 be a8 0f 16 bd b1 d9 d4 bc 76 9d f9 3e
       -0.15025757 -0.036636025 -0.02598271 0.48752946
0000a0 f5 ef 9b be 6f fe 32 3f 4e 88 cf be fa b8 9b bf
       -0.3045651 0.69919485 -0.4053368 -1.2165825
0000b0 c2 bc 57 be bb 8f 8d bd cc 9d 18 bd 34 3c 1e 3f
       -0.21068099 -0.0691218 -0.03725986 0.6181061
0000c0 99 68 d0 3e 57 cb 09 3e 66 88 aa be c5 c6 be 3f
       0.40704802 0.13456474 -0.3330719 1.490441
0000d0 98 95 10 3f 22 cd 6e bb ec a0 87 3e 97 07 f5 be
       0.5647826 -0.0036438187 0.2648996 -0.47857353
0000e0 fe 6c 3b bf 8d c3 84 3f 75 e3 43 bd 36 c5 8d bc
       -0.73213184 1.0372177 -0.04782434 -0.017305952
0000f0 eb e7 15 bf d0 dd 24 3f d8 76 e9 bf ab 6c 06 3e
       -0.58557004 0.6440096 -1.8239393 0.13127391
000100 e6 13 b6 bf cc 87 73 be 1c d3 26 bd 11 c6 0a 3f
       -1.4224823 -0.23782271 -0.040728673 0.54208475
000110 84 0d 30 be 8f 25 7a bf 9d 89 b1 be 1e 1f 14 bd
       -0.17192656 -0.9771356 -0.34675303 -0.03616249
000120 48 e1 a9 3d 26 73 91 3a a0 b9 d8 3e 46 5a 8c bd
       0.08294922 0.0011096939 0.4232912 -0.06853156
000130 5a 4d 1d 3e e1 dd 7d 3d 2c 16 5f 3e 04 d1 35 3e
       0.15361539 0.06197918 0.21785802 0.17755514
000140 a9 44 3c 3d 20 81 f2 3e be 94 3f be 38 75 93 bc
       0.045963917 0.4736414 -0.18709084 -0.01800023
000150 e4 b2 d5 3f e4 a6 f7 3f b7 b7 f2 3d 1d da 17 3d
       1.6695218 1.9347806 0.11851447 0.037073243
000160 da 5b cc be d0 d7 91 3d e7 69 e1 3c b8 3c ea 3f
       -0.39913827 0.07121241 0.027516318 1.829978
000170 7c c3 42 bf be ae 46 3e d8 a6 89 3d 80 0d 88 bd
       -0.76079535 0.19402596 0.06721276 -0.066432
000180 9b cc c9 be 49 39 d2 3f c6 63 04 3f f1 45 33 be
       -0.39413914 1.6423732 0.5171474 -0.1750715
000190 fd b7 e1 be cb 41 15 be fb d6 0d 3f fe 40 93 be
       -0.44085684 -0.1457588 0.5540616 -0.28760523
0001a0 bc 43 88 3f e6 27 61 3d 0c c3 ea bd 98 d6 1b 3e
       1.0645671 0.05496969 -0.114629835 0.1521858
0001b0 12 f8 0d bb 2d ac e6 3e 72 6b b8 be 37 09 b8 3e
       -0.0021662754 0.45053235 -0.36019474 0.3594453

hidden_layers.0.bias f4 [16]
000000 4e ea 01 c0 14 96 ad bd c5 ee cb be 76 39 57 3f
       -2.0299258 -0.08475891 -0.39830604 0.84072053
000010 0d f4 3a bf 70 01 24 bd fe f9 16 bf 5d 03 2d 3f
       -0.7302864 -0.040040433 -0.5897521 0.67583257
000020 73 1b 37 c0 f4 fb 86 40 76 c5 89 3e 9c f5 61 3d
       -2.8610504 4.218256 0.26908463 0.055165872
000030 c6 f4 1b c0 d3 0f a8 bf 3c 9a d7 3f f6 43 44 be
       -2.4368148 -1.3129829 1.6843944 -0.1916655

hidden_layers.1.weight f4 [8, 16]
000000 a7 67 b2 bd bb 13 1c 3e c7 5f e5 3d a8 ea db bd
       -0.08711176 0.15241902 0.11199909 -0.107381165
000010 f0 58 34 be 0a 76 ff 3c 6e 9d b5 be 10 74 25 bd
       -0.17612052 0.031184215 -0.35471672 -0.04039389
000020 46 91 04 bf 82 33 93 bf af 2c da bd 2e b5 ce b9
       -0.5178417 -1.1500094 -0.10653054 -0.0003942637
000030 e6 eb 3f 3d 5e 13 88 bc 75 66 88 bd a1 d5 be 3d
       0.04685583 -0.016610797 -0.06660167 0.0931809
000040 d3 b1 72 bf c8 3f 7b bd 5f b8 3e 3d 2d 3c c6 3e
       -0.9480259 -0.061340123 0.04656255 0.38717785
000050 05 d1 7b be c2 43 ea bd a2 da ed be d5 b7 59 3d
       -0.24591453 -0.11438705 -0.46455866 0.05315383
000060 d8 8d 28 bf c1 73 1a c0 53 a8 82 bd 48 f0 28 be
       -0.65841436 -2.413315 -0.063797615 -0.1649791
000070 32 4f 70 3e bb b2 95 3d dc d1 a2 be 0a f4 2e 3d
       0.2346771 0.07309481 -0.31800735 0.042713203
000080 d0 4b 83 3d 3d 11 e6 3e c3 5f ad 3a c7 cb 9a 3d
       0.064109445 0.44935027 0.0013227392 0.07558399
000090 37 37 0b 3d 0d 60 a6 3c ce 42 88 3e ed af eb bd
       0.033988204 0.020309472 0.26613468 -0.115081646
0000a0 42 20 0b bf ce ce b3 bf 04 ae 6a bb 98 59 38 bb
       -0.54346097 -1.4047487 -0.0035809288 -0.0028129574
0000b0 a8 07 20 bf f8 fe 22 bf d8 cc fa bd 1b c6 d8 3c
       -0.6251168 -0.636703 -0.12246102 0.026461652
0000c0 eb 21 10 bf a3 da 4d be ca a9 14 3d 1d 8b 9b 3e
       -0.56301755 -0.20102935 0.036294736 0.30379573
0000d0 78 68 d1 bd 98 ce 00 bd 63 20 95 3b 19 45 14 bd
       -0.10225004 -0.031447023 0.00455098 -0.03619871
0000e0 fc 13 25 bf 61 f6 b1 3d 97 70 e2 bd c0 17 c8 3d
       -0.6448362 0.08689571 -0.11056631 0.09770155
0000f0 15 ee 07 bf eb 91 4f 3d d1 cd 77 bf 15 cf 20 bd
       -0.5309766 0.050676268 -0.96798426 -0.03925999
000100 48 e2 08 be 92 d8 2f bf d4 76 b2 bc 8c 12 d2 3d
       -0.1336757 -0.68689835 -0.021785177 0.10257444
000110 15 e9 dd bd ee 74 60 be 6d a9 6a 3e d3 48 80 be
       -0.108354725 -0.21919605 0.22916193 -0.2505556
000120 f1 c3 9f be 3f 68 88 3e b0 e9 6d b9 a0 6a 1a 3d
       -0.3120418 0.26642033 -0.00022689137 0.03769934
000130 89 b3 49 bf 53 be 9b bf ff 32 bc be 54 80 2f 3e
       -0.78789574 -1.2167457 -0.36757657 0.17138797
000140 14 1e ea be 50 05 8d bc 0d 91 fc bd 2a 21 9a 3d
       -0.45726073 -0.017214447 -0.12332354 0.07525857
000150 bf e6 37 be 95 3c fc bd 20 f3 5e 3e 85 ed 04 be
       -0.17959116 -0.123162426 0.21772432 -0.12981232
000160 a9 47 8e bf aa 57 42 be a5 d2 03 3e 49 61 1f be
       -1.1115619 -0.18978754 0.12873323 -0.15564455
000170 8f 41 5e bf 88 74 59 3c 15 f3 0d 3e e4 e2 5c bc
       -0.86818784 0.013272412 0.1386226 -0.013481829
000180 d9 84 14 bf 18 aa f7 3e 05 3c 1f be a0 25 d8 3e
       -0.5801521 0.4837196 -0.1555024 0.42216206
000190 2d b5 ea 3d 17 75 81 bd 9a d4 2c be 39 84 15 bf
       0.11460338 -0.06321161 -0.16877976 -0.5840488
0001a0 2f 6c 1f bf e0 dc 83 3e 5e 76 db bd 6c 7e 5f 3d
       -0.6227445 0.25754452 -0.10715936 0.054563925
0001b0 49 de 37 bf de 7c 3b bd c4 e9 a4 be ca 07 1f bc
       -0.71823555 -0.04577338 -0.322096 -0.009706447
0001c0 6c bb 51 3e bb 4f d0 bd a5 56 08 bd f6 2e a9 3d
       0.20481652 -0.101714574 -0.033285756 0.0826091
0001d0 21 ef 12 bb d2 aa e8 bd 36 3e 9a bd a9 0d cc 3c
       -0.0022420364 -0.113607064 -0.07531397 0.024908857
0001e0 bb 45 18 be c3 d5 24 bf d0 42 31 3d c0 e6 67 bd
       -0.1487035 -0.64388674 0.043276608 -0.056616545
0001f0 52 a3 40 bf b1 50 13 be de 12 23 3e cb ec 68 bd
       -0.7524921 -0.1438625 0.15925166 -0.05686645

hidden_layers.1.bias f4 [8]
000000 48 e8 a5 bf 43 f5 94 bf eb 2d 36 bf ae de 92 be
       -1.2961512 -1.1637348 -0.71163815 -0.28685516
000010 b8 76 63 bf fe 98 a4 bf 1f 9a c6 bf 91 59 12 bf
       -0.88853025 -1.285919 -1.5515784 -0.5716792

output_layer.weight f4 [1, 8]
000000 58 17 11 bf 25 9b 06 3e 26 2d ef 3e 3a 72 02 bf
       -0.56676245 0.1314512 0.46714133 -0.50955546
000010 b7 22 84 bf 2d 78 84 bf 62 c5 80 bf fd 8c 57 bb
       -1.0323094 -1.0349175 -1.0060236 -0.0032890432

exp_avg f4 [16, 7]
000000 b7 c9 fd b7 23 94 e2 b7 58 8b 89 38 2a a5 15 39
       -3.0253881e-05 -2.7010281e-05 6.558624e-05 0.00014271276
000010 14 20 bd 38 ff bc a9 b7 c6 6f 46 36 1d 38 2a b8
       9.018197e-05 -2.0234378e-05 2.956936e-06 -4.0583418e-05
000020 7c 64 aa b7 8a 88 3f 38 da bd 07 36 28 14 94 39
       -2.031237e-05 4.566511e-05 2.0227076e-06 0.00028243777
000030 02 76 e5 b6 68 cf b5 b7 35 00 99 34 76 86 fb 33
       -6.8384697e-06 -2.1673462e-05 2.849862e-07 1.17125566e-07
000040 db 02 c5 b4 18 28 85 34 da 29 0a b6 ca 54 30 b4
       -3.6696187e-07 2.4802353e-07 -2.0587963e-06 -1.6422123e-07
000050 c3 0b f5 32 9c af 01 b9 54 3b 4f b8 ba df 4b 39
       2.8527102e-08 -0.00012367818 -4.94079e-05 0.00019442933
000060 4f 06 1f b9 d2 61 34 3a 85 50 c8 35 8c ff 9b 37
       -0.00015165772 0.00068810314 1.4924595e-06 1.8596438e-05
000070 de 00 99 34 ac 87 fb 33 be 03 c5 b4 27 28 85 34
       2.8499102e-07 1.1712777e-07 -3.6696832e-07 2.4802395e-07
000080 43 2a 0a b6 c2 53 30 b4 ab 0c f5 32 05 00 99 34
       -2.0588202e-06 -1.6421748e-07 2.8527515e-08 2.8498485e-07
000090 19 86 fb 33 a3 02 c5 b4 ed 27 85 34 bf 29 0a b6
       1.17124905e-07 -3.6696028e-07 2.480223e-07 -2.0587902e-06
0000a0 90 54 30 b4 f0 0b f5 32 20 32 bf b8 b6 bd 27 b8
       -1.6422041e-07 2.8527182e-08 -9.116926e-05 -3.9992585e-05
0000b0 cb fa 42 39 ef a2 09 39 cb c1 f3 39 c3 53 d3 b9
       0.0001859471 0.00013126036 0.0004649296 -0.00040307463
0000c0 bd c8 a8 b8 53 94 96 39 21 db f5 38 5a 5c b3 b9
       -8.048255e-05 0.0002872074 0.00011723326 -0.00034210348
0000d0 e2 c6 16 39 49 25 d6 ba 22 de 0d 39 78 41 b0 b7
       0.00014379204 -0.0016338016 0.00013529559 -2.1011321e-05
0000e0 48 bf 2e 3a ec fc 80 39 b3 0c 72 ba 16 a6 de 39
       0.00066660764 0.00024602504 -0.000923346 0.00042466883
0000f0 ee 3c 6b bb 92 43 28 3a a1 a7 0f 3a 33 87 94 ba
       -0.0035894471 0.000641876 0.0005479996 -0.0011331796
000100 96 7e e2 b9 95 33 d5 3a 0a f1 19 ba f8 32 01 3c
       -0.00043200393 0.0016265983 -0.00058724044 0.007885687
000110 18 65 55 ba 4b 74 24 ba c8 00 99 34 45 87 fb 33
       -0.00081403693 -0.00062734325 2.849904e-07 1.1712704e-07
000120 95 03 c5 b4 4b 28 85 34 36 2a 0a b6 41 54 30 b4
       -3.6696716e-07 2.4802497e-07 -2.0588172e-06 -1.6421929e-07
000130 ff 0c f5 32 25 00 99 34 5a 86 fb 33 ba 02 c5 b4
       2.8527664e-08 2.8498576e-07 1.1712537e-07 -3.6696093e-07
000140 0c 28 85 34 d9 29 0a b6 c5 54 30 b4 f9 0a f5 32
       2.4802318e-07 -2.058796e-06 -1.6422116e-07 2.8526744e-08
000150 32 46 27 3b a5 e2 83 3a 23 36 72 bb 02 7d 8e 3a
       0.0025524017 0.0010062052 -0.0036958538 0.0010870995
000160 c3 98 7d bc 6e e7 f9 3a 96 ff 6e 3a 94 40 33 3a
       -0.015478316 0.0019066164 0.0009117065 0.0006837931
000170 de 01 7f 39 c1 b1 7f ba 6a e2 93 39 31 15 87 bb
       0.0002431939 -0.00097539654 0.00028206717 -0.0041223993
000180 14 e8 1a 3a 8c 58 72 39 6a 9e cc 38 59 f8 df 37
       0.0005909216 0.00023111905 9.756985e-05 2.6699317e-05
000190 9b fa 10 b9 19 c8 1a b8 93 7a 0c ba 19 6b d7 39
       -0.00013826268 -3.6902817e-05 -0.0005358841 0.0004108779
0001a0 c3 6f e6 37 77 ff 98 34 51 85 fb 33 ca 01 c5 b4
       2.747018e-05 2.849808e-07 1.17123484e-07 -3.669541e-07
0001b0 d9 27 85 34 6a 29 0a b6 71 55 30 b4 82 07 f5 32
       2.4802173e-07 -2.0587709e-06 -1.6422361e-07 2.8525168e-08

exp_avg_sq f4 [16, 7]
000000 14 1f 30 36 b5 75 8c 34 2c 56 82 36 d6 72 a2 34
       2.6244134e-06 2.6162675e-07 3.8843336e-06 3.0258406e-07
000010 a2 62 1d 39 35 13 7e 34 b8 49 a9 35 f2 a2 b1 34
       0.0001500943 2.3662581e-07 1.2612936e-06 3.3087377e-07
000020 dc 44 1c 33 04 a7 1b 35 8a 17 7a 33 7a 70 6c 37
       3.6384208e-08 5.798504e-07 5.822907e-08 1.4092884e-05
000030 34 76 e4 33 cb e4 07 34 e8 3b fe 2c c0 60 6a 2b
       1.06385784e-07 1.2656089e-07 7.225765e-12 8.326777e-13
000040 f9 b1 4c 2d a2 da 9f 2b 66 4f 68 2f e2 ee d2 2c
       1.1635575e-11 1.1358312e-12 2.1128485e-10 5.9950803e-12
000050 ea 66 0e 2c 78 cb 89 35 f1 79 01 34 30 13 e2 35
       2.0236542e-12 1.0266513e-06 1.2058423e-07 1.6843896e-06
000060 79 68 e3 33 55 61 2f 38 94 7c 90 33 f0 d8 ef 34
       1.0589515e-07 4.18139e-05 6.728183e-08 4.4675062e-07
000070 8d 3b fe 2c 75 60 6a 2b b1 b1 4c 2d 88 da 9f 2b
       7.2257257e-12 8.326736e-13 1.1635513e-11 1.1358284e-12
000080 1e 4f 68 2f 9d ee d2 2c cc 66 0e 2c 04 3c fe 2c
       2.1128385e-10 5.9950504e-12 2.0236477e-12 7.2257773e-12
000090 e6 60 6a 2b 28 b2 4c 2d e2 da 9f 2b 92 4f 68 2f
       8.3267974e-13 1.1635616e-11 1.1358382e-12 2.1128546e-10
0000a0 e4 ee d2 2c 22 67 0e 2c 5e cf 7a 35 c6 8f d0 33
       5.995081e-12 2.0236664e-12 9.3434016e-07 9.711907e-08
0000b0 fa 69 cb 35 00 69 09 34 e1 09 4a 38 f2 e9 b0 36
       1.5155522e-06 1.2797318e-07 4.8169753e-05 5.2724436e-06
0000c0 e2 5b e6 34 5c 2a dc 34 3b 2c 42 33 96 cb 0c 35
       4.2907692e-07 4.1009014e-07 4.5209372e-08 5.245032e-07
0000d0 2c f2 dd 33 73 07 57 37 f9 4f 05 35 4f 72 c9 33
       1.0335165e-07 1.2816733e-05 4.9662737e-07 9.3805845e-08
0000e0 fa ef a1 38 07 ca 13 37 9a 5b 02 39 63 d2 c0 36
       7.7217774e-05 8.808921e-06 0.0001243189 5.746538e-06
0000f0 41 6a 5c 3b 02 78 c2 38 f4 09 ae 37 17 f6 7a 37
       0.0033632668 9.272994e-05 2.0747051e-05 1.4958458e-05
000100 12 dc dc 35 09 6d c2 37 f7 a4 bb 35 a4 f5 24 3a
       1.6455326e-06 2.3177376e-05 1.3980597e-06 0.0006292707
000110 c9 4b 7c 37 9e fa 8c 36 cb 3b fe 2c ab 60 6a 2b
       1.5038016e-05 4.201501e-06 7.2257525e-12 8.3267654e-13
000120 e1 b1 4c 2d a5 da 9f 2b 53 4f 68 2f c1 ee d2 2c
       1.16355545e-11 1.1358316e-12 2.1128459e-10 5.995066e-12
000130 05 67 0e 2c cd 3b fe 2c ae 60 6a 2b e3 b1 4c 2d
       2.02366e-12 7.2257534e-12 8.326767e-13 1.1635556e-11
000140 99 da 9f 2b 54 4f 68 2f bb ee d2 2c f0 66 0e 2c
       1.1358303e-12 2.112846e-10 5.9950634e-12 2.0236555e-12
000150 bc 5e ba 38 58 77 29 37 0d 22 19 39 7f 93 01 37
       8.886817e-05 1.0100972e-05 0.00014603902 7.723341e-06
000160 58 e0 4d 3b 62 b3 a0 38 3d a3 54 37 c3 83 b3 36
       0.0031414237 7.662807e-05 1.2674192e-05 5.349955e-06
000170 96 c9 1c 35 43 44 08 37 9e 99 24 35 a3 3b 53 39
       5.8407875e-07 8.122125e-06 6.1318303e-07 0.00020144744
000180 0c 41 b7 36 40 7d 97 35 14 f4 ab 34 ee 16 18 33
       5.4613974e-06 1.1286829e-06 3.2028822e-07 3.5411112e-08
000190 e7 c4 10 35 ca e6 7c 33 35 2f 2b 37 a1 df 50 35
       5.393071e-07 5.8883224e-08 1.02033855e-05 7.781146e-07
0001a0 33 0a 0e 34 d3 3b fe 2c ba 60 6a 2b f2 b1 4c 2d
       1.3228491e-07 7.225756e-12 8.3267735e-13 1.1635569e-11
0001b0 a1 da 9f 2b 63 4f 68 2f c6 ee d2 2c fc 66 0e 2c
       1.1358311e-12 2.1128481e-10 5.995068e-12 2.0236582e-12

exp_avg f4 [16]
000000 53 1b 95 b8 e5 09 6f b8 c1 bc e3 34 98 34 2f b9
       -7.109963e-05 -5.6991255e-05 4.2419381e-07 -0.00016708893
000010 9f bd e3 34 94 bc e3 34 0d 91 09 b9 3e 87 c5 39
       4.2420012e-07 4.2419254e-07 -0.00013119374 0.0003767553
000020 c5 e3 51 3a 95 0d cb ba 7d bd e3 34 c1 bc e3 34
       0.00080066576 -0.0015491719 4.2419916e-07 4.2419381e-07
000030 ad 65 62 3b 61 b2 64 3a e4 bf df 38 e5 bb e3 34
       0.0034545467 0.00087240903 0.00010669211 4.2418756e-07

exp_avg_sq f4 [16]
000000 52 d5 82 36 8f fa 0c 35 61 db 44 2d 98 8e d3 35
       3.8991357e-06 5.2518675e-07 1.1190022e-11 1.5762225e-06
000010 33 db 44 2d 8c db 44 2d c2 a0 bd 35 c7 ff 2a 35
       1.1189982e-11 1.1190059e-11 1.4128384e-06 6.370214e-07
000020 66 9b f8 38 db 2e b8 37 52 db 44 2d 58 db 44 2d
       0.00011854507 2.1956328e-05 1.1190009e-11 1.1190014e-11
000030 bb fc 0e 39 64 a7 04 37 2b 07 fd 34 5d db 44 2d
       0.00013636325 7.906787e-06 4.7130138e-07 1.11900185e-11

exp_avg f4 [8, 16]
000000 5a 1a 58 b9 1b 34 f4 37 05 2b 6b 34 34 bd 96 b7
       -0.00020609182 2.911133e-05 2.1901731e-07 -1.7969498e-05
000010 07 2b 6b 34 e1 2b 6b 34 03 a7 56 b8 e8 16 5f 37
       2.1901734e-07 2.1902044e-07 -5.1177118e-05 1.3297169e-05
000020 75 e0 8b 38 57 e9 fa b7 01 29 6b 34 fc 2a 6b 34
       6.669845e-05 -2.991098e-05 2.1900998e-07 2.1901718e-07
000030 b8 d6 0f 39 55 78 cb 38 5a a1 b2 b7 d3 2b 6b 34
       0.00013717532 9.702208e-05 -2.1294389e-05 2.1902024e-07
000040 4b 66 73 37 da 22 52 38 d2 30 df b2 b3 a5 67 37
       1.4507746e-05 5.010036e-05 -2.5982818e-08 1.3807253e-05
000050 48 2f df b2 80 31 df b2 df 40 26 b8 e8 98 19 b7
       -2.5982118e-08 -2.5983127e-08 -3.96379e-05 -9.155112e-06
000060 25 08 ec b8 9f d2 87 37 b5 2f df b2 99 30 df b2
       -0.00011254874 1.6191332e-05 -2.5982311e-08 -2.5982716e-08
000070 ac 55 ca b8 a7 ce c3 37 b8 9b ec 35 52 30 df b2
       -9.648068e-05 2.3342041e-05 1.762869e-06 -2.598259e-08
000080 ea c2 89 37 9f 0e 2c b6 51 31 8a b3 13 62 9e 36
       1.6422437e-05 -2.5638508e-06 -6.4350964e-08 4.7201843e-06
000090 f6 31 8a b3 b7 31 8a b3 35 ef 0e 38 ce 00 a5 37
       -6.4352136e-08 -6.435169e-08 3.4078217e-05 1.9669907e-05
0000a0 c6 ac 4d b7 b1 fc 3d 38 d7 30 8a b3 f2 30 8a b3
       -1.2259179e-05 4.529645e-05 -6.43501e-08 -6.435029e-08
0000b0 94 d7 34 b9 14 6d 82 b8 7b 9f e0 37 2b 32 8a b3
       -0.00017246447 -6.2192004e-05 2.6777145e-05 -6.435251e-08
0000c0 d1 94 3d b9 e5 60 87 b8 d4 eb 01 b6 d3 0a 2a 37
       -0.00018079883 -6.45535e-05 -1.9359768e-06 1.013531e-05
0000d0 44 ec 01 b6 f1 eb 01 b6 85 93 96 b9 1c a7 b2 38
       -1.9360023e-06 -1.9359834e-06 -0.0002872014 8.518828e-05
0000e0 9b ae 96 3a e7 8b c8 3a 46 ec 01 b6 dc eb 01 b6
       0.0011496128 0.0015300483 -1.9360027e-06 -1.9359786e-06
0000f0 39 c4 f9 39 4c a2 10 b9 09 dc 0f b9 c0 eb 01 b6
       0.00047639178 -0.0001379337 -0.00013719512 -1.9359723e-06
000100 77 d5 2d 37 49 19 02 b8 8e 74 81 b4 6e 67 3b b7
       1.0361305e-05 -3.1017964e-05 -2.4112927e-07 -1.117015e-05
000110 45 75 81 b4 b0 73 81 b4 c2 6e 79 b9 90 41 e2 38
       -2.4113447e-07 -2.4112296e-07 -0.00023787751 0.00010788732
000120 3b d6 a1 3a f8 ef 26 3a b8 74 81 b4 44 75 81 b4
       0.0012347171 0.00063681556 -2.4113046e-07 -2.4113444e-07
000130 c1 f3 96 b9 b7 d7 32 b9 ae ca b8 b8 0e 75 81 b4
       -0.0002879184 -0.00017055763 -8.811556e-05 -2.411329e-07
000140 1b 36 75 39 e4 35 35 39 27 c9 11 37 32 b8 7f b8
       0.00023385177 0.00017281581 8.689508e-06 -6.0968283e-05
000150 5c c9 11 37 3b c9 11 37 94 c2 65 39 f2 37 29 39
       8.689556e-06 8.689526e-06 0.00021911628 0.00016137937
000160 9c 99 ae 37 d0 d1 56 bb 37 c9 11 37 28 c9 11 37
       2.0813946e-05 -0.0032778867 8.6895225e-06 8.689509e-06
000170 5f ed a9 ba 17 65 8e 37 2c 23 0e 39 04 c9 11 37
       -0.0012964419 1.6974793e-05 0.00013555278 8.689476e-06
000180 5a 63 50 39 91 a7 49 39 3d 9c cf 36 6d 36 b4 b8
       0.00019873437 0.00019231277 6.1872693e-06 -8.5932064e-05
000190 80 9c cf 36 52 9c cf 36 be af d3 38 a8 9b 54 39
       6.1872997e-06 6.187279e-06 0.000100939986 0.00020275882
0001a0 0a 70 26 38 e7 43 39 bb 2d 9c cf 36 3e 9c cf 36
       3.968183e-05 -0.0028269233 6.187262e-06 6.1872697e-06
0001b0 37 db 92 ba 50 88 08 39 b5 ad 02 39 12 9c cf 36
       -0.0011204247 0.00013020751 0.00012462477 6.1872497e-06
0001c0 11 89 91 b5 85 1b 89 36 e3 39 27 34 49 56 76 33
       -1.0843233e-06 4.086122e-06 1.5574146e-07 5.7354814e-08
0001d0 0b 3a 27 34 fa 39 27 34 44 e8 0a b7 a8 5f 4c 36
       1.5574203e-07 1.5574179e-07 -8.2795195e-06 3.0454048e-06
0001e0 58 fe 9f b5 ed 2f 7b b8 ec 39 27 34 d4 39 27 34
       -1.1920447e-06 -5.9887698e-05 1.5574159e-07 1.5574125e-07
0001f0 9b e1 ef b7 e8 19 bc 36 6a ce 8a b5 94 39 27 34
       -2.8596076e-05 5.6058525e-06 -1.0341876e-06 1.5574034e-07

exp_avg_sq f4 [8, 16]
000000 3d 41 87 34 ab 79 8f 35 d0 a1 03 2d c8 5a 41 34
       2.5193177e-07 1.068974e-06 7.4824175e-12 1.8007552e-07
000010 cb a1 03 2d dc a1 03 2d 00 90 c1 34 51 cf b5 34
       7.482413e-12 7.482428e-12 3.6053825e-07 3.386472e-07
000020 6e 5d aa 36 47 91 13 35 d2 a1 03 2d cd a1 03 2d
       5.0772715e-06 5.4973174e-07 7.482419e-12 7.482415e-12
000030 49 b9 a2 38 13 9d 10 37 4d 02 97 34 d1 a1 03 2d
       7.759274e-05 8.6196405e-06 2.8127616e-07 7.482418e-12
000040 42 f6 5f 32 58 71 e2 33 b0 3c 45 2a 7b 3f 14 32
       1.3036301e-08 1.0544562e-07 1.751817e-13 8.629168e-09
000050 a9 3c 45 2a bf 3c 45 2a c1 63 d2 32 ba 7d 92 32
       1.751816e-13 1.751819e-13 2.449258e-08 1.705381e-08
000060 7c 6b 69 34 76 4f fa 32 b1 3c 45 2a a1 3c 45 2a
       2.1738919e-07 2.9139965e-08 1.7518171e-13 1.751815e-13
000070 49 39 8a 36 3e 1d 57 35 cd 06 6f 32 98 3c 45 2a
       4.1193894e-06 8.0136294e-07 1.3913177e-08 1.7518138e-13
000080 f5 88 95 31 3c 40 87 33 57 80 a8 2b 09 82 5e 31
       4.352041e-09 6.2981115e-08 1.1972739e-12 3.2379168e-09
000090 5a 80 a8 2b 59 80 a8 2b 54 24 c1 34 fa 1b 0d 33
       1.1972743e-12 1.1972742e-12 3.5975484e-07 3.2854565e-08
0000a0 e9 91 81 34 fc 5a c3 32 6b 80 a8 2b 65 80 a8 2b
       2.4134286e-07 2.2742363e-08 1.1972761e-12 1.1972755e-12
0000b0 8f 5f af 35 51 7c 16 34 4a 7e 22 32 76 80 a8 2b
       1.3066327e-06 1.4015065e-07 9.458356e-09 1.1972773e-12
0000c0 8d 04 72 34 8a eb 19 35 cb 56 85 2f 03 7e 61 34
       2.2539662e-07 5.7339696e-07 2.425423e-10 2.1000601e-07
0000d0 c4 56 85 2f bb 56 85 2f 05 77 a0 35 cd 67 05 35
       2.425421e-10 2.4254185e-10 1.1955568e-06 4.969741e-07
0000e0 4e 75 69 38 21 e5 89 38 c6 56 85 2f b8 56 85 2f
       5.5660777e-05 6.575348e-05 2.4254215e-10 2.4254176e-10
0000f0 08 b5 63 38 51 12 35 36 93 32 0a 35 c0 56 85 2f
       5.4289616e-05 2.6981763e-06 5.14826e-07 2.42542e-10
000100 c1 ea 8f 34 3c 6b e9 34 fb 91 11 30 e5 3c 6e 34
       2.6806632e-07 4.3477655e-07 5.2958143e-10 2.218763e-07
000110 fe 91 11 30 f9 91 11 30 f4 60 08 36 b6 6e 4e 35
       5.295816e-10 5.295813e-10 2.0322013e-06 7.6902086e-07
000120 8d 29 9a 38 ad 96 06 39 03 92 11 30 ff 91 11 30
       7.351032e-05 0.00012835367 5.295819e-10 5.2958166e-10
000130 81 63 f7 37 5b 79 03 35 0c 8b 22 35 00 92 11 30
       2.949103e-05 4.89779e-07 6.055204e-07 5.295817e-10
000140 ee ac b8 34 db 18 01 35 af 10 a2 30 cb 93 42 34
       3.4398494e-07 4.8092414e-07 1.1791793e-09 1.8121425e-07
000150 a7 10 a2 30 ad 10 a2 30 8d 10 13 35 1c 14 e1 34
       1.1791784e-09 1.1791791e-09 5.478585e-07 4.1924147e-07
000160 06 d1 d0 34 ea 8d 8c 38 b9 10 a2 30 a6 10 a2 30
       3.8895104e-07 6.702154e-05 1.1791804e-09 1.1791783e-09
000170 ab e4 47 37 95 5a 42 35 7e 9d b6 34 ad 10 a2 30
       1.1914565e-05 7.2402446e-07 3.4014732e-07 1.1791791e-09
000180 45 f0 a9 34 25 18 53 35 92 bd 3e 30 c4 f2 1b 34
       3.1653522e-07 7.863876e-07 6.9390993e-10 1.4523818e-07
000190 84 bd 3e 30 90 bd 3e 30 bf 8b 0b 35 0d 05 ca 34
       6.9390915e-10 6.939098e-10 5.198489e-07 3.7629107e-07
0001a0 87 a2 bc 36 83 1d 8c 38 92 bd 3e 30 8d bd 3e 30
       5.6217573e-06 6.681217e-05 6.9390993e-10 6.9390965e-10
0001b0 c7 bc 95 37 07 a7 d8 35 c1 38 c6 34 92 bd 3e 30
       1.785009e-05 1.6141865e-06 3.6921668e-07 6.9390993e-10
0001c0 7b f4 44 30 a0 6c c1 2f e7 7e 60 2a 3d 1f f0 2e
       7.165181e-10 3.5183678e-10 1.9939225e-13 1.09194855e-10
0001d0 eb 7e 60 2a e7 7e 60 2a 88 c4 ab 30 1b e5 00 30
       1.993923e-13 1.9939225e-13 1.2497745e-09 4.6891707e-10
0001e0 8a e5 cb 32 79 31 8b 32 ed 7e 60 2a e9 7e 60 2a
       2.3736693e-08 1.6204227e-08 1.9939233e-13 1.9939227e-13
0001f0 33 d0 ab 32 5d 63 8d 30 93 41 80 2f f2 7e 60 2a
       2.0001698e-08 1.0287341e-09 2.3329658e-10 1.993924e-13

exp_avg f4 [8]
000000 08 3c 82 39 82 9b 6a b7 20 ac d5 b8 ad 15 4e 3a
       0.0002484026 -1.3983694e-05 -0.00010188692 0.00078615063
000010 a9 1f f7 b8 90 61 06 bb d9 53 e0 ba 8f 19 32 b8
       -0.00011783775 -0.002050493 -0.0017114832 -4.246231e-05

exp_avg_sq f4 [8]
000000 5f 94 ac 37 65 74 66 35 48 07 12 35 26 7f 0a 38
       2.0573088e-05 8.5851053e-07 5.4399834e-07 3.302018e-05
000010 60 5f 25 38 92 41 c1 37 ed 76 cb 37 29 94 8c 32
       3.942789e-05 2.3037926e-05 2.4254865e-05 1.636552e-08

exp_avg f4 [1, 8]
000000 32 eb 95 b9 57 a3 6d ba 43 1b d1 b8 ea c3 1f 3b
       -0.0002859473 -0.0009065172 -9.9709745e-05 0.0024378248
000010 66 33 35 3b a8 48 23 3a af 36 c5 3a 65 c3 64 39
       0.0027649044 0.0006228783 0.0015046204 0.00021816565

exp_avg_sq f4 [1, 8]
000000 d0 4c bb 37 2b 84 83 38 27 e5 bf 34 bd ab 86 39
       2.2327906e-05 6.271185e-05 3.5743253e-07 0.00025686427
000010 09 50 e6 38 19 ae 26 36 7c d0 85 37 46 15 82 35
       0.00010982162 2.4837266e-06 1.5951919e-05 9.691946e-07
