FinishedEmulators/screened_fofr_nonlin_Pk/version_4/checkpoints/epoch=139-step=11457600.ckpt (torch, 161989 bytes, 20 tensors)

hidden_layers.0.weight f4 [128, 7]
0	0xbdb7831d	-0.08960555
1	0xbd20e806	-0.039283775
2	0x3dee41b6	0.11633627
3	0x3cd6cde7	0.026221229
4	0x3f0e7f9c	0.55663466
5	0xbd443c99	-0.047909353
6	0xbbac4be7	-0.0052580717
7	0xbdb782ff	-0.089605324
8	0xbd20e7d1	-0.039283577
9	0x3dee419e	0.11633609
10	0x3cd6cdcf	0.026221184
11	0x3f0e7f99	0.5566345
12	0xbd443c8a	-0.047909297
13	0xbbac4cac	-0.0052581634
14	0xbdb78322	-0.089605585
15	0xbd20e806	-0.039283775
16	0x3dee41c3	0.11633637
17	0x3cd6cdca	0.026221175
18	0x3f0e7f9b	0.5566346
19	0xbd443cc1	-0.047909502
20	0xbbac4b90	-0.005258031
21	0xbdb78328	-0.08960563
22	0xbd20e80f	-0.03928381
23	0x3dee41c8	0.116336405
24	0x3cd6ce16	0.026221316
25	0x3f0e7f9c	0.55663466
26	0xbd443ce5	-0.047909636
27	0xbbac4ce8	-0.0052581914
28	0xbdb78328	-0.08960563
29	0xbd20e813	-0.039283823
30	0x3dee41c2	0.11633636
31	0x3cd6cdfb	0.026221266
32	0x3f0e7f9c	0.55663466
33	0xbd443cab	-0.04790942
34	0xbbac4c5b	-0.0052581257
35	0xbdb7831b	-0.08960553
36	0xbd20e7ea	-0.03928367
37	0x3dee41b8	0.116336286
38	0x3cd6cd83	0.026221042
39	0x3f0e7f9c	0.55663466
40	0xbd443cb1	-0.047909442
41	0xbbac4bde	-0.0052580675
42	0xbdb78312	-0.089605466
43	0xbd20e7f5	-0.03928371
44	0x3dee41b3	0.11633625
45	0x3cd6cdd9	0.026221203
46	0x3f0e7f9a	0.55663455
47	0xbd443cb5	-0.047909457
48	0xbbac4bd5	-0.0052580633
49	0xbdb78318	-0.08960551
50	0xbd20e7e4	-0.039283648
51	0x3dee41b7	0.11633628
52	0x3cd6cd9b	0.026221087
53	0x3f0e7f9c	0.55663466
54	0xbd443cad	-0.047909427
55	0xbbac4bd0	-0.005258061
56	0xbdb78312	-0.089605466
57	0xbd20e7e6	-0.039283656
58	0x3dee41ad	0.116336204
59	0x3cd6cd9f	0.026221095
60	0x3f0e7f99	0.5566345
61	0xbd443cad	-0.047909427
62	0xbbac4c06	-0.005258086
63	0xbdb78314	-0.08960548
64	0xbd20e7ef	-0.03928369
65	0x3dee41af	0.11633622
66	0x3cd6cdcc	0.026221178
67	0x3f0e7f9b	0.5566346
68	0xbd443cbc	-0.047909483
69	0xbbac4cab	-0.005258163
70	0xbdb78309	-0.0896054
71	0xbd20e7de	-0.039283626
72	0x3dee41a5	0.116336145
73	0x3cd6cdbc	0.026221149
74	0x3f0e7f98	0.5566344
75	0xbd443ca2	-0.047909386
76	0xbbac4c9d	-0.0052581565
77	0xbdb782ee	-0.0896052
78	0xbd20e7ac	-0.03928344
79	0x3dee418c	0.11633596
80	0x3cd6cd9e	0.026221093
81	0x3f0e7f97	0.55663437
82	0xbd443c92	-0.047909327
83	0xbbac4d4b	-0.0052582375
84	0xbdb782fa	-0.08960529
85	0xbd20e7cb	-0.039283555
86	0x3dee419c	0.11633608
87	0x3cd6cdb8	0.026221141
88	0x3f0e7f9b	0.5566346
89	0xbd443c7d	-0.04790925
90	0xbbac4c66	-0.005258131
91	0xbdb78322	-0.089605585
92	0xbd20e80c	-0.039283797
93	0x3dee41c2	0.11633636
94	0x3cd6cdd2	0.02622119
95	0x3f0e7f9b	0.5566346
96	0xbd443ccf	-0.047909554
97	0xbbac4b88	-0.0052580275
98	0xbdb7830d	-0.08960543
99	0xbd20e7e1	-0.039283637
100	0x3dee41a3	0.11633613
101	0x3cd6cda1	0.026221098
102	0x3f0e7f9a	0.55663455
103	0xbd443cb7	-0.047909465
104	0xbbac4c4c	-0.0052581187
105	0xbdb78315	-0.08960549
106	0xbd20e7d3	-0.039283585
107	0x3dee41b0	0.11633623
108	0x3cd6cd6c	0.026221
109	0x3f0e7f9a	0.55663455
110	0xbd443ca4	-0.047909394
111	0xbbac4baf	-0.0052580456
112	0xbdb7832f	-0.08960568
113	0xbd20e80c	-0.039283797
114	0x3dee41d2	0.11633648
115	0x3cd6cdee	0.026221242
116	0x3f0e7f9b	0.5566346
117	0xbd443cbf	-0.047909494
118	0xbbac4bf2	-0.005258077
119	0xbdb782e7	-0.089605145
120	0xbd20e7a0	-0.039283395
121	0x3dee418a	0.11633594
122	0x3cd6cd20	0.026220858
123	0x3f0e7f98	0.5566344
124	0xbd443c6c	-0.047909185
125	0xbbac4bfb	-0.005258081
126	0xbdb78318	-0.08960551
127	0xbd20e7ef	-0.03928369
128	0x3dee41b8	0.116336286
129	0x3cd6cda4	0.026221104
130	0x3f0e7f9b	0.5566346
131	0xbd443cb9	-0.047909472
132	0xbbac4b4e	-0.0052580005
133	0xbdb7832e	-0.089605674
134	0xbd20e80f	-0.03928381
135	0x3dee41c8	0.116336405
136	0x3cd6cdf5	0.026221255
137	0x3f0e7f9e	0.5566348
138	0xbd443ce2	-0.047909625
139	0xbbac4c20	-0.0052580982
140	0x3fdecc5f	1.7406119
141	0x3f9c54bd	1.221336
142	0x3ecfb320	0.4056635
143	0x3ce59a65	0.028027723
144	0x3e783a24	0.24240929
145	0xbf2d1510	-0.67610264
146	0x40117a9d	2.2731087
147	0xbdb782ea	-0.08960517
148	0xbd20e7af	-0.03928345
149	0x3dee418d	0.116335966
150	0x3cd6cd5e	0.026220974
151	0x3f0e7f98	0.5566344
152	0xbd443c78	-0.04790923
153	0xbbac4c1a	-0.0052580955
154	0xbdb78330	-0.08960569
155	0xbd20e811	-0.039283816
156	0x3dee41ca	0.11633642
157	0x3cd6cddb	0.026221206
158	0x3f0e7f9e	0.5566348
159	0xbd443cd4	-0.047909573
160	0xbbac4c09	-0.0052580875
161	0xbdb78314	-0.08960548
162	0xbd20e7de	-0.039283626
163	0x3dee41b5	0.11633626
164	0x3cd6cd81	0.026221039
165	0x3f0e7f9c	0.55663466
166	0xbd443c91	-0.047909323
167	0xbbac4ad6	-0.0052579446
168	0xbdb7830a	-0.089605406
169	0xbd20e7e6	-0.039283656
170	0x3dee41a9	0.116336174
171	0x3cd6cd5c	0.02622097
172	0x3f0e7f9d	0.5566347
173	0xbd443ca2	-0.047909386
174	0xbbac4b38	-0.00525799
175	0xbdb7832a	-0.089605644
176	0xbd20e7f6	-0.039283715
177	0x3dee41c4	0.116336375
178	0x3cd6cd90	0.026221067
179	0x3f0e7f9d	0.5566347
180	0xbd443cc4	-0.047909513
181	0xbbac4b19	-0.005257976
182	0xbdb78326	-0.089605615
183	0xbd20e801	-0.039283756
184	0x3dee41c6	0.11633639
185	0x3cd6cdc1	0.026221158
186	0x3f0e7f9b	0.5566346
187	0xbd443cb3	-0.04790945
188	0xbbac4ada	-0.0052579464
189	0xbdb7833a	-0.08960576
190	0xbd20e836	-0.039283954
191	0x3dee41db	0.11633655
192	0x3cd6ce1e	0.026221331
193	0x3f0e7f9e	0.5566348
194	0xbd443cca	-0.047909535
195	0xbbac4c53	-0.005258122
196	0xbdb7831a	-0.089605525
197	0xbd20e7f4	-0.039283708
198	0x3dee41b9	0.11633629
199	0x3cd6cd9d	0.02622109
200	0x3f0e7f9b	0.5566346
201	0xbd443cdc	-0.047909603
202	0xbbac4c22	-0.005258099
203	0xbdb782ef	-0.089605205
204	0xbd20e7a8	-0.039283425
205	0x3dee418d	0.116335966
206	0x3cd6cd58	0.026220962
207	0x3f0e7f98	0.5566344
208	0xbd443c58	-0.04790911
209	0xbbac4c84	-0.005258145
210	0xbdb7831f	-0.08960556
211	0xbd20e7f9	-0.039283726
212	0x3dee41b6	0.11633627
213	0x3cd6cdb5	0.026221136
214	0x3f0e7f9a	0.55663455
215	0xbd443cc5	-0.047909517
216	0xbbac4c36	-0.0052581085
217	0xbdc66e93	-0.09689059
218	0xbe0b9806	-0.13632211
219	0xbe753e79	-0.23949613
220	0xbe39f10c	-0.18158358
221	0xbb6954be	-0.0035603489
222	0xbe58dbec	-0.21177644
223	0xbf5632c7	-0.8367123
224	0xbdb7831f	-0.08960556
225	0xbd20e804	-0.039283767
226	0x3dee41ba	0.1163363
227	0x3cd6cdf8	0.02622126
228	0x3f0e7f9c	0.55663466
229	0xbd443cc8	-0.047909528
230	0xbbac4c7a	-0.00525814
231	0xbdb7831c	-0.08960554
232	0xbd20e7f6	-0.039283715
233	0x3dee41be	0.11633633
234	0x3cd6cdf3	0.026221251
235	0x3f0e7f9b	0.5566346
236	0xbd443c96	-0.04790934
237	0xbbac4c77	-0.0052581388
238	0xbdb78307	-0.08960538
239	0xbd20e7ea	-0.03928367
240	0x3dee41a2	0.11633612
241	0x3cd6cdad	0.02622112
242	0x3f0e7f9a	0.55663455
243	0xbd443c9a	-0.047909357
244	0xbbac4b78	-0.00525802
245	0xbdb7831b	-0.08960553
246	0xbd20e7f8	-0.039283723
247	0x3dee41bd	0.11633632
248	0x3cd6ce00	0.026221275
249	0x3f0e7f9b	0.5566346
250	0xbd443ccf	-0.047909554
251	0xbbac4c66	-0.005258131
252	0x3eac6c5b	0.3367642
253	0xbe078aed	-0.1323659
254	0x3f9317a2	1.1491587
255	0x3ef88dd1	0.48545697

hidden_layers.0.bias f4 [128]
0	0xbdea04f1	-0.11426724
1	0xbdea04d0	-0.11426699
2	0xbdea04f9	-0.1142673
3	0xbdea04fd	-0.11426733
4	0xbdea04fd	-0.11426733
5	0xbdea04f3	-0.11426725
6	0xbdea04e7	-0.11426716
7	0xbdea04eb	-0.11426719
8	0xbdea04ed	-0.11426721
9	0xbdea04e9	-0.11426718
10	0xbdea04db	-0.11426707
11	0xbdea04c6	-0.11426692
12	0xbdea04cc	-0.11426696
13	0xbdea04fc	-0.11426732
14	0xbdea04dd	-0.11426709
15	0xbdea04eb	-0.11426719
16	0xbdea04fe	-0.114267334
17	0xbdea04bb	-0.114266835
18	0xbdea04ef	-0.11426722
19	0xbdea0500	-0.11426735
20	0xbe5c09ff	-0.21488188
21	0xbdea04c1	-0.11426688
22	0xbdea0507	-0.1142674
23	0xbdea04e2	-0.114267126
24	0xbdea04e2	-0.114267126
25	0xbdea04fb	-0.11426731
26	0xbdea04f9	-0.1142673
27	0xbdea050e	-0.11426745
28	0xbdea04f9	-0.1142673
29	0xbdea04c3	-0.114266895
30	0xbdea04f3	-0.11426725
31	0xbf038b62	-0.51384556
32	0xbdea04f1	-0.11426724
33	0xbdea04f5	-0.11426727
34	0xbdea04d6	-0.11426704
35	0xbdea04f2	-0.114267245
36	0x3edc7b96	0.4306304
37	0xbdea04df	-0.1142671
38	0xbdea04e8	-0.11426717
39	0xbdea04db	-0.11426707
40	0xbdea04ca	-0.11426695
41	0xbdea04de	-0.114267096
42	0xbdea04ea	-0.114267185
43	0xbdea04d8	-0.11426705
44	0xbdea04de	-0.114267096
45	0xbdea04ee	-0.114267215
46	0xbdea04ec	-0.1142672
47	0xbdea04fa	-0.114267305
48	0xbdea04fc	-0.11426732
49	0xbdea04c5	-0.11426691
50	0xbdea04de	-0.114267096
51	0xbdea04ed	-0.11426721
52	0xbdea04db	-0.11426707
53	0xbdea04ca	-0.11426695
54	0xbdea050c	-0.11426744
55	0xbdea04d0	-0.11426699
56	0xbdea0503	-0.11426737
57	0xbdea04df	-0.1142671
58	0xbdea04c5	-0.11426691
59	0xbdea04dd	-0.11426709
60	0xbdea04d9	-0.11426706
61	0xbdea04fa	-0.114267305
62	0xbdea04ff	-0.11426734
63	0xbdea04da	-0.114267066
64	0xbdea050b	-0.11426743
65	0xbdea04e9	-0.11426718
66	0xbdea04df	-0.1142671
67	0xbf0e94ad	-0.5569561
68	0xbf77a43a	-0.96734965
69	0xbdea04d7	-0.114267044
70	0x3fe19406	1.7623298
71	0xbdea04e4	-0.11426714
72	0xbdea04d9	-0.11426706
73	0xbf33ad20	-0.7018604
74	0xbdea04e3	-0.11426713
75	0xbdea04e7	-0.11426716
76	0xbdea04dc	-0.11426708
77	0xbdea04d3	-0.114267014
78	0xbdea04f2	-0.114267245
79	0xbdea04d2	-0.11426701
80	0xbdea0517	-0.11426752
81	0xbdea04c3	-0.114266895
82	0xbdea0507	-0.1142674
83	0xbdea04e8	-0.11426717
84	0xbdea04c7	-0.114266925
85	0xbdea04d4	-0.11426702
86	0xbdea04ff	-0.11426734
87	0xbdea04f2	-0.114267245
88	0xbdea04d6	-0.11426704
89	0xbdea04cf	-0.114266984
90	0xbdea0504	-0.11426738
91	0xbdea04ef	-0.11426722
92	0xbdea04ff	-0.11426734
93	0xbdea04dc	-0.11426708
94	0x3c0d3402	0.008618357
95	0xbdea04f1	-0.11426724
96	0xbdea04f3	-0.11426725
97	0xbdea04d3	-0.114267014
98	0xbdea04e7	-0.11426716
99	0xbdea04df	-0.1142671
100	0xc0765dc5	-3.8494732
101	0xbdea04e6	-0.114267156
102	0xbdea04dd	-0.11426709
103	0xbdea04d1	-0.114267
104	0xbdea04fd	-0.11426733
105	0xbdea04db	-0.11426707
106	0xbdea04d7	-0.114267044
107	0xbdea04f4	-0.11426726
108	0xbdea04db	-0.11426707
109	0xbdea0503	-0.11426737
110	0xbdea04f6	-0.114267275
111	0xbdea04c9	-0.11426694
112	0xbdea04d5	-0.11426703
113	0xbdea050c	-0.11426744
114	0xbdea04c9	-0.11426694
115	0xbdea04ef	-0.11426722
116	0xbdea04f0	-0.11426723
117	0xbdea0505	-0.11426739
118	0xbdea04de	-0.114267096
119	0xbdea04d5	-0.11426703
120	0xbdea04de	-0.114267096
121	0xbdea0502	-0.114267364
122	0xbdea04bd	-0.11426685
123	0xbdea04e6	-0.114267156
124	0xbdea0506	-0.114267394
125	0xbdea04ee	-0.114267215
126	0xbdea0517	-0.11426752
127	0xbdea04d2	-0.11426701

hidden_layers.1.weight f4 [64, 128]
0	0x3b9fd0eb	0.0048772
1	0x3b9fd137	0.0048772353
2	0x3b9fd0db	0.0048771924
3	0x3b9fd0d6	0.00487719
4	0x3b9fd0ed	0.004877201
5	0x3b9fd0df	0.0048771943
6	0x3b9fd100	0.0048772097
7	0x3b9fd0b4	0.0048771743
8	0x3b9fd11c	0.0048772227
9	0x3b9fd101	0.00487721
10	0x3b9fd13a	0.0048772367
11	0x3b9fd172	0.0048772627
12	0x3b9fd124	0.0048772264
13	0x3b9fd0be	0.004877179
14	0x3b9fd10b	0.004877215
15	0x3b9fd0f8	0.004877206
16	0x3b9fd0d5	0.0048771896
17	0x3b9fd16a	0.004877259
18	0x3b9fd0d3	0.0048771887
19	0x3b9fd084	0.004877152
20	0xbcb6bbde	-0.022306379
21	0x3b9fd144	0.0048772413
22	0x3b9fd080	0.00487715
23	0x3b9fd0d8	0.004877191
24	0x3b9fd0cd	0.004877186
25	0x3b9fd0a4	0.004877167
26	0x3b9fd0e4	0.0048771966
27	0x3b9fd086	0.004877153
28	0x3b9fd0b8	0.004877176
29	0x3b9fd154	0.004877249
30	0x3b9fd0f7	0.0048772055
31	0x3d142b80	0.036174297
32	0x3b9fd0ea	0.0048771994
33	0x3b9fd0f0	0.004877202
34	0x3b9fd126	0.0048772274
35	0x3b9fd0d3	0.0048771887
36	0x3d5360dd	0.051606048
37	0x3b9fd126	0.0048772274
38	0x3b9fd102	0.0048772106
39	0x3b9fd0f0	0.004877202
40	0x3b9fd172	0.0048772627
41	0x3b9fd128	0.0048772283
42	0x3b9fd10a	0.0048772143
43	0x3b9fd129	0.0048772288
44	0x3b9fd0fc	0.004877208
45	0x3b9fd0bc	0.004877178
46	0x3b9fd106	0.0048772125
47	0x3b9fd0e2	0.0048771957
48	0x3b9fd0cd	0.004877186
49	0x3b9fd135	0.0048772343
50	0x3b9fd123	0.004877226
51	0x3b9fd0f8	0.004877206
52	0x3b9fd11c	0.0048772227
53	0x3b9fd13a	0.0048772367
54	0x3b9fd060	0.004877135
55	0x3b9fd127	0.004877228
56	0x3b9fd0d8	0.004877191
57	0x3b9fd129	0.0048772288
58	0x3b9fd12a	0.004877229
59	0x3b9fd11a	0.004877222
60	0x3b9fd0fa	0.004877207
61	0x3b9fd0dc	0.004877193
62	0x3b9fd0da	0.004877192
63	0x3b9fd120	0.0048772246
64	0x3b9fd07a	0.0048771473
65	0x3b9fd0f2	0.004877203
66	0x3b9fd140	0.0048772395
67	0x3bd23954	0.0064155255
68	0x3cb268bc	0.021778457
69	0x3b9fd11e	0.0048772236
70	0xbf5e29d2	-0.8678256
71	0x3b9fd12b	0.0048772297
72	0x3b9fd120	0.0048772246
73	0x3bb6067a	0.0055549713
74	0x3b9fd12c	0.00487723
75	0x3b9fd115	0.0048772194
76	0x3b9fd118	0.004877221
77	0x3b9fd12f	0.0048772315
78	0x3b9fd087	0.0048771533
79	0x3b9fd125	0.004877227
80	0x3b9fd060	0.004877135
81	0x3b9fd142	0.0048772404
82	0x3b9fd07e	0.004877149
83	0x3b9fd0dc	0.004877193
84	0x3b9fd140	0.0048772395
85	0x3b9fd130	0.004877232
86	0x3b9fd0ea	0.0048771994
87	0x3b9fd0b0	0.0048771724
88	0x3b9fd11e	0.0048772236
89	0x3b9fd156	0.0048772497
90	0x3b9fd0be	0.004877179
91	0x3b9fd0ec	0.0048772004
92	0x3b9fd0da	0.004877192
93	0x3b9fd11d	0.004877223
94	0x3d197fa2	0.037475236
95	0x3b9fd0d6	0.00487719
96	0x3b9fd0be	0.004877179
97	0x3b9fd11c	0.0048772227
98	0x3b9fd121	0.004877225
99	0x3b9fd0eb	0.0048772
100	0xbf280803	-0.65637225
101	0x3b9fd0c8	0.0048771836
102	0x3b9fd105	0.004877212
103	0x3b9fd127	0.004877228
104	0x3b9fd0af	0.004877172
105	0x3b9fd0eb	0.0048772
106	0x3b9fd123	0.004877226
107	0x3b9fd0d0	0.0048771873
108	0x3b9fd123	0.004877226
109	0x3b9fd0e7	0.004877198
110	0x3b9fd0d2	0.0048771882
111	0x3b9fd119	0.0048772213
112	0x3b9fd132	0.004877233
113	0x3b9fd072	0.0048771435
114	0x3b9fd136	0.004877235
115	0x3b9fd0c6	0.0048771827
116	0x3b9fd109	0.004877214
117	0x3b9fd070	0.0048771426
118	0x3b9fd132	0.004877233
119	0x3b9fd130	0.004877232
120	0x3b9fd138	0.0048772357
121	0x3b9fd0b6	0.004877175
122	0x3b9fd14b	0.0048772446
123	0x3b9fd103	0.004877211
124	0x3b9fd098	0.0048771612
125	0x3b9fd0ed	0.004877201
126	0x3b9fd07c	0.004877148
127	0x3b9fd13a	0.0048772367
128	0x3b0893fe	0.0020840163
129	0x3b08949e	0.0020840536
130	0x3b0893c7	0.0020840035
131	0x3b08940f	0.0020840203
132	0x3b0894d7	0.0020840669
133	0x3b0893db	0.0020840082
134	0x3b089428	0.002084026
135	0x3b089426	0.0020840256
136	0x3b089489	0.0020840487
137	0x3b0894bb	0.0020840603
138	0x3b0894ef	0.0020840724
139	0x3b08944a	0.002084034
140	0x3b089465	0.0020840403
141	0x3b08942b	0.0020840268
142	0x3b0894a1	0.0020840543
143	0x3b089452	0.002084036
144	0x3b08941c	0.0020840233
145	0x3b089444	0.0020840326
146	0x3b0893f2	0.0020840135
147	0x3b08942c	0.002084027
148	0xbc53b3ca	-0.012921283
149	0x3b089478	0.0020840447
150	0x3b0893c7	0.0020840035
151	0x3b0893e6	0.0020840107
152	0x3b089394	0.0020839917
153	0x3b089362	0.00208398
154	0x3b0893ee	0.0020840126
155	0x3b0893d5	0.0020840068
156	0x3b08939c	0.0020839935
157	0x3b0894ae	0.0020840573
158	0x3b08945f	0.002084039
159	0xbd02794c	-0.03185396
160	0x3b08944a	0.002084034
161	0x3b089466	0.0020840405
162	0x3b089462	0.0020840396
163	0x3b08943d	0.002084031
164	0x3cc8a07a	0.024490584
165	0x3b0894a8	0.002084056
166	0x3b089456	0.0020840368
167	0x3b089415	0.0020840217
168	0x3b089470	0.0020840429
169	0x3b0894ac	0.0020840568
170	0x3b08948e	0.0020840499
171	0x3b0894bc	0.0020840606
172	0x3b089487	0.0020840482
173	0x3b0893fd	0.002084016
174	0x3b0893d3	0.0020840063
175	0x3b0893df	0.0020840091
176	0x3b089423	0.002084025
177	0x3b08949a	0.0020840527
178	0x3b0894a8	0.002084056
179	0x3b08944c	0.0020840345
180	0x3b0894ca	0.0020840638
181	0x3b089506	0.0020840778
182	0x3b0893c7	0.0020840035
183	0x3b08949b	0.002084053
184	0x3b0893fe	0.0020840163
185	0x3b0894ac	0.0020840568
186	0x3b0894a6	0.0020840554
187	0x3b089499	0.0020840524
188	0x3b089429	0.0020840263
189	0x3b089425	0.0020840254
190	0x3b089380	0.002083987
191	0x3b08946e	0.0020840424
192	0x3b089406	0.0020840182
193	0x3b08946f	0.0020840426
194	0x3b089479	0.002084045
195	0xbcf2c433	-0.02963457
196	0x3d317559	0.043324802
197	0x3b0894b4	0.0020840587
198	0xbbc80a5e	-0.0061047515
199	0x3b0894dd	0.0020840683
200	0x3b089495	0.0020840515
201	0x3d9d6fb1	0.07687319
202	0x3b0894c1	0.0020840617
203	0x3b0894c6	0.002084063
204	0x3b0894cf	0.002084065
205	0x3b0894f9	0.0020840748
206	0x3b089395	0.002083992
207	0x3b0894ae	0.0020840573
208	0x3b08936c	0.0020839823
209	0x3b0894c7	0.0020840631
210	0x3b089407	0.0020840184
211	0x3b0893f5	0.0020840142
212	0x3b0894a5	0.0020840552
213	0x3b089483	0.0020840473
214	0x3b089431	0.0020840282
215	0x3b0893a2	0.002083995
216	0x3b089456	0.0020840368
217	0x3b0893f5	0.0020840142
218	0x3b089414	0.0020840215
219	0x3b08943c	0.0020840308
220	0x3b0893e7	0.002084011
221	0x3b089504	0.0020840773
222	0xbd9f4f88	-0.07778841
223	0x3b08942f	0.0020840277
224	0x3b089467	0.0020840408
225	0x3b08944d	0.0020840347
226	0x3b089473	0.0020840436
227	0x3b0893f6	0.0020840145
228	0xbbafba7d	-0.0053628073
229	0x3b0893ce	0.0020840052
230	0x3b08945e	0.0020840387
231	0x3b089438	0.0020840298
232	0x3b089377	0.002083985
233	0x3b089444	0.0020840326
234	0x3b0894f3	0.0020840734
235	0x3b08946d	0.0020840422
236	0x3b089482	0.002084047
237	0x3b08940d	0.0020840198
238	0x3b0893ff	0.0020840166
239	0x3b08945c	0.0020840382
240	0x3b089500	0.0020840764
241	0x3b0893e6	0.0020840107
242	0x3b0894c1	0.0020840617
243	0x3b0893a6	0.0020839958
244	0x3b0894d9	0.0020840673
245	0x3b089389	0.002083989
246	0x3b0894c2	0.002084062
247	0x3b0894eb	0.0020840715
248	0x3b0894fc	0.0020840755
249	0x3b089383	0.0020839877
250	0x3b0894a6	0.0020840554
251	0x3b08945c	0.0020840382
252	0x3b089391	0.002083991
253	0x3b08949a	0.0020840527
254	0x3b0893e4	0.0020840103
255	0x3b08949b	0.002084053

hidden_layers.1.bias f4 [64]
0	0xbee745ba	-0.45170385
1	0x3c93a755	0.018024126
2	0xbee745b6	-0.45170373
3	0x3c8c4fb1	0.017127844
4	0x3c881071	0.016609402
5	0x3d08b196	0.033372484
6	0xbee745b8	-0.4517038
7	0x3ce6e9be	0.028187629
8	0xbee745b7	-0.45170376
9	0x3d2e072f	0.04248732
10	0xbee745b5	-0.4517037
11	0x3c06646a	0.0082026515
12	0xbf91ffb4	-1.1406159
13	0xbee745bb	-0.45170388
14	0xbee745b8	-0.4517038
15	0xbee745b0	-0.45170355
16	0xbee745b7	-0.45170376
17	0x3d3e290b	0.04642586
18	0xbf121cb6	-0.5707506
19	0xbee745b8	-0.4517038
20	0xbee745b7	-0.45170376
21	0xbee745b9	-0.45170382
22	0x3cf7cad7	0.030248089
23	0x3ce89f70	0.028396338
24	0x3cd838ce	0.026394274
25	0xbee745ba	-0.45170385
26	0xbee745ae	-0.4517035
27	0xbee745be	-0.45170397
28	0x3d507ec6	0.05090215
29	0xbee745bf	-0.451704
30	0xbee745ba	-0.45170385
31	0x3d4399dd	0.047754157
32	0x3c66dd6f	0.01409088
33	0xbee745b4	-0.45170367
34	0x3ca589a2	0.02020723
35	0xbee745b6	-0.45170373
36	0x3cea3c5c	0.028593235
37	0xbee745b2	-0.4517036
38	0xbee745b1	-0.45170358
39	0xbee745b4	-0.45170367
40	0xbf678d8b	-0.9045035
41	0xbee745b7	-0.45170376
42	0x3ce3c8c6	0.027805697
43	0x3c2b5e18	0.010459445
44	0x3d032aee	0.032023363
45	0xbee745ba	-0.45170385
46	0xbbf9f1e6	-0.0076277135
47	0x3c982267	0.018571092
48	0xbee745b6	-0.45170373
49	0xbee745b3	-0.45170364
50	0xbee745b6	-0.45170373
51	0xbeab71bf	-0.3348522
52	0xbee745b8	-0.4517038
53	0xbee745b6	-0.45170373
54	0xbee745bb	-0.45170388
55	0x3a7a6448	0.0009551686
56	0x3c56d7b0	0.013112947
57	0x3bb336a0	0.0054691583
58	0xbee745bd	-0.45170394
59	0xbee745b4	-0.45170367
60	0xbee745b5	-0.4517037
61	0x3c46e926	0.012140548
62	0xbee745ba	-0.45170385
63	0xbee745be	-0.45170397

output_layer.weight f4 [1, 64]
0	0x3bbaae62	0.0056970576
1	0x398fb23a	0.00027407875
2	0x3bbaacf0	0.0056968853
3	0x3c8c147d	0.017099613
4	0x3b4a9980	0.0030914247
5	0x3a9304e3	0.0011216666
6	0x3bbaae82	0.0056970725
7	0x3a6532c8	0.0008743224
8	0x3bbaaeab	0.0056970916
9	0x3aef167c	0.0018240954
10	0x3bbaaf25	0.0056971484
11	0xbbf946a6	-0.007607299
12	0xbf2b5221	-0.66922194
13	0x3bbaafeb	0.0056972406
14	0x3bbaad7d	0.005696951
15	0x3bbaae2e	0.0056970334
16	0x3bbaaeb0	0.005697094
17	0x3aaef42c	0.0013347915
18	0xbfabda5c	-1.3426013
19	0x3bbaadcc	0.0056969877
20	0x3bbaad43	0.005696924
21	0x3bbaafe4	0.0056972373
22	0x3a7c1584	0.0009616243
23	0x3b15f7a2	0.0022883196
24	0x3b49b8fc	0.0030780425
25	0x3bbaae65	0.005697059
26	0x3bbaaf80	0.0056971908
27	0x3bbaaf50	0.0056971684
28	0x3c18b3c8	0.009320207
29	0x3bbaade5	0.0056969994
30	0x3bbaaf0d	0.005697137
31	0x3bbe6ccc	0.0058113094
32	0x3b76a668	0.0037635807
33	0x3bbaad48	0.0056969263
34	0x3bb9def9	0.0056723324
35	0x3bbaade9	0.0056970012
36	0x3a076377	0.0005164663
37	0x3bbaaed3	0.00569711
38	0x3bbaaed1	0.0056971093
39	0x3bbab07f	0.0056973095
40	0xbecd81f9	-0.40138224
41	0x3bbaadbe	0.005696981
42	0xbc0d5b06	-0.008627659
43	0xbabdd84b	-0.0014484016
44	0xbadd5fd0	-0.0016889516
45	0x3bbaaca5	0.0056968504
46	0xbb9fcb44	-0.004876526
47	0x3b960302	0.0045779953
48	0x3bbaaeb9	0.005697098
49	0x3bbaaf12	0.0056971395
50	0x3bbaaf72	0.0056971842
51	0xbf3fd1ab	-0.749293
52	0x3bbaaedd	0.005697115
53	0x3bbaad41	0.005696923
54	0x3bbaae56	0.005697052
55	0x3ae3d7c3	0.0017383028
56	0x3b93a773	0.0045060455
57	0x3b0eb1d6	0.002177348
58	0x3bbaae39	0.0056970385
59	0x3bbaadc9	0.0056969863
60	0x3bbaac74	0.0056968275
61	0xbb7ebf14	-0.0038871216
62	0x3bbaabb5	0.0056967386
63	0x3bbaae60	0.0056970567

hidden_layers.0.weight f4 [128, 7]
0	0xbdafc24d	-0.08581982
1	0xbd06035d	-0.03271805
2	0x3ddc4c1a	0.10756703
3	0x3b564bbf	0.0032698957
4	0x3eeed484	0.46646512
5	0xbd644c91	-0.055737082
6	0x3b8c1f71	0.004276209
7	0xbdaa3f70	-0.08312881
8	0xbd03229f	-0.03201544
9	0x3dd5e9ab	0.10444959
10	0x3b431f74	0.0029773386
11	0x3ee6ca55	0.45076242
12	0xbd5fa6dd	-0.054602493
13	0x3b420b2a	0.0029608705
14	0xbdbd2006	-0.092346236
15	0xbd10eab3	-0.035380077
16	0x3defa547	0.11701446
17	0x3ba839c8	0.005133841
18	0x3f0346ed	0.512801
19	0xbd792a2f	-0.060831245
20	0x3ae4ad12	0.0017446599
21	0xbdbd2002	-0.09234621
22	0xbd10eaab	-0.035380047
23	0x3defa546	0.11701445
24	0x3ba83a1d	0.005133881
25	0x3f0346eb	0.5128009
26	0xbd792a26	-0.06083121
27	0x3ae4ace6	0.0017446547
28	0xbdbd2006	-0.092346236
29	0xbd10eab3	-0.035380077
30	0x3defa54a	0.11701448
31	0x3ba8392f	0.00513377
32	0x3f0346ed	0.512801
33	0xbd792a31	-0.060831252
34	0x3ae4add2	0.0017446822
35	0xbda41f37	-0.08013766
36	0xbd012c74	-0.031536534
37	0x3dce0433	0.10059395
38	0x3b14a7a4	0.002268293
39	0x3ede3474	0.43399394
40	0xbd538b49	-0.051646505
41	0x3b72b31a	0.0037033022
42	0xbdbd2003	-0.092346214
43	0xbd10eab0	-0.035380065
44	0x3defa548	0.11701447
45	0x3ba839e7	0.0051338556
46	0x3f0346eb	0.5128009
47	0xbd792a28	-0.06083122
48	0x3ae4ade8	0.0017446848
49	0xbdbd2008	-0.09234625
50	0xbd10eabb	-0.035380106
51	0x3defa54b	0.11701449
52	0x3ba8397c	0.005133806
53	0x3f0346ed	0.512801
54	0xbd792a35	-0.060831267
55	0x3ae4adb6	0.001744679
56	0xbdb05f36	-0.0861191
57	0xbd066e1b	-0.03281985
58	0x3ddc6f64	0.107634336
59	0x3b2433a0	0.0025055185
60	0x3eeecd38	0.46640944
61	0xbd6524c0	-0.05594325
62	0x3b533aae	0.003223102
63	0xbdbd2005	-0.09234623
64	0xbd10eab3	-0.035380077
65	0x3defa549	0.117014475
66	0x3ba839d3	0.0051338463
67	0x3f0346ed	0.512801
68	0xbd792a27	-0.060831215
69	0x3ae4ad94	0.001744675
70	0xbdaf9ede	-0.085752234
71	0xbd057f83	-0.032592308
72	0x3dda8941	0.1067071
73	0x3b88e041	0.004177124
74	0x3ee32dc2	0.44370848
75	0xbd63eea1	-0.055647496
76	0x3b4f903c	0.0031671664
77	0xbdaadc5d	-0.08342812
78	0xbd029124	-0.031876698
79	0x3dd5ca32	0.10438956
80	0x3b2fe9c8	0.0026842225
81	0x3ee6c001	0.45068362
82	0xbd5f4755	-0.054511387
83	0x3b46438a	0.0030252659
84	0xbdbd2007	-0.09234624
85	0xbd10eab5	-0.035380084
86	0x3defa54d	0.117014505
87	0x3ba83948	0.0051337816
88	0x3f0346ed	0.512801
89	0xbd792a34	-0.060831264
90	0x3ae4ac31	0.0017446337
91	0xbdbd2006	-0.092346236
92	0xbd10eab9	-0.0353801
93	0x3defa54d	0.117014505
94	0x3ba8398f	0.0051338146
95	0x3f0346ec	0.51280093
96	0xbd792a28	-0.06083122
97	0x3ae4ad77	0.0017446716
98	0xbda4b552	-0.080423966
99	0xbcfa70be	-0.030571338
100	0x3dcdcb35	0.10048524
101	0x3ba5a12b	0.005054613
102	0x3ede3a11	0.43403676
103	0xbd53928c	-0.05165343
104	0x3b7c7e08	0.003852727
105	0xbdaa480c	-0.08314523
106	0xbd055968	-0.032555968
107	0x3dd6161c	0.10453436
108	0x3ac3c0ff	0.0014934837
109	0x3ee6bfe2	0.4506827
110	0xbd5f6f9b	-0.054549795
111	0x3b75617c	0.0037442138
112	0xbdab0851	-0.083511956
113	0xbd03d757	-0.032187786
114	0x3dd515f8	0.10404581
115	0x3a86b8de	0.0010278483
116	0x3ee6bfdc	0.45068252
117	0xbd5f17b4	-0.054465964
118	0x3b731a16	0.0037094406
119	0xbd8c8cd7	-0.068628006
120	0xbd409960	-0.04702127
121	0x3d9245b6	0.071422026
122	0x3c8e900a	0.017402668
123	0x3ef91ea8	0.486562
124	0xbe5b4b16	-0.21415362
125	0xbe7cfa6e	-0.24704906
126	0xbdaab050	-0.0833441
127	0xbd01f267	-0.031725314
128	0x3dd4e8a6	0.10395937
129	0x3b3262dc	0.002721957
130	0x3ee5d0ce	0.44885868
131	0xbd5e1841	-0.05422235
132	0x3b49a815	0.003077035
133	0xbdbd2009	-0.09234626
134	0xbd10eab4	-0.03538008
135	0x3defa54c	0.1170145
136	0x3ba8398b	0.005133813
137	0x3f0346ec	0.51280093
138	0xbd792a3a	-0.060831286
139	0x3ae4abda	0.0017446235
140	0x3fd9a1da	1.7002518
141	0x3f67a1bd	0.9048117
142	0x3ea95354	0.33071387
143	0x3d8e8d46	0.069605395
144	0x3e9059d2	0.28193527
145	0xbf2a3cff	-0.6649932
146	0x4011183d	2.2671044
147	0xbdbd2005	-0.09234623
148	0xbd10eab2	-0.035380073
149	0x3defa548	0.11701447
150	0x3ba83a0b	0.0051338724
151	0x3f0346ed	0.512801
152	0xbd792a27	-0.060831215
153	0x3ae4acca	0.0017446515
154	0xbda67256	-0.081272766
155	0xbcfdebb2	-0.030996177
156	0x3dcec7d4	0.10096708
157	0x3b6cb992	0.003612135
158	0x3edeaf79	0.4349325
159	0xbd59fcdf	-0.053219672
160	0x3b634646	0.0034679337
161	0xbdaa5497	-0.083169155
162	0xbd0399cf	-0.032129105
163	0x3dd5ab97	0.10433119
164	0x3b03508b	0.002003702
165	0x3ee6b630	0.45060873
166	0xbd5f771b	-0.054556947
167	0x3b5fac72	0.0034129885
168	0xbdb0aff4	-0.086273104
169	0xbd0852f8	-0.03328225
170	0x3ddc747d	0.10764406
171	0x3a792bd7	0.0009505129
172	0x3eeecfdb	0.46642956
173	0xbd640770	-0.055671155
174	0x3b82d275	0.0039923736
175	0xbdbd2008	-0.09234625
176	0xbd10eaba	-0.035380103
177	0x3defa54d	0.117014505
178	0x3ba83967	0.005133796
179	0x3f0346ed	0.512801
180	0xbd792a31	-0.060831252
181	0x3ae4ae56	0.0017446976
182	0xbdaac70e	-0.08338748
183	0xbd01e0aa	-0.031708397
184	0x3dd59c90	0.104302526
185	0x3b08cc1d	0.0020873614
186	0x3ee6c0b0	0.45068884
187	0xbd5f350f	-0.05449396
188	0x3b6236e7	0.0034517588
189	0xbda587c3	-0.08082535
190	0xbd00c5d2	-0.031438656
191	0x3dce079e	0.100600466
192	0x3b7963c0	0.003805384
193	0x3ede6cca	0.43442374
194	0xbd59a331	-0.053134147
195	0x3b4bda18	0.0031105336
196	0xbda35d34	-0.079767615
197	0xbcf91cc5	-0.030409226
198	0x3dcdf923	0.10057285
199	0x3b3809b8	0.0028081965
200	0x3ede5cdb	0.43430218
201	0xbd57bb54	-0.052668884
202	0x3b54590d	0.0032401711
203	0xbdaa43ab	-0.08313688
204	0xbd046f76	-0.03233286
205	0x3dd5c740	0.104383945
206	0x3b091816	0.0020918897
207	0x3ee6b589	0.45060375
208	0xbd62f33b	-0.055407744
209	0x3b806ff1	0.0039195945
210	0xbdbd2000	-0.09234619
211	0xbd10eaaa	-0.035380043
212	0x3defa545	0.117014445
213	0x3ba83960	0.0051337928
214	0x3f0346ec	0.51280093
215	0xbd792a2d	-0.060831238
216	0x3ae4adf3	0.001744686
217	0x3e36feba	0.17870608
218	0xbdbf8730	-0.09351957
219	0xbe34664d	-0.1761715
220	0xbdd26b1a	-0.10274334
221	0x3daf0d4b	0.08547457
222	0xbe5111f4	-0.20417005
223	0xbf1ca882	-0.6119462
224	0xbdbd2001	-0.0923462
225	0xbd10eaab	-0.035380047
226	0x3defa544	0.11701444
227	0x3ba839dc	0.0051338505
228	0x3f0346ed	0.512801
229	0xbd792a24	-0.060831204
230	0x3ae4adf6	0.0017446864
231	0xbd9d5d88	-0.07683855
232	0xbd834fbb	-0.06411692
233	0x3d3add1c	0.045621023
234	0xbc5dbc68	-0.013533689
235	0x3f01d4e5	0.50715476
236	0xbe1cfea3	-0.15331511
237	0x3d865320	0.065588236
238	0xbdbd2006	-0.092346236
239	0xbd10eab6	-0.035380088
240	0x3defa54a	0.11701448
241	0x3ba8399f	0.005133822
242	0x3f0346ee	0.51280105
243	0xbd792a34	-0.060831264
244	0x3ae4ad3e	0.001744665
245	0xbdbd2001	-0.0923462
246	0xbd10eaaa	-0.035380043
247	0x3defa547	0.11701446
248	0x3ba839f2	0.0051338607
249	0x3f0346eb	0.5128009
250	0xbd792a30	-0.06083125
251	0x3ae4ae98	0.0017447053
252	0x3e75085b	0.23928969
253	0xbe4284e3	-0.18996005
254	0x3f94bdef	1.1620463
255	0x3f05698f	0.52114195

hidden_layers.0.bias f4 [128]
0	0xbdda98db	-0.10673686
1	0xbdd33352	-0.10312523
2	0xbde34193	-0.11096492
3	0xbde3418e	-0.11096488
4	0xbde34192	-0.11096491
5	0xbdcc6b3b	-0.0998139
6	0xbde3418f	-0.11096489
7	0xbde34197	-0.11096495
8	0xbdda87f1	-0.1067046
9	0xbde34191	-0.1109649
10	0xbdd95983	-0.10612776
11	0xbdd338cc	-0.103135675
12	0xbde34192	-0.11096491
13	0xbde34192	-0.11096491
14	0xbdcbeb6d	-0.09957013
15	0xbdd2ca18	-0.102924526
16	0xbdd3f282	-0.10348989
17	0xbc68c002	-0.0142059345
18	0xbdd42db7	-0.10360282
19	0xbde34193	-0.11096492
20	0xbdd090c4	-0.10183862
21	0xbde34192	-0.11096491
22	0xbdcca710	-0.09992802
23	0xbdd2e592	-0.10297693
24	0xbddb47fa	-0.10707088
25	0xbde34192	-0.11096491
26	0xbdd33adf	-0.10313963
27	0xbdcd177e	-0.100142464
28	0xbdcb6d93	-0.09933009
29	0xbdd4298d	-0.10359488
30	0xbde3418d	-0.11096487
31	0xbe0031d6	-0.12519011
32	0xbde3418b	-0.11096486
33	0xbdd96cba	-0.10616441
34	0xbde34194	-0.110964924
35	0xbde3418c	-0.110964864
36	0x3ee6962d	0.4503645
37	0xbdd2be17	-0.10290163
38	0xbdd32ead	-0.10311637
39	0xbdd39d57	-0.103327446
40	0xbdd3eab5	-0.10347501
41	0xbdcc0be0	-0.099632025
42	0xbdcc7544	-0.09983304
43	0xbdda9f1f	-0.10674881
44	0xbde34190	-0.110964894
45	0xbdd494a1	-0.10379911
46	0xbdcc4b28	-0.099752724
47	0xbdf402aa	-0.11914571
48	0xbde34193	-0.11096492
49	0xbde34192	-0.11096491
50	0xbdcb9aec	-0.099416584
51	0xbdd2f843	-0.103012584
52	0xbdd39cde	-0.103326544
53	0xbdd3c9ae	-0.10341202
54	0xbddb0ce3	-0.10695817
55	0xbde34190	-0.110964894
56	0xbde34191	-0.1109649
57	0xbdcc50a0	-0.099763155
58	0xbde34191	-0.1109649
59	0xbdcc8324	-0.099859506
60	0xbdd34080	-0.10315037
61	0xbde3418d	-0.11096487
62	0xbde34191	-0.1109649
63	0xbdcce7a0	-0.100051165
64	0xbde34190	-0.110964894
65	0xbc11a1b0	-0.008888647
66	0xbde3418e	-0.11096488
67	0xbf3dc876	-0.74134004
68	0xbf4506cd	-0.769635
69	0xbdd3ab08	-0.10335356
70	0x3f981350	1.1880894
71	0xbdd3610b	-0.10321244
72	0xbde34196	-0.11096494
73	0xbf74471c	-0.95421004
74	0xbdcbdd64	-0.09954336
75	0xbdd9e5b4	-0.106395155
76	0xbde3418e	-0.11096488
77	0xbdce7659	-0.10081167
78	0xbde3418c	-0.110964864
79	0xbde34195	-0.11096493
80	0xbdc87328	-0.09787589
81	0xbde3418f	-0.11096489
82	0xbde34197	-0.11096495
83	0xbde34194	-0.110964924
84	0x3e6f4040	0.23364353
85	0xbde34191	-0.1109649
86	0xbdd320a0	-0.10308957
87	0xbde34192	-0.11096491
88	0xbdd42ec4	-0.10360482
89	0xbdcd2df6	-0.10018532
90	0xbde34195	-0.11096493
91	0xbde34192	-0.11096491
92	0xbdcb9453	-0.099404
93	0xbde34188	-0.110964835
94	0x3dd82ef3	0.1055583
95	0xbde34193	-0.11096492
96	0xbecff6cb	-0.40617976
97	0xbea0794d	-0.31342545
98	0xbde34195	-0.11096493
99	0xbdd43579	-0.103617616
100	0xc04edd15	-3.2322438
101	0xbde34192	-0.11096491
102	0xbdd32477	-0.103096895
103	0xbdce2084	-0.100647956
104	0xbde34190	-0.110964894
105	0xbdd407fa	-0.10353084
106	0xbdcc84ed	-0.09986291
107	0xbdd3885a	-0.10328741
108	0xbde2f173	-0.11081209
109	0xbde34192	-0.11096491
110	0xbdd35594	-0.10319057
111	0xbde34192	-0.11096491
112	0xbdcd0db1	-0.10012377
113	0xbdd2a1e6	-0.10284786
114	0xbde34191	-0.1109649
115	0xbde34191	-0.1109649
116	0xbde34191	-0.1109649
117	0xbde34190	-0.110964894
118	0xbde34191	-0.1109649
119	0xbde34192	-0.11096491
120	0xbde34190	-0.110964894
121	0xbdd349bf	-0.103168
122	0xbdd37b99	-0.10326309
123	0xbde3418c	-0.110964864
124	0xbde34195	-0.11096493
125	0xbdd40524	-0.10352543
126	0xbdd3b6a4	-0.1033757
127	0xbdd38201	-0.10327531

hidden_layers.1.weight f4 [64, 128]
0	0x3b5d9d14	0.003381555
1	0x3b43e67c	0.0029892018
2	0x3b870382	0.004120291
3	0x3b870396	0.0041203005
4	0x3b870387	0.0041202935
5	0x3b4bf3f5	0.0031120752
6	0x3b870396	0.0041203005
7	0x3b870384	0.004120292
8	0x3b5627f9	0.0032677634
9	0x3b870386	0.004120293
10	0x3b56e609	0.003279092
11	0x3b462ec5	0.003024028
12	0x3b870386	0.004120293
13	0x3b87038a	0.004120295
14	0x3b5a9256	0.0033351383
15	0x3b415a16	0.0029503158
16	0x3b424d72	0.0029648212
17	0x3b6408f6	0.003479538
18	0x3b502a9b	0.0031763676
19	0x3b87038b	0.0041202954
20	0xbd223de7	-0.039609816
21	0x3b87038c	0.004120296
22	0x3b75e51d	0.0037520595
23	0x3b3cc139	0.0028801693
24	0x3b57f704	0.003295363
25	0x3b87038c	0.004120296
26	0x3b4a3d85	0.0030859422
27	0x3b6d3f2c	0.0036200983
28	0x3b60ce97	0.0034302825
29	0x3b55d697	0.0032629126
30	0x3b870393	0.004120299
31	0x3b27e4d8	0.002561858
32	0x3b870384	0.004120292
33	0x3b8aaaf1	0.0042318036
34	0x3b870385	0.0041202926
35	0x3b870395	0.0041203
36	0x3cc57eec	0.024108373
37	0x3b4285f7	0.00296819
38	0x3b3f3659	0.002917668
39	0x3b5ab9bc	0.0033374866
40	0x3b3e043a	0.0028994218
41	0x3b5d4bae	0.0033767032
42	0x3b507ea0	0.0031813756
43	0x3b5943c3	0.0033151961
44	0x3b87038d	0.0041202963
45	0x3b842751	0.004033007
46	0x3b50208c	0.003175768
47	0x3af4a4ab	0.0018664798
48	0x3b870391	0.004120298
49	0x3b870391	0.004120298
50	0x3b620f8f	0.0034494137
51	0x3b425b8e	0.0029656622
52	0x3b498021	0.0030746537
53	0x3b42102d	0.0029611692
54	0x3b575418	0.003285652
55	0x3b870389	0.0041202945
56	0x3b87037d	0.004120289
57	0x3b54814f	0.0032425707
58	0x3b87038e	0.004120297
59	0x3b64aec8	0.0034894217
60	0x3b42d081	0.0029726329
61	0x3b870387	0.0041202935
62	0x3b870385	0.0041202926
63	0x3b61ea0b	0.0034471776
64	0x3b870386	0.004120293
65	0x3b913a2c	0.0044319835
66	0x3b870397	0.004120301
67	0x3c8b685d	0.017017538
68	0x3cb65920	0.022259295
69	0x3b553f38	0.0032538902
70	0xbf3ffc8b	-0.74994725
71	0x3b466ca9	0.003027717
72	0x3b87038a	0.004120295
73	0x3bfd95fc	0.007738827
74	0x3b65b2b0	0.0035049133
75	0x3b591750	0.0033125468
76	0x3b87038c	0.004120296
77	0x3b69359f	0.003558494
78	0x3b87038e	0.004120297
79	0x3b870390	0.0041202977
80	0x3b4483b2	0.0029985723
81	0x3b870389	0.0041202945
82	0x3b870388	0.004120294
83	0x3b870389	0.0041202945
84	0x3a9fbb3a	0.0012186535
85	0x3b870394	0.0041202996
86	0x3b57fb61	0.003295623
87	0x3b87038b	0.0041202954
88	0x3b37d147	0.0028048323
89	0x3b72dcde	0.0037057917
90	0x3b870387	0.0041202935
91	0x3b870388	0.004120294
92	0x3b409c62	0.0029390086
93	0x3b870392	0.0041202987
94	0x3ce746c6	0.02823199
95	0x3b87038a	0.004120295
96	0xba251342	-0.000629712
97	0xbbf00068	-0.007324267
98	0x3b870388	0.004120294
99	0x3b3dce40	0.0028962046
100	0xbee06b8a	-0.43832046
101	0x3b870385	0.0041202926
102	0x3b3b02a5	0.0028535512
103	0x3b692e5f	0.0035580618
104	0x3b87038d	0.0041202963
105	0x3b3a28e9	0.0028405732
106	0x3b6c7814	0.0036082314
107	0x3b3f5990	0.002919767
108	0x3b8783dc	0.004135592
109	0x3b87038b	0.0041202954
110	0x3b3fecc7	0.0029285417
111	0x3b870387	0.0041202935
112	0x3b64e63e	0.0034927274
113	0x3b44dad2	0.0030037654
114	0x3b870394	0.0041202996
115	0x3b87038d	0.0041202963
116	0x3b87038d	0.0041202963
117	0x3b87038f	0.0041202973
118	0x3b870389	0.0041202945
119	0x3b870394	0.0041202996
120	0x3b87038d	0.0041202963
121	0x3b458d45	0.0030144018
122	0x3b3517e4	0.0027632648
123	0x3b87038e	0.004120297
124	0x3b87038c	0.004120296
125	0x3b41b041	0.0029554518
126	0x3b451748	0.003007369
127	0x3b45306d	0.0030088678
128	0x3b83b8e1	0.004019842
129	0x3b85dec4	0.0040853936
130	0x3b847354	0.0040420685
131	0x3b847356	0.0040420694
132	0x3b847325	0.0040420466
133	0x3b8feb53	0.0043920665
134	0x3b84737b	0.0040420867
135	0x3b847350	0.0040420666
136	0x3b88d35e	0.0041755876
137	0x3b84738a	0.0040420936
138	0x3b8aedf0	0.00423979
139	0x3b897cc0	0.0041957796
140	0x3b847335	0.004042054
141	0x3b84735a	0.0040420713
142	0x3b8c2833	0.004277253
143	0x3b97282b	0.0046129427
144	0x3b96744e	0.0045915013
145	0x3b6ca5e2	0.0036109616
146	0x3ba324a0	0.0049787313
147	0x3b847361	0.0040420745
148	0xbc12df3e	-0.008964358
149	0x3b847365	0.0040420764
150	0x3b65f014	0.0035085725
151	0x3b8a8ca3	0.004228191
152	0x3b83079f	0.0039987112
153	0x3b847360	0.004042074
154	0x3b859484	0.0040765423
155	0x3b97bcb2	0.0046306485
156	0x3b76a8e1	0.003763728
157	0x3ba4620f	0.0050165723
158	0x3b847365	0.0040420764
159	0x3b0830ca	0.0020781034
160	0x3b847372	0.0040420825
161	0x3b82ce65	0.0039918893
162	0x3b847356	0.0040420694
163	0x3b84735c	0.004042072
164	0xbc08bfad	-0.00834648
165	0x3b84bc28	0.0040507503
166	0x3b862b36	0.0040945066
167	0x3b90c361	0.004417822
168	0x3b96d0b4	0.004602516
169	0x3b8aec29	0.0042395783
170	0x3b955bd7	0.0045580673
171	0x3b87fafc	0.0041497927
172	0x3b84734d	0.0040420652
173	0x3b8d7fc4	0.0043182094
174	0x3b6406fa	0.0034794197
175	0x3b92703e	0.0044689467
176	0x3b847335	0.004042054
177	0x3b847339	0.004042056
178	0x3b89a9c5	0.0042011463
179	0x3b8c4706	0.0042809276
180	0x3b8fccd1	0.0043884297
181	0x3b954566	0.004555392
182	0x3b915570	0.004435234
183	0x3b847356	0.0040420694
184	0x3b847381	0.0040420895
185	0x3b94b6ee	0.0045384085
186	0x3b84732b	0.0040420494
187	0x3b8327a3	0.004002528
188	0x3ba5dc80	0.005061686
189	0x3b84732e	0.004042051
190	0x3b84736d	0.00404208
191	0x3ba22b16	0.004948984
192	0x3b847356	0.0040420694
193	0x3b3eb8b8	0.00291018
194	0x3b84735a	0.0040420713
195	0x3c77b2a2	0.015118273
196	0xb9d197ac	-0.0003997659
197	0x3b8792a5	0.0041373544
198	0xbb6208e6	-0.0034490167
199	0x3ba1750c	0.004927283
200	0x3b84733a	0.0040420564
201	0x3b93521e	0.004495873
202	0x3b5772a2	0.0032874723
203	0x3b8e4f0a	0.0043429183
204	0x3b847355	0.004042069
205	0x3b868dd4	0.0041062627
206	0x3b847354	0.0040420685
207	0x3b847358	0.0040420704
208	0x3b92de29	0.00448205
209	0x3b84737d	0.0040420876
210	0x3b847371	0.004042082
211	0x3b847343	0.0040420606
212	0x3b36fd72	0.0027922061
213	0x3b847358	0.0040420704
214	0x3b7b81fc	0.0038377037
215	0x3b847363	0.0040420755
216	0x3b900624	0.0043952633
217	0x3b9619e0	0.0045807213
218	0x3b84734f	0.004042066
219	0x3b847325	0.0040420466
220	0x3b934604	0.0044944305
221	0x3b847370	0.0040420815
222	0x3c963603	0.018336302
223	0x3b847346	0.004042062
224	0x3b3f9922	0.0029235561
225	0x3b95bdbc	0.0045697372
226	0x3b847387	0.0040420922
227	0x3b82d515	0.0039926865
228	0xbb236f7e	-0.002493828
229	0x3b84735c	0.004042072
230	0x3b9aca74	0.0047238413
231	0x3b7ae0b2	0.0038280901
232	0x3b84733d	0.004042058
233	0x3b8f8b64	0.0043806303
234	0x3b80b790	0.0039281324
235	0x3b8932cb	0.004186963
236	0x3b847195	0.0040418603
237	0x3b84734d	0.0040420652
238	0x3b97c35c	0.004631443
239	0x3b847340	0.004042059
240	0x3b8755be	0.0041300943
241	0x3b8eeb78	0.004361566
242	0x3b847364	0.004042076
243	0x3b847351	0.004042067
244	0x3b84734e	0.0040420657
245	0x3b84737c	0.004042087
246	0x3b847340	0.004042059
247	0x3b847366	0.004042077
248	0x3b847393	0.004042098
249	0x3b9b7d81	0.004745186
250	0x3b8cc1e0	0.0042955726
251	0x3b84737a	0.004042086
252	0x3b84735e	0.004042073
253	0x3b9739fe	0.0046150675
254	0x3ba38264	0.004989909
255	0x3b9946c1	0.004677624

hidden_layers.1.bias f4 [64]
0	0xbea1b3f1	-0.31582597
1	0x3c584357	0.013199649
2	0xbea1b3f0	-0.31582594
3	0x3c6c4fb5	0.0144233005
4	0x3c318826	0.010835683
5	0x3c6d1e55	0.014472564
6	0xbea1b3ea	-0.31582576
7	0x3c364f4d	0.011127305
8	0xbea1b3ee	-0.31582588
9	0x3c58216d	0.013191563
10	0xbea1b3ed	-0.31582585
11	0x3c5fe9fa	0.013666624
12	0xbf6edef1	-0.9330893
13	0xbea1b3f0	-0.31582594
14	0xbea1b3ed	-0.31582585
15	0xbea1b3ed	-0.31582585
16	0xbea1b3ee	-0.31582588
17	0x3c3c549c	0.011494782
18	0xbece4d19	-0.40293196
19	0xbea1b3f0	-0.31582594
20	0xbea1b3ee	-0.31582588
21	0xbea1b3ee	-0.31582588
22	0x3c9603d7	0.018312378
23	0x3c59f8f3	0.013303983
24	0x3c3bffce	0.011474563
25	0xbea1b3ee	-0.31582588
26	0xbea1b3f1	-0.31582597
27	0xbe9ea18b	-0.30982623
28	0x3c83bd8d	0.016081596
29	0xbea1aa54	-0.31575263
30	0xbea1b3f0	-0.31582594
31	0x3c5bf2e5	0.01342461
32	0x3c55b4f5	0.013043632
33	0xbea1b3f0	-0.31582594
34	0x3c5a0b3c	0.013308343
35	0xbea1b3f2	-0.315826
36	0x3c3cb499	0.011517667
37	0xbea1b3ec	-0.31582582
38	0xbea01a0c	-0.31269872
39	0xbea1b3f0	-0.31582594
40	0xbf1e0dda	-0.61739886
41	0xbea1b3f0	-0.31582594
42	0x3c80f21f	0.015740452
43	0x3c77eefb	0.015132661
44	0x3c24659f	0.010033994
45	0xbea1b3f1	-0.31582597
46	0x3c10b1e2	0.008831473
47	0x3c60ca9b	0.01372018
48	0xbea1b3f0	-0.31582594
49	0xbea1b3ee	-0.31582588
50	0xbea1b3f0	-0.31582594
51	0x3dd62f21	0.10458208
52	0xbea37607	-0.31925985
53	0xbe743b96	-0.23850855
54	0xbea1b3f1	-0.31582597
55	0x3c5c9868	0.013464071
56	0x3c5ad179	0.013355606
57	0x3c823450	0.015894085
58	0xbea1b3ef	-0.3158259
59	0xbea1b3ef	-0.3158259
60	0xbea1b3ef	-0.3158259
61	0x3c358884	0.011079911
62	0xbe9f8cbc	-0.3116206
63	0xbea1b3f1	-0.31582597

output_layer.weight f4 [1, 64]
0	0x3b6f890d	0.0036550194
1	0xb985be09	-0.00025509324
2	0x3b6f898b	0.0036550488
3	0x39bcc8b8	0.000360077
4	0xba207f26	-0.0006122462
5	0x3a136489	0.0005622586
6	0x3b6f88fd	0.0036550157
7	0xb93cd6fc	-0.00018009165
8	0x3b6f88ca	0.0036550038
9	0xba252aac	-0.0006300609
10	0x3b6f88e5	0.0036550101
11	0x39adc4c6	0.0003314374
12	0xbf4e187a	-0.805061
13	0x3b6f8913	0.0036550208
14	0x3b6f893c	0.0036550304
15	0x3b6f8904	0.0036550174
16	0x3b6f88a3	0.0036549948
17	0x397b01a9	0.00023937844
18	0xbfc1d1e5	-1.514218
19	0x3b6f893b	0.0036550302
20	0x3b6f8896	0.0036549917
21	0x3b6f897c	0.0036550453
22	0xb9d49af6	-0.00040551246
23	0x37ef9e33	2.8564687e-05
24	0x3928dee7	0.00016104766
25	0x3b6f8989	0.0036550483
26	0x3b6f88f6	0.003655014
27	0xbc1ddfb2	-0.009635853
28	0x3a2925e3	0.0006452484
29	0x3c09b1e5	0.00840423
30	0x3b6f8989	0.0036550483
31	0xba9647d0	-0.0011465494
32	0x39c895b4	0.0003825851
33	0x3b6f8928	0.0036550257
34	0x39637925	0.00021693537
35	0x3b6f8968	0.0036550406
36	0x3939e16e	0.00017726954
37	0x3b6f88d5	0.0036550064
38	0x3cbf3065	0.023338506
39	0x3b6f8970	0.0036550425
40	0xbf16ca4d	-0.58902436
41	0x3b6f8973	0.0036550432
42	0xb856fb10	-5.1255396e-05
43	0xb9514cb2	-0.00019960364
44	0x39ab3060	0.00032651704
45	0x3b6f8948	0.0036550332
46	0x398675a8	0.00025646132
47	0x39a54fe7	0.00031530784
48	0x3b6f8976	0.003655044
49	0x3b6f8877	0.0036549845
50	0x3b6f89d2	0.0036550653
51	0xbf1fb966	-0.6239227
52	0x3dbdff35	0.092771925
53	0x3b599b06	0.0033203973
54	0x3b6f89b5	0.0036550586
55	0xb91e01b4	-0.00015068689
56	0xb821b17c	-3.8550686e-05
57	0x39a82e5e	0.00032078003
58	0x3b6f88f4	0.0036550136
59	0x3b6f894e	0.0036550346
60	0x3b6f888c	0.0036549894
61	0xb9f7de0b	-0.00047276946
62	0xbc0c6ca8	-0.008570828
63	0x3b6f8956	0.0036550364

exp_avg f4 [128, 7]
0	0xb3c0f050	-8.984409e-08
1	0xb31883af	-3.5510023e-08
2	0x33d28c9a	9.804462e-08
3	0x3422aac3	1.5149548e-07
4	0x353f96b0	7.1372324e-07
5	0x3400c127	1.1991197e-07
6	0xb34ea85f	-4.8116245e-08
7	0xb3c0f029	-8.9843816e-08
8	0xb31882bf	-3.550917e-08
9	0x33d28c90	9.804455e-08
10	0x3422ab54	1.5149755e-07
11	0x353f96bf	7.137241e-07
12	0x3400c104	1.1991148e-07
13	0xb34ea944	-4.811706e-08
14	0xb3c0f0bc	-8.984486e-08
15	0xb31883da	-3.5510176e-08
16	0x33d28d4a	9.8045874e-08
17	0x3422aaa1	1.51495e-07
18	0x353f96e6	7.137263e-07
19	0x3400c097	1.1990993e-07
20	0xb34ea8a4	-4.811649e-08
21	0xb3c0f06c	-8.984429e-08
22	0xb31883a0	-3.550997e-08
23	0x33d28ce0	9.804512e-08
24	0x3422aab9	1.5149534e-07
25	0x353f96a9	7.1372284e-07
26	0x3400c0e8	1.1991108e-07
27	0xb34ea780	-4.8115453e-08
28	0xb3c0f017	-8.984369e-08
29	0xb31883ae	-3.551002e-08
30	0x33d28c7c	9.804441e-08
31	0x3422aa99	1.5149489e-07
32	0x353f9677	7.1372e-07
33	0x3400c135	1.1991217e-07
34	0xb34ea692	-4.8114607e-08
35	0xb3c0f059	-8.984416e-08
36	0xb3188388	-3.5509885e-08
37	0x33d28ccf	9.8045e-08
38	0x3422aa6a	1.5149422e-07
39	0x353f96a4	7.1372256e-07
40	0x3400c0da	1.1991088e-07
41	0xb34ea869	-4.811628e-08
42	0xb3c0efe3	-8.984332e-08
43	0xb318830f	-3.5509455e-08
44	0x33d28c1e	9.804374e-08
45	0x3422aade	1.5149587e-07
46	0x353f966d	7.1371943e-07
47	0x3400c11a	1.1991179e-07
48	0xb34ea87c	-4.811635e-08
49	0xb3c0f0d9	-8.984507e-08
50	0xb318839f	-3.5509967e-08
51	0x33d28d60	9.804603e-08
52	0x3422aae5	1.5149597e-07
53	0x353f9702	7.137279e-07
54	0x3400c09f	1.1991004e-07
55	0xb34ea70f	-4.811505e-08
56	0xb3c0efc5	-8.9843105e-08
57	0xb31882e8	-3.5509316e-08
58	0x33d28c1d	9.8043735e-08
59	0x3422aa48	1.5149374e-07
60	0x353f9656	7.137181e-07
61	0x3400c15b	1.1991271e-07
62	0xb34ea9a3	-4.8117396e-08
63	0xb3c0f039	-8.984393e-08
64	0xb318835a	-3.550972e-08
65	0x33d28cb5	9.8044815e-08
66	0x3422aa70	1.514943e-07
67	0x353f96ad	7.1372307e-07
68	0x3400c123	1.1991192e-07
69	0xb34ea907	-4.8116842e-08
70	0xb3c0ef7d	-8.9842594e-08
71	0xb3188299	-3.5509036e-08
72	0x33d28bc7	9.8043124e-08
73	0x3422aa8c	1.514947e-07
74	0x353f963b	7.137166e-07
75	0x3400c1a3	1.1991374e-07
76	0xb34eaa0a	-4.8117762e-08
77	0xb3c0f01b	-8.984372e-08
78	0xb3188246	-3.550874e-08
79	0x33d28ca2	9.804468e-08
80	0x3422aae7	1.51496e-07
81	0x353f96ea	7.1372654e-07
82	0x3400c0b8	1.199104e-07
83	0xb34eabcc	-4.811936e-08
84	0xb3c0f06f	-8.984431e-08
85	0xb3188300	-3.55094e-08
86	0x33d28cc4	9.804492e-08
87	0x3422ab7e	1.5149814e-07
88	0x353f9700	7.137278e-07
89	0x3400c110	1.1991165e-07
90	0xb34ea930	-4.8116988e-08
91	0xb3c0f0dc	-8.984509e-08
92	0xb31883f9	-3.5510286e-08
93	0x33d28d4c	9.804589e-08
94	0x3422aae4	1.5149595e-07
95	0x353f96ea	7.1372654e-07
96	0x3400c064	1.199092e-07
97	0xb34ea7ba	-4.811566e-08
98	0xb3c0efa3	-8.9842864e-08
99	0xb31882ae	-3.550911e-08
100	0x33d28bdd	9.804328e-08
101	0x3422aa85	1.514946e-07
102	0x353f964f	7.137177e-07
103	0x3400c13e	1.199123e-07
104	0xb34ea887	-4.8116387e-08
105	0xb3c0f02a	-8.984382e-08
106	0xb31882ff	-3.5509398e-08
107	0x33d28cb7	9.804483e-08
108	0x3422aa33	1.5149344e-07
109	0x353f968f	7.1372136e-07
110	0x3400c0fb	1.1991135e-07
111	0xb34ea84e	-4.8116185e-08
112	0xb3c0f064	-8.9844235e-08
113	0xb3188382	-3.5509863e-08
114	0x33d28cfc	9.804532e-08
115	0x3422aa89	1.5149466e-07
116	0x353f9697	7.137218e-07
117	0x3400c08f	1.1990981e-07
118	0xb34ea6cb	-4.811481e-08
119	0xb3c0f0f0	-8.984523e-08
120	0xb31882a0	-3.550906e-08
121	0x33d28d77	9.804619e-08
122	0x3422ab61	1.5149773e-07
123	0x353f9764	7.1373347e-07
124	0x3400c025	1.1990831e-07
125	0xb34eab32	-4.8118814e-08
126	0xb3c0f059	-8.984416e-08
127	0xb3188398	-3.550994e-08
128	0x33d28cb5	9.8044815e-08
129	0x3422aa80	1.5149453e-07
130	0x353f96aa	7.137229e-07
131	0x3400c155	1.1991263e-07
132	0xb34ea905	-4.8116835e-08
133	0xb3c0f0bd	-8.984487e-08
134	0xb3188410	-3.5510368e-08
135	0x33d28d0b	9.8045426e-08
136	0x3422aaac	1.5149516e-07
137	0x353f96c6	7.137245e-07
138	0x3400c11a	1.1991179e-07
139	0xb34ea631	-4.8114263e-08
140	0x3725189d	9.840497e-06
141	0x3730ca12	1.0537466e-05
142	0xb7a348b4	-1.946497e-05
143	0xb89ffc67	-7.6287244e-05
144	0xb8ec9308	-0.00011280744
145	0xb75b5425	-1.3073009e-05
146	0xb8f064b1	-0.00011462847
147	0xb3c0f04f	-8.9844086e-08
148	0xb3188281	-3.550895e-08
149	0x33d28cb5	9.8044815e-08
150	0x3422ab51	1.514975e-07
151	0x353f96fa	7.1372745e-07
152	0x3400c0b3	1.1991033e-07
153	0xb34eaa25	-4.8117858e-08
154	0xb3c0f0d7	-8.984505e-08
155	0xb318840e	-3.551036e-08
156	0x33d28d36	9.804573e-08
157	0x3422aa62	1.514941e-07
158	0x353f96d9	7.1372557e-07
159	0x3400c0c8	1.1991062e-07
160	0xb34ea719	-4.8115087e-08
161	0xb3c0f085	-8.984447e-08
162	0xb3188355	-3.5509704e-08
163	0x33d28cf7	9.8045284e-08
164	0x3422aacf	1.5149566e-07
165	0x353f96c8	7.137246e-07
166	0x3400c0c2	1.1991054e-07
167	0xb34ea74c	-4.8115268e-08
168	0xb3c0f119	-8.984552e-08
169	0xb3188436	-3.5510503e-08
170	0x33d28d94	9.80464e-08
171	0x3422aae1	1.5149591e-07
172	0x353f9763	7.137334e-07
173	0x3400c0a4	1.1991011e-07
174	0xb34ea9dc	-4.81176e-08
175	0xb3c0f0f2	-8.9845244e-08
176	0xb31883d0	-3.551014e-08
177	0x33d28d7b	9.804622e-08
178	0x3422aa81	1.5149455e-07
179	0x353f96f0	7.137269e-07
180	0x3400c03f	1.1990868e-07
181	0xb34ea67e	-4.8114536e-08
182	0xb3c0f05e	-8.984419e-08
183	0xb3188382	-3.5509863e-08
184	0x33d28ccf	9.8045e-08
185	0x3422aa92	1.5149479e-07
186	0x353f9699	7.1372193e-07
187	0x3400c0b9	1.1991041e-07
188	0xb34ea74f	-4.811528e-08
189	0xb3c0f0dd	-8.9845095e-08
190	0xb3188487	-3.551079e-08
191	0x33d28d3a	9.804576e-08
192	0x3422ab1b	1.5149674e-07
193	0x353f96c4	7.137244e-07
194	0x3400c0dc	1.1991091e-07
195	0xb34ea6a6	-4.811468e-08
196	0xb3c0f072	-8.9844335e-08
197	0xb3188407	-3.5510336e-08
198	0x33d28cbd	9.804487e-08
199	0x3422aa57	1.5149395e-07
200	0x353f96c6	7.137245e-07
201	0x3400c166	1.1991287e-07
202	0xb34eaa73	-4.8118135e-08
203	0xb3c0f08d	-8.984453e-08
204	0xb3188285	-3.5508965e-08
205	0x33d28ce3	9.804514e-08
206	0x3422ab2b	1.5149696e-07
207	0x353f9700	7.137278e-07
208	0x3400c0d8	1.1991085e-07
209	0xb34eab38	-4.8118835e-08
210	0xb3c0f06a	-8.984428e-08
211	0xb318836e	-3.5509792e-08
212	0x33d28ccb	9.804497e-08
213	0x3422aa72	1.5149433e-07
214	0x353f96af	7.137232e-07
215	0x3400c09a	1.1990997e-07
216	0xb34ea931	-4.811699e-08
217	0xb81fa79b	-3.806465e-05
218	0xb720ae96	-9.577392e-06
219	0x38535ee6	5.03947e-05
220	0x37e3f5ec	2.7175025e-05
221	0x395e647c	0.00021209003
222	0xb822e1f0	-3.883423e-05
223	0x362a5515	2.5381498e-06
224	0xb3c0f028	-8.984381e-08
225	0xb318836e	-3.5509792e-08
226	0x33d28c80	9.804444e-08
227	0x3422aaa7	1.5149509e-07
228	0x353f969c	7.137221e-07
229	0x3400c0ff	1.199114e-07
230	0xb34ea790	-4.811551e-08
231	0xb3c0f07b	-8.98444e-08
232	0xb3188372	-3.5509807e-08
233	0x33d28ce7	9.804517e-08
234	0x3422aafa	1.5149627e-07
235	0x353f96b9	7.1372375e-07
236	0x3400c0c0	1.1991051e-07
237	0xb34ea7d6	-4.811576e-08
238	0xb3c0eff2	-8.9843425e-08
239	0xb31882de	-3.550928e-08
240	0x33d28c20	9.8043756e-08
241	0x3422ab10	1.5149658e-07
242	0x353f9696	7.1372176e-07
243	0x3400c0e6	1.1991105e-07
244	0xb34ea82a	-4.8116057e-08
245	0xb3c0f036	-8.984391e-08
246	0xb3188323	-3.5509526e-08
247	0x33d28c75	9.804436e-08
248	0x3422aaf1	1.5149614e-07
249	0x353f967e	7.137204e-07
250	0x3400c11b	1.199118e-07
251	0xb34ea759	-4.8115314e-08
252	0xb742414f	-1.1578507e-05
253	0x35c584f7	1.4716342e-06
254	0x35e82f93	1.7299193e-06
255	0xb6b9f0b1	-5.54145e-06
