FinishedEmulators/unscreened_fofr_lin_Pk/version_0/checkpoints/epoch=122-step=10066320.ckpt (torch, 16581 bytes, 20 tensors)

hidden_layers.0.weight f4 [16, 7]
0	0xbddafc7e	-0.1069269
1	0xbcebb0e5	-0.028770873
2	0x3e07365a	0.13204327
3	0x3c57a88d	0.013162744
4	0x3f125f9d	0.57177144
5	0xbd7a5fa2	-0.06112636
6	0x3a9858a6	0.0011623099
7	0xbdc5eeea	-0.0966471
8	0xbe961ea5	-0.29320255
9	0xbebf6f32	-0.37389523
10	0xbd8617b4	-0.0654749
11	0xbd15c43b	-0.036564093
12	0xbf9dcdd4	-1.2328439
13	0xbdbc950a	-0.092081144
14	0xbddafc88	-0.10692698
15	0xbcebb100	-0.028770924
16	0x3e073658	0.13204324
17	0x3c57a804	0.013162617
18	0x3f125f9f	0.57177156
19	0xbd7a5fb0	-0.06112641
20	0x3a985e10	0.0011624712
21	0xbddafc79	-0.106926866
22	0xbcebb0dc	-0.028770857
23	0x3e073657	0.13204323
24	0x3c57a804	0.013162617
25	0x3f125f9c	0.5717714
26	0xbd7a5f97	-0.061126318
27	0x3a985968	0.0011623325
28	0xbddafc85	-0.106926955
29	0xbcebb102	-0.028770927
30	0x3e07365f	0.13204335
31	0x3c57a899	0.013162755
32	0x3f125f9d	0.57177144
33	0xbd7a5fa4	-0.061126366
34	0x3a98581d	0.001162294
35	0xbd8ddcb1	-0.06926859
36	0xbfe6255e	-1.7980154
37	0xbdfe7db0	-0.12426317
38	0xbd0753b6	-0.033038817
39	0xbf003391	-0.50078684
40	0xbef85d43	-0.48508653
41	0xbf7d0773	-0.9883949
42	0x3d379e19	0.044828508
43	0xc028900a	-2.6337914
44	0xbe8dd112	-0.2769857
45	0xbdd4b828	-0.103866875
46	0x3f3affc9	0.7304655
47	0xbee3af39	-0.44469622
48	0x3fbca56d	1.4737984
49	0xbddafc84	-0.10692695
50	0xbcebb119	-0.02877097
51	0x3e07365d	0.13204332
52	0x3c57a8a0	0.013162762
53	0x3f125f9d	0.57177144
54	0xbd7a5fb2	-0.06112642
55	0x3a9857fa	0.0011622899
56	0x3d1f56a1	0.038900975
57	0xc002c080	-2.0429993
58	0x3fc018a7	1.5007523
59	0x3f23bb85	0.6395801
60	0x3e211113	0.1572917
61	0xbe22ab55	-0.1588567
62	0x3ea62829	0.32452515
63	0xbddafc72	-0.10692681
64	0xbcebb0d7	-0.028770847
65	0x3e073653	0.13204317
66	0x3c57a855	0.013162692
67	0x3f125f9e	0.5717715
68	0xbd7a5fae	-0.061126404
69	0x3a9859f4	0.0011623488
70	0xbe60bef2	-0.2194784
71	0x3f5d54a8	0.864573
72	0xbe6e08ff	-0.23245619
73	0x3d52e66f	0.05148929
74	0x3e622f20	0.2208829
75	0xc00fe1d8	-2.2481594
76	0x3ed49df2	0.41526753
77	0xbe15dd8d	-0.14635296
78	0x3e430edd	0.19048639
79	0xbd83b53f	-0.06431054
80	0xbc6a2c18	-0.014292739
81	0x3e5640e8	0.20923197
82	0xbf659a2d	-0.8968838
83	0x3ecdb2e0	0.40175533
84	0x3ce814fd	0.02833032
85	0xbf0e6064	-0.5561583
86	0xbf19f11d	-0.60133535
87	0xbeaca9ba	-0.3372324
88	0x3ebb06c6	0.36528605
89	0xbfa060c6	-1.2529533
90	0x3f41a81c	0.7564714
91	0xbd09ed74	-0.03367372
92	0x3db70612	0.08936705
93	0xbf7a86df	-0.97862047
94	0xbef5ae4e	-0.47984546
95	0x3eeeb993	0.46625957
96	0xbc40af68	-0.01176057
97	0x3f609eb6	0.87742174
98	0xbddafc76	-0.10692684
99	0xbcebb0f0	-0.028770894
100	0x3e073659	0.13204326
101	0x3c57a875	0.013162722
102	0x3f125f9c	0.5717714
103	0xbd7a5f96	-0.061126314
104	0x3a9858e5	0.0011623172
105	0xbd9d20b9	-0.07672257
106	0xbfc108c8	-1.5080805
107	0x3ec62b38	0.38704848
108	0x3d3fd97b	0.046838265
109	0x3c8dda58	0.017316028
110	0xbf2256be	-0.6341361
111	0xbc4c95d0	-0.01248689

hidden_layers.0.bias f4 [16]
0	0xbe0541bf	-0.13013361
1	0xbf8d59e4	-1.1043057
2	0xbe0541c5	-0.1301337
3	0xbe0541c0	-0.13013363
4	0xbe0541c6	-0.13013372
5	0xc017e477	-2.3733194
6	0x40c63e25	6.195086
7	0xbe0541c4	-0.13013369
8	0x3ff79452	1.9342139
9	0xbe0541b8	-0.13013351
10	0xbf37b6af	-0.7176313
11	0x3e8eec55	0.27914682
12	0xbed88bbb	-0.42294106
13	0xbac261f5	-0.0014830219
14	0xbe0541bf	-0.13013361
15	0x3e9db136	0.30799264

hidden_layers.1.weight f4 [8, 16]
0	0xbc83cca8	-0.016088799
1	0x3c23b143	0.009990993
2	0xbc83ccb2	-0.016088817
3	0xbc83cc9a	-0.016088773
4	0xbc83cca5	-0.016088793
5	0xbb9bd310	-0.004755385
6	0x3b2d4301	0.0026437643
7	0xbc83ccb3	-0.01608882
8	0xbd7ce4b8	-0.06174156
9	0xbc83cc89	-0.01608874
10	0xbcc22b5c	-0.023702316
11	0x3cab6e21	0.020926537
12	0xbcb50b21	-0.022100033
13	0x3d3c6c34	0.046001628
14	0xbc83ccaa	-0.016088802
15	0x3ac6f42b	0.0015178969
16	0x3ae4ece8	0.0017465623
17	0x3d7de0ae	0.06198185
18	0x3ae4eda2	0.001746584
19	0x3ae4ecd6	0.0017465602
20	0x3ae4eda4	0.0017465842
21	0xbed08bf1	-0.40731767
22	0xbd83c399	-0.06433792
23	0x3ae4edda	0.0017465905
24	0x3e189934	0.14902192
25	0x3ae4ec5c	0.001746546
26	0xbbf22ce5	-0.0073906058
27	0x3caa9372	0.02082226
28	0xbc140f7e	-0.009036897
29	0x3d09f6a6	0.033682488
30	0x3ae4ed7e	0.0017465798
31	0x3de8740a	0.11350258
32	0x3cb2c086	0.021820318
33	0x3cdf38cd	0.027248764
34	0x3cb2c127	0.021820618
35	0x3cb2c096	0.021820348
36	0x3cb2c11b	0.021820595
37	0x3d03ee9f	0.03220999
38	0xbaf9c820	-0.0019056834
39	0x3cb2c115	0.021820584
40	0xbd44b880	-0.048027515
41	0x3cb2c039	0.021820175
42	0x3d5e57bc	0.05428289
43	0x3cd0e720	0.025500834
44	0x3d5a539c	0.053302392
45	0xbbd2c520	-0.0064321905
46	0x3cb2c0e2	0.02182049
47	0xbbe4611a	-0.006969583
48	0x3bfbf2c3	0.0076888516
49	0xbc27cb90	-0.010241404
50	0x3bfbf20a	0.0076887654
51	0x3bfbf2a1	0.0076888357
52	0x3bfbf1fe	0.00768876
53	0xbc6c5d6d	-0.014426571
54	0x3b62003f	0.003448501
55	0x3bfbf233	0.0076887845
56	0x3d8d410a	0.06897171
57	0x3bfbf2cb	0.0076888553
58	0x3b5febf9	0.003416775
59	0xbc84f355	-0.016229311
60	0xbb609a86	-0.003427179
61	0x3d071c55	0.032986004
62	0x3bfbf28a	0.007688825
63	0x3bab0552	0.00521914
64	0x3b6fb01f	0.0036573482
65	0xbf5e81c2	-0.86916745
66	0x3b6fafa0	0.0036573187
67	0x3b6fb081	0.003657371
68	0x3b6fb008	0.0036573429
69	0xbe755e1b	-0.2396168
70	0x3f1530dc	0.5827768
71	0x3b6faf8d	0.0036573142
72	0xbf0d4d03	-0.55195636
73	0x3b6fb0bc	0.0036573848
74	0xbfd36fa6	-1.6518447
75	0xbf64c013	-0.8935558
76	0xbf7705e5	-0.9649337
77	0xbdf05b07	-0.11736112
78	0x3b6fb082	0.0036573713
79	0xbf72b1a6	-0.9480232
80	0xbcde9311	-0.027169736
81	0xbc37a782	-0.011209371
82	0xbcde932e	-0.02716979
83	0xbcde930e	-0.02716973
84	0xbcde9333	-0.0271698
85	0x3ba2a290	0.0049632266
86	0xbbd69726	-0.00654878
87	0xbcde9348	-0.027169839
88	0x3c7bd05b	0.0153695
89	0xbcde92e3	-0.02716965
90	0xbcbb58b9	-0.022869455
91	0xbb6300ad	-0.0034637854
92	0xbcdc17e6	-0.026866864
93	0xb9f0bb67	-0.00045915993
94	0xbcde9330	-0.027169794
95	0x3a83e6ac	0.0010063252
96	0xbc4f8ae8	-0.012667395
97	0x3ec9a83d	0.39386168
98	0xbc4f8ab4	-0.012667347
99	0xbc4f8a6d	-0.012667281
100	0xbc4f8b61	-0.012667508
101	0xbf9c7e61	-1.2226068
102	0x3f6c2529	0.922442
103	0xbc4f8c5e	-0.0126677435
104	0xbda1cd8f	-0.07900535
105	0xbc4f8ac0	-0.012667358
106	0xbf0eef54	-0.55833936
107	0x3f7a28bf	0.97718424
108	0xbdeead4e	-0.11654149
109	0xbe0fc97e	-0.14041707
110	0xbc4f8afe	-0.012667416
111	0x3e064f5b	0.13116209
112	0xbce692de	-0.028146204
113	0x3eb5ba08	0.35493493
114	0xbce692d6	-0.028146189
115	0xbce692a7	-0.028146101
116	0xbce69314	-0.028146304
117	0x3e1751b0	0.14777255
118	0x3e1f104e	0.15533563
119	0xbce692ca	-0.028146166
120	0x3f757e85	0.9589618
121	0xbce69276	-0.02814601
122	0x3e443461	0.19160606
123	0x3f148e2d	0.58029443
124	0x3e9bd1e5	0.30433574
125	0xbc9e792e	-0.019344892
126	0xbce69301	-0.028146269
127	0x3f6896ee	0.908553

hidden_layers.1.bias f4 [8]
0	0xbb904134	-0.004402304
1	0xc01e2c54	-2.4714556
2	0x3ba7d89e	0.0051222583
3	0x3bd0ec3e	0.0063758185
4	0xbf2a8545	-0.66609603
5	0xbb50b06e	-0.0031843442
6	0xc03fa95a	-2.9947114
7	0xbf28a320	-0.6587391

output_layer.weight f4 [1, 8]
0	0xbabc3628	-0.0014359402
1	0xbbad643e	-0.005291491
2	0x3b509166	0.0031824945
3	0xbb806efe	-0.0039194813
4	0x3e9d1776	0.30681962
5	0x3bc627ae	0.0060472107
6	0x3e15dbc0	0.14634609
7	0xbe628434	-0.22120744

hidden_layers.0.weight f4 [16, 7]
0	0xbdf8d49e	-0.121499285
1	0xbec4f19f	-0.38465592
2	0x3e6752e1	0.2259021
3	0x3c19d8c8	0.009390064
4	0x3e8275de	0.2548055
5	0xbe62bd55	-0.22142537
6	0xbe1110a8	-0.1416651
7	0xbd0d7f0e	-0.034544997
8	0xbe7f4d42	-0.24931815
9	0xbefcf50b	-0.49405703
10	0xbe0652d6	-0.13117537
11	0x3df4e73b	0.11958166
12	0xbfa2df11	-1.2724324
13	0x3e6f32b1	0.23359181
14	0xbd66e046	-0.056366228
15	0x3d711768	0.058860213
16	0xbd903996	-0.07042234
17	0xbd91574f	-0.07096731
18	0x3e80dfa7	0.25170633
19	0xbd0e1cd7	-0.034695473
20	0x3cdcd2b3	0.026955938
21	0x3be0a7a0	0.00685592
22	0xbed2fde5	-0.4120933
23	0x3e2e7ddb	0.17040198
24	0x3dcbe157	0.099550895
25	0x3f1bbc25	0.6083396
26	0xbea077b9	-0.3134134
27	0x3f7bbcc2	0.98334897
28	0xbd937817	-0.0720064
29	0x3e70e608	0.2352525
30	0x3e2b19bf	0.1670904
31	0x3def930d	0.116979696
32	0x3ed2d802	0.41180426
33	0xbf8fbfae	-1.1230371
34	0x3ef6facb	0.48238215
35	0xbd2b9544	-0.041890398
36	0xbfa94c64	-1.3226438
37	0x3e8e0737	0.2773988
38	0x3c9f314a	0.019432683
39	0xbe632f57	-0.22186027
40	0xbf20a593	-0.62752646
41	0xbee93479	-0.45547846
42	0x3cb991b9	0.022652494
43	0xc00e4e5b	-2.2235324
44	0xbe52212c	-0.20520467
45	0xbda3a1fa	-0.07989879
46	0x3ee3d556	0.444987
47	0xbe7cccc5	-0.24687488
48	0x3f64607a	0.8920971
49	0xbc82217e	-0.015885111
50	0xbe682a23	-0.22672324
51	0xbd4a76a0	-0.049429536
52	0xbd0eeac7	-0.03489187
53	0x3f08e382	0.5347215
54	0xbeadfcec	-0.33982027
55	0x3f2c815d	0.6738489
56	0x3d026aa0	0.031839967
57	0xbfae8312	-1.363375
58	0x3fa93e23	1.3222088
59	0x3f10539e	0.5637759
60	0x3dff9d3c	0.12481162
61	0xbe18aa97	-0.14908825
62	0x3e825513	0.2545553
63	0xbd8eb81f	-0.06968712
64	0xbe8f4aec	-0.27986848
65	0xbdb681fc	-0.08911511
66	0xbd158873	-0.03650708
67	0x3e92e040	0.28686714
68	0xbe6ea251	-0.23304106
69	0x3c2d3453	0.010571557
70	0xbdc1f8d8	-0.09471291
71	0x3ec0467c	0.37553775
72	0xbe036670	-0.12832046
73	0x3b2107f4	0.002457139
74	0x3e918743	0.2842351
75	0xbfa5ae56	-1.2943828
76	0x3f0cddf6	0.55026186
77	0xbd4961fd	-0.049165715
78	0xbe939e0b	-0.28831515
79	0xbd43c9b8	-0.047799796
80	0x3b35f505	0.0027764451
81	0x3e8d1e08	0.27561975
82	0xbf2409df	-0.6407756
83	0x3f0c1e8d	0.54734117
84	0x3b38c2f2	0.0028192368
85	0xbedd7abb	-0.43257698
86	0xbebe6a94	-0.37190688
87	0xbe079454	-0.13240176
88	0x3e97b837	0.29632732
89	0xbf968c84	-1.1761632
90	0x3f1882b9	0.59574467
91	0xbb5436ca	-0.003238129
92	0x3ead1642	0.33806044
93	0xbf3cf15b	-0.7380578
94	0xbeb0d38e	-0.34536403
95	0x3eece46c	0.46268022
96	0xbdfc5df9	-0.12322611
97	0x3f67f4be	0.9060782
98	0xbd935bbd	-0.07195232
99	0x3dc6c61a	0.097057536
100	0x3ea25b86	0.31710452
101	0x3dc93be3	0.098258756
102	0x3e933d47	0.28757688
103	0xbd00871c	-0.03137885
104	0xbd6602cb	-0.056155007
105	0xbd722688	-0.059118778
106	0xbe86a0e2	-0.2629462
107	0x3e80f5ba	0.25187474
108	0x3d52d966	0.05147686
109	0x3e83c1a7	0.25733683
110	0xbf0245d5	-0.50887805
111	0x3f0227b3	0.50841826

hidden_layers.0.bias f4 [16]
0	0xbf169ec2	-0.58835995
1	0xbe15ffb4	-0.14648324
2	0xbe0a99b4	-0.13535196
3	0x4013b99a	2.3082032
4	0xbd9c9ea1	-0.076474436
5	0xbf34dbc1	-0.7064782
6	0x406c621d	3.6934884
7	0x3fedab0f	1.8567828
8	0x3fbf2264	1.493237
9	0x3d0e819c	0.034791574
10	0xbe492069	-0.1964127
11	0x3f0abef0	0.541976
12	0xbe4a966b	-0.19783942
13	0x3e9215d1	0.2853227
14	0xbe0cf912	-0.13766888
15	0x3f2f2e6e	0.6843022

hidden_layers.1.weight f4 [8, 16]
0	0x3a61aea4	0.00086090923
1	0x3b384afb	0.0028120864
2	0x3c34127d	0.010990736
3	0x3b251f9a	0.0025195838
4	0x3a6c8be4	0.0009023531
5	0xbc2c7d79	-0.010527962
6	0xba714938	-0.0009204331
7	0xbac376c4	-0.0014912714
8	0xbbb415df	-0.0054957713
9	0x3ab8bb06	0.0014093823
10	0x3c1f3673	0.009717572
11	0x3aa42c8a	0.0012525481
12	0x3b3a2c52	0.0028407765
13	0x3b6eecc3	0.003645704
14	0x3b40d0f8	0.002942143
15	0x3ae65939	0.0017574198
16	0x3e7ece29	0.24883331
17	0x3ce8f77c	0.028438322
18	0xbd3d5b38	-0.04622957
19	0xbea68193	-0.32520732
20	0x3e1ff70e	0.15621588
21	0xbcce3f85	-0.025176773
22	0xbdc293fc	-0.09500882
23	0xbe988c4a	-0.29794532
24	0x3f056422	0.52105916
25	0xbdd7b577	-0.105326585
26	0xbdbad46d	-0.09122548
27	0x3dd77e04	0.105220824
28	0x3e4770dd	0.19476648
29	0xbed9b112	-0.42517906
30	0x3d85b5f0	0.065288424
31	0x3e0859b7	0.13315473
32	0x3914ff18	0.0001420941
33	0xbb9a5666	-0.0047100065
34	0xbb188fba	-0.0023279027
35	0x3b063144	0.0020476142
36	0xbb9bc6ac	-0.004753908
37	0xbb87ab3f	-0.004140287
38	0xba158dcb	-0.0005705028
39	0x3904b870	0.0001265721
40	0x3b5d2be0	0.0033748075
41	0x3923c7a0	0.00015619257
42	0xba065d70	-0.00051256176
43	0x3b629379	0.0034572764
44	0xbb853e88	-0.004066292
45	0xbb95aca4	-0.0045676995
46	0xbae0dbd5	-0.0017155359
47	0xba8cb2b8	-0.0010734415
48	0x3db0df3a	0.08636327
49	0x3e370de4	0.17876393
50	0x3d32eaa1	0.04368079
51	0xbea4f353	-0.32216892
52	0xbeaa4925	-0.3325893
53	0x3e64ceee	0.22344562
54	0xbf2a5116	-0.6652998
55	0x3e665ca9	0.22496285
56	0x3ec0fc7b	0.37692627
57	0xbe2d97f8	-0.16952503
58	0xbec62f39	-0.38707903
59	0xbea34006	-0.31884784
60	0xbe606317	-0.219128
61	0xbdb4a0c1	-0.08819724
62	0x3de3e443	0.11127522
63	0xbeabb8a3	-0.33539304
64	0xbe152b2a	-0.14567247
65	0xbf130d20	-0.574419
66	0xbd903069	-0.070404835
67	0xbf1e5666	-0.61850584
68	0xbf2fc799	-0.68663937
69	0xbebd6cba	-0.36997014
70	0x3f4b17d1	0.79333216
71	0xbc1d644c	-0.009606432
72	0xbedbc67e	-0.42924875
73	0x3dd4197a	0.10356422
74	0xbf79139d	-0.9729555
75	0xbf836ce1	-1.0267602
76	0xbf3e8076	-0.74414766
77	0xbdeda4b2	-0.11603679
78	0xbd2a14c6	-0.041523717
79	0xbf324b2d	-0.6964596
80	0xbb86a69b	-0.0041092164
81	0xbb9c1e42	-0.004764349
82	0xbb932088	-0.004489962
83	0xbc101ec0	-0.008796394
84	0xbc115224	-0.0088696815
85	0xbb516504	-0.003195108
86	0xb92e9c66	-0.00016652196
87	0xbc022a70	-0.007944688
88	0x3a3532d2	0.0006912175
89	0xbbaaa528	-0.0052076764
90	0xbb8a5177	-0.004221137
91	0x3b15a52d	0.0022834048
92	0x3a10e3e0	0.000552712
93	0x3c1b720a	0.009487638
94	0xbb95eef8	-0.0045756064
95	0xbababd97	-0.0014247176
96	0x3e0e8191	0.13916613
97	0x3ec515da	0.38493234
98	0x3dba28e4	0.090898305
99	0x3ec764bd	0.38944045
100	0xbecf698c	-0.40510213
101	0xbf0571f9	-0.52127033
102	0x3f0c2e53	0.54758185
103	0x3eb74ece	0.3580231
104	0xbec0594b	-0.37568125
105	0xbc0dcbb2	-0.008654522
106	0xbf28056f	-0.6563329
107	0x3ded71e8	0.115939915
108	0xbeaa9bef	-0.33322093
109	0xbe34691e	-0.17618224
110	0xbdc48c56	-0.095970795
111	0xbeb7fb1f	-0.35933778
112	0xbe8bee4b	-0.2733024
113	0x3d2760dc	0.040863857
114	0xbdbcd8dd	-0.09221051
115	0x3f5e655a	0.868734
116	0x3de95a40	0.11394167
117	0xbc9ddddb	-0.019270828
118	0x3de79ecf	0.11309587
119	0xbf4f827e	-0.8105849
120	0x3e7f71e6	0.24945793
121	0x3e326b72	0.174238
122	0xbe78c944	-0.24295527
123	0xbf00168d	-0.5003441
124	0xbf2d2985	-0.6764148
125	0x3e96eeef	0.29479167
126	0x3d41da20	0.04732716
127	0xbe27a07f	-0.16369818

hidden_layers.1.bias f4 [8]
0	0x3a5d6dec	0.00084468606
1	0xbf5152a9	-0.81766754
2	0xba4bc096	-0.0007772533
3	0x3b3059a2	0.0026908894
4	0xbe9ba9f1	-0.30403093
5	0xb94363a5	-0.0001863377
6	0xbfa9bfda	-1.3261673
7	0xbf4e2864	-0.8053038

output_layer.weight f4 [1, 8]
0	0xb918e96c	-0.00014582806
1	0xbf403a7c	-0.7508924
2	0x38e0a981	0.00010712725
3	0x3e15c728	0.14626753
4	0x3ea1c2e5	0.31594005
5	0x38974d04	7.2145864e-05
6	0x3ea20e7c	0.31651676
7	0xbf95564e	-1.1666963

exp_avg f4 [16, 7]
0	0xb32241b2	-3.7778314e-08
1	0x3189b3f9	4.0076853e-09
2	0x331da2ed	3.670259e-08
3	0x33468a05	4.6225995e-08
4	0x34ade67b	3.2391458e-07
5	0xb4559044	-1.9889654e-07
6	0xb1c2f6f1	-5.674217e-09
7	0x37cc67b1	2.436698e-05
8	0x37d1350b	2.4939442e-05
9	0xb903ec7b	-0.0001258123
10	0xb6fc3e2c	-7.517423e-06
11	0xba5b4bad	-0.00083654636
12	0x36cf3e25	6.1763153e-06
13	0xb9189a91	-0.0001455343
14	0xb32243f1	-3.7780357e-08
15	0x3189ac50	4.0068144e-09
16	0x331da54f	3.670476e-08
17	0x3346896e	4.622546e-08
18	0x34ade79b	3.2392276e-07
19	0xb4559019	-1.9889593e-07
20	0xb1c2eed1	-5.6732934e-09
21	0xb3223f62	-3.777621e-08
22	0x3189bb46	4.0085153e-09
23	0x331da01f	3.670004e-08
24	0x33468a6a	4.6226354e-08
25	0x34ade52a	3.23905e-07
26	0xb4558ffb	-1.988955e-07
27	0xb1c2f6be	-5.6741944e-09
28	0xb32242e9	-3.777942e-08
29	0x3189aeec	4.007111e-09
30	0x331da464	3.6703923e-08
31	0x334689dd	4.6225853e-08
32	0x34ade71b	3.2391912e-07
33	0xb4559050	-1.9889671e-07
34	0xb1c2f971	-5.6745013e-09
35	0x37be1640	2.2660126e-05
36	0x37bac2f8	2.2263717e-05
37	0xb93f1b9d	-0.00018225466
38	0xb9345744	-0.00017198647
39	0x39a322b6	0.00031115644
40	0xb8df30f6	-0.00010642588
41	0xb9fe1741	-0.0004846398
42	0xbac66448	-0.0015136087
43	0xb9e89298	-0.0004435971
44	0x3af7f18d	0.0018916592
45	0x3826086e	3.9585335e-05
46	0x3bd59cc8	0.006518934
47	0xb9ba2e7a	-0.00035511312
48	0x39bb3787	0.0003570879
49	0xb32244a5	-3.7780996e-08
50	0x3189a9e9	4.0065413e-09
51	0x331da5ba	3.670514e-08
52	0x3346896a	4.6225445e-08
53	0x34ade80b	3.2392595e-07
54	0xb4559044	-1.9889654e-07
55	0xb1c2fecb	-5.6751097e-09
56	0x3809be8c	3.2840806e-05
57	0x37a4dbb5	1.9652633e-05
58	0x37e06367	2.6749169e-05
59	0xb91837b9	-0.00014516608
60	0x389801c4	7.248254e-05
61	0xb90fbbf1	-0.00013707556
62	0x39b330e7	0.00034177976
63	0xb3223f21	-3.777598e-08
64	0x3189bb59	4.0085237e-09
65	0x331d9fe2	3.6699824e-08
66	0x33468a2a	4.6226127e-08
67	0x34ade546	3.239058e-07
68	0xb455904f	-1.988967e-07
69	0xb1c2fea4	-5.6750924e-09
70	0xb9b29921	-0.00034064896
71	0xb9055f5d	-0.00012719394
72	0x39fa632a	0.000477576
73	0xb8c297ba	-9.278902e-05
74	0x3b051505	0.0020306718
75	0xb88ee438	-6.813597e-05
76	0x38dbb461	0.00010476332
77	0xb877dddb	-5.9096008e-05
78	0xb6fbb020	-7.5008866e-06
79	0x38d7f1f4	0.00010297066
80	0x38a5ed5d	7.9120255e-05
81	0xb8306079	-4.2051517e-05
82	0x37960bab	1.7886827e-05
83	0x390970c8	0.00013107352
84	0xb971d8f8	-0.00023064378
85	0xb8970788	-7.201644e-05
86	0x398ff2cc	0.00027455983
87	0xb882fabe	-6.2455874e-05
88	0x3ab8902d	0.0014081054
89	0xb8b30cc2	-8.5377615e-05
90	0xb85bc249	-5.239461e-05
91	0xb83b57d8	-4.4666085e-05
92	0xb788d6d8	-1.6312508e-05
93	0x388e28b2	6.778668e-05
94	0xb7332c03	-1.0679479e-05
95	0x3996f32f	0.00028791415
96	0x387375b9	5.8045352e-05
97	0xb704769f	-7.895432e-06
98	0xb3223f9f	-3.7776427e-08
99	0x3189b9c9	4.008346e-09
100	0x331da052	3.670022e-08
101	0x33468a66	4.622634e-08
102	0x34ade55b	3.239064e-07
103	0xb4558fba	-1.9889458e-07
104	0xb1c2f74b	-5.674257e-09
105	0x37b5c181	2.1666989e-05
106	0x37f5cdf4	2.930218e-05
107	0xb8f18ff7	-0.00011518591
108	0xb90a3da2	-0.00013183666
109	0xb9c7a194	-0.00038076623
110	0x38d0db5f	9.959074e-05
111	0xb90f7140	-0.00013679732

exp_avg_sq f4 [16, 7]
0	0x2d1373db	8.381708e-12
1	0x2b847f98	9.414578e-13
2	0x2d64610f	1.2981851e-11
3	0x2b4b3503	7.2193656e-13
4	0x2f87ebcb	2.4723898e-10
5	0x2cd28798	5.983613e-12
6	0x2c30123a	2.5021222e-12
7	0x36be3b6d	5.6693593e-06
8	0x35279ac0	6.243754e-07
9	0x370db7fe	8.447094e-06
10	0x34bf34dd	3.5614985e-07
11	0x3980dabc	0.00024577032
12	0x36808a8b	3.830826e-06
13	0x3572da29	9.046949e-07
14	0x2d13741f	8.381767e-12
15	0x2b847fc6	9.414628e-13
16	0x2d64617e	1.2981947e-11
17	0x2b4b356e	7.2194236e-13
18	0x2f87ec12	2.4724095e-10
19	0x2cd28802	5.983659e-12
20	0x2c30128c	2.50214e-12
21	0x2d1373fc	8.381736e-12
22	0x2b847fb7	9.414612e-13
23	0x2d646149	1.2981901e-11
24	0x2b4b3529	7.219386e-13
25	0x2f87ebf5	2.4724015e-10
26	0x2cd287e4	5.983646e-12
27	0x2c301256	2.5021283e-12
28	0x2d1373cc	8.381695e-12
29	0x2b847f8c	9.414565e-13
30	0x2d6460fc	1.2981834e-11
31	0x2b4b34e6	7.21935e-13
32	0x2f87ebbf	2.4723865e-10
33	0x2cd28795	5.9836116e-12
34	0x2c30123b	2.5021224e-12
35	0x36fbe1f5	7.506688e-06
36	0x35500211	7.7489045e-07
37	0x37412286	1.1511735e-05
38	0x34fac9ea	4.671304e-07
39	0x39d0461c	0.00039725087
40	0x35a22c59	1.2082847e-06
41	0x36250b95	2.4593658e-06
42	0x3a240d8b	0.00062581216
43	0x388eef36	6.815644e-05
44	0x3a7c9101	0.00096346444
45	0x3802cc90	3.118493e-05
46	0x3cdbc1a0	0.026825726
47	0x39e2c09b	0.0004324958
48	0x38b7655c	8.745e-05
49	0x2d1373e2	8.381714e-12
50	0x2b847f9f	9.414586e-13
51	0x2d646126	1.2981871e-11
52	0x2b4b34fe	7.219363e-13
53	0x2f87ebd4	2.4723923e-10
54	0x2cd287c0	5.9836303e-12
55	0x2c30124a	2.5021257e-12
56	0x364b376b	3.0281615e-06
57	0x34a564d2	3.0807e-07
58	0x368fa34b	4.280742e-06
59	0x358ac721	1.0339755e-06
60	0x3900d145	0.0001228499
61	0x365161b4	3.1200298e-06
62	0x356ad9ea	8.74889e-07
63	0x2d1373f0	8.381726e-12
64	0x2b847fb0	9.414605e-13
65	0x2d64613e	1.2981892e-11
66	0x2b4b3513	7.2193743e-13
67	0x2f87ebd3	2.472392e-10
68	0x2cd287be	5.9836294e-12
69	0x2c301264	2.5021313e-12
70	0x37539054	1.2610184e-05
71	0x35bd4216	1.4100831e-06
72	0x37a587a1	1.973269e-05
73	0x35708786	8.960418e-07
74	0x3a0ab0e8	0.00052906433
75	0x35304970	6.5671975e-07
76	0x3614742b	2.2121337e-06
77	0x372834a0	1.0025833e-05
78	0x3591e634	1.087034e-06
79	0x3780d785	1.5359148e-05
80	0x350b073b	5.1792057e-07
81	0x39f3b6df	0.0004648482
82	0x36df1988	6.64889e-06
83	0x35a93bba	1.2608864e-06
84	0x36832227	3.90808e-06
85	0x34e6536b	4.2901533e-07
86	0x36d05901	6.2092445e-06
87	0x3497c65d	2.827027e-07
88	0x39214cef	0.00015382816
89	0x35055741	4.967333e-07
90	0x354f452b	7.721416e-07
91	0x343059dd	1.642397e-07
92	0x32983631	1.7719772e-08
93	0x348acdee	2.5854337e-07
94	0x32c1944d	2.2535597e-08
95	0x36ec0e3b	7.0350047e-06
96	0x346a8c00	2.184388e-07
97	0x332f7b2b	4.0857383e-08
98	0x2d1373f1	8.381727e-12
99	0x2b847fa9	9.414597e-13
100	0x2d646136	1.2981885e-11
101	0x2b4b3522	7.2193824e-13
102	0x2f87ebd7	2.472393e-10
103	0x2cd287c3	5.9836316e-12
104	0x2c30125c	2.5021296e-12
105	0x36950cba	4.4420276e-06
106	0x35066633	5.006761e-07
107	0x36ef5396	7.1324857e-06
108	0x34c10046	3.594925e-07
109	0x394469f1	0.00018731483
110	0x370dd3f9	8.453609e-06
111	0x3563bf57	8.4842526e-07

exp_avg f4 [16]
0	0xb38c2ba6	-6.5271976e-08
1	0x38d452ed	0.00010124394
2	0xb38c2cdf	-6.52742e-08
3	0xb38c2a67	-6.526971e-08
4	0xb38c2c67	-6.527335e-08
5	0x3896632c	7.1710296e-05
6	0xbaddbfd2	-0.0016918129
7	0xb38c2d23	-6.527468e-08
8	0xb696b417	-4.4913136e-06
9	0xb38c2a22	-6.526922e-08
10	0xb9f11db4	-0.00045989233
11	0xb8352fa5	-4.3198135e-05
12	0xb995a7da	-0.00028544554
13	0xb86f74fc	-5.709099e-05
14	0xb38c2a78	-6.526983e-08
15	0x38ce040f	9.8236014e-05

exp_avg_sq f4 [16]
0	0x2d5be568	1.2499647e-11
1	0x370d6aa8	8.429088e-06
2	0x2d5be5de	1.24997495e-11
3	0x2d5be5a8	1.2499703e-11
4	0x2d5be55d	1.2499638e-11
5	0x373b0cb7	1.1149029e-05
6	0x3a73e47d	0.0009303762
7	0x2d5be588	1.2499675e-11
8	0x369430ee	4.41644e-06
9	0x2d5be58f	1.2499681e-11
10	0x379d4628	1.8748528e-05
11	0x37795dbe	1.4863383e-05
12	0x36c1e6be	5.77871e-06
13	0x34820862	2.4220486e-07
14	0x2d5be59c	1.2499692e-11
15	0x36dbb645	6.5479276e-06

exp_avg f4 [8, 16]
0	0xb438fbb5	-1.7227906e-07
1	0xb51b2cff	-5.780748e-07
2	0xb438fb9e	-1.7227873e-07
3	0xb438fbba	-1.7227913e-07
4	0xb438fb9b	-1.7227869e-07
5	0xb722d19a	-9.704754e-06
6	0x381bf39e	3.7181766e-05
7	0xb438fb92	-1.7227856e-07
8	0x34e216ff	4.2112512e-07
9	0xb438fb9c	-1.722787e-07
10	0xb4f55aec	-4.570096e-07
11	0xb5b1c4ed	-1.3244841e-06
12	0xb50de157	-5.2854506e-07
13	0xb63ff216	-2.860213e-06
14	0xb438fba9	-1.7227889e-07
15	0x344ee300	1.9267827e-07
16	0x32ca81d0	2.3574927e-08
17	0x33f3af29	1.1347431e-07
18	0x32ca81c6	2.357491e-08
19	0x32ca81ea	2.3574973e-08
20	0x32ca81be	2.3574895e-08
21	0x359b9dca	1.1594323e-06
22	0xb6b56d97	-5.4069783e-06
23	0x32ca81ce	2.3574923e-08
24	0xb4446156	-1.8289333e-07
25	0x32ca81bf	2.3574897e-08
26	0x33a7f152	7.8204394e-08
27	0x3444ed6a	1.8340293e-07
28	0x33731b4d	5.6602676e-08
29	0x34b83c1a	3.43164e-07
30	0x32ca81f2	2.3574987e-08
31	0xb395dc52	-6.978429e-08
32	0x350c9244	5.236691e-07
33	0x36a7fb85	5.0062686e-06
34	0x350c9234	5.236682e-07
35	0x350c9247	5.2366926e-07
36	0x350c923a	5.236685e-07
37	0x37d2ed18	2.5144356e-05
38	0xb8ff8ee8	-0.00012185966
39	0x350c9237	5.2366835e-07
40	0xb7297383	-1.010008e-05
41	0x350c9237	5.2366835e-07
42	0x364c7226	3.0464812e-06
43	0x36cf0f4f	6.170863e-06
44	0x3661b97b	3.3635577e-06
45	0x371aecdf	9.234266e-06
46	0x350c9241	5.236689e-07
47	0xb687f9ca	-4.052393e-06
48	0xb44c09d7	-1.900256e-07
49	0x363feceb	2.8599122e-06
50	0xb44c09bf	-1.9002526e-07
51	0xb44c09ee	-1.9002593e-07
52	0xb44c09c7	-1.9002537e-07
53	0xb891eae0	-6.957888e-05
54	0x389e30e6	7.543135e-05
55	0xb44c09d8	-1.9002562e-07
56	0x370c7eea	8.3742e-06
57	0xb44c09cc	-1.9002545e-07
58	0xb57bd2e9	-9.38117e-07
59	0xb5c3062c	-1.4530428e-06
60	0xb5beb188	-1.4207772e-06
61	0xb6481192	-2.981255e-06
62	0xb44c09ed	-1.9002592e-07
63	0x36e941bb	6.951593e-06
64	0x37a2e118	1.9416722e-05
65	0x39c2ce58	0.00037156302
66	0x37a2e0f9	1.9416666e-05
67	0x37a2e0ee	1.9416646e-05
68	0x37a2e101	1.941668e-05
69	0x390e8dd1	0.00013595006
70	0xbbd868e9	-0.006604303
71	0x37a2e112	1.9416711e-05
72	0x399e120a	0.0003014955
73	0x37a2e10a	1.9416697e-05
74	0x39301b2b	0.00016794789
75	0x39fce442	0.0004823525
76	0x39190524	0.00014593132
77	0x39f036b8	0.00045817136
78	0x37a2e0e4	1.9416628e-05
79	0x39cddeba	0.0003926659
80	0x33a86050	7.840629e-08
81	0xb72fd270	-1.0479809e-05
82	0x33a85ff7	7.8405655e-08
83	0x33a8608c	7.8406714e-08
84	0x33a85fe3	7.840551e-08
85	0x391762bd	0.00014437265
86	0xb8a1b72a	-7.711195e-05
87	0x33a86019	7.84059e-08
88	0xb770aa74	-1.43448015e-05
89	0x33a86069	7.8406465e-08
90	0x34b8c0a6	3.441284e-07
91	0xb6010730	-1.9226682e-06
92	0x356b05c2	8.75527e-07
93	0x35ed16cb	1.766451e-06
94	0x33a86089	7.840669e-08
95	0xb7826d71	-1.554817e-05
96	0x3601a77c	1.9319987e-06
97	0x38066bb4	3.2048396e-05
98	0x3601a76b	1.9319948e-06
99	0x3601a773	1.9319966e-06
100	0x3601a796	1.9320046e-06
101	0x38007c1c	3.0633164e-05
102	0xba392101	-0.0007062108
103	0x3601a791	1.9320034e-06
104	0x37f485a3	2.9149296e-05
105	0x3601a77c	1.9319987e-06
106	0x371fb7be	9.519919e-06
107	0x381140e0	3.4631114e-05
108	0x3706c856	8.033667e-06
109	0x37977959	1.805711e-05
110	0x3601a77b	1.9319984e-06
111	0x3837d354	4.3827415e-05
112	0x34e4afed	4.2596312e-07
113	0xb7bef7ad	-2.2765098e-05
114	0x34e4b07a	4.2596713e-07
115	0x34e4b10b	4.2597125e-07
116	0x34e4aff6	4.2596338e-07
117	0x390a1b7d	0.00013170946
118	0x383014ea	4.1981148e-05
119	0x34e4b028	4.259648e-07
120	0xb7ff1f5c	-3.0412972e-05
121	0x34e4b071	4.2596687e-07
122	0x35300086	6.556587e-07
123	0xb725487e	-9.851645e-06
124	0xb5ea6d2f	-1.7466135e-06
125	0xb696e1b8	-4.4966255e-06
126	0x34e4b0bf	4.259691e-07
127	0xb81a2bdf	-3.675732e-05

exp_avg_sq f4 [8, 16]
0	0x2b402b68	6.827234e-13
1	0x3169fda4	3.405014e-09
2	0x2b402b5d	6.827228e-13
3	0x2b402b28	6.8271994e-13
4	0x2b402b61	6.8272303e-13
5	0x34579701	2.007837e-07
6	0x350e543d	5.3021705e-07
7	0x2b402b86	6.8272504e-13
8	0x31b37d51	5.2238325e-09
9	0x2b402b72	6.8272395e-13
10	0x2f2864eb	1.5315364e-10
11	0x31108842	2.1032212e-09
12	0x2f10ef29	1.318169e-10
13	0x310a8caf	2.0161612e-09
14	0x2b402b58	6.8272254e-13
15	0x31d5557e	6.2088352e-09
16	0x27c25fc5	5.394965e-15
17	0x2d5c3e65	1.25194065e-11
18	0x27c25fba	5.3949604e-15
19	0x27c25fb8	5.3949595e-15
20	0x27c25fc5	5.394965e-15
21	0x2f247f8d	1.4961028e-10
22	0x30f26c6a	1.7638631e-09
23	0x27c25fcc	5.394968e-15
24	0x2deda4f4	2.7017034e-11
25	0x27c25fc5	5.394965e-15
26	0x2b10ee58	5.1489845e-13
27	0x2d2ff1f9	1.0001327e-11
28	0x2ac5fecf	3.517104e-13
29	0x2d54545b	1.20695355e-11
30	0x27c25fc9	5.3949667e-15
31	0x2dd4e78d	2.4204439e-11
32	0x2b3efdff	6.785405e-13
33	0x31641e43	3.3195569e-09
34	0x2b3efe09	6.7854104e-13
35	0x2b3efdfc	6.7854034e-13
36	0x2b3efe17	6.785418e-13
37	0x341c3a9d	1.4549956e-07
38	0x34b6c6f8	3.404491e-07
39	0x2b3efe14	6.7854164e-13
40	0x31a8ca4a	4.912441e-09
41	0x2b3efe04	6.785408e-13
42	0x2f0a7d51	1.2595548e-10
43	0x310f559b	2.08579e-09
44	0x2eca226f	9.192013e-11
45	0x30e7fdb7	1.6879572e-09
46	0x2b3efe20	6.785423e-13
47	0x31c56077	5.7444214e-09
48	0x2ba51dc5	1.1732218e-12
49	0x31c13e1d	5.6241007e-09
50	0x2ba51dbe	1.173221e-12
51	0x2ba51db8	1.1732204e-12
52	0x2ba51dc8	1.1732221e-12
53	0x349dce67	2.9393706e-07
54	0x3538b4e6	6.8808583e-07
55	0x2ba51dd1	1.1732231e-12
56	0x32117823	8.467427e-09
57	0x2ba51dbe	1.173221e-12
58	0x2f6e95b3	2.1699158e-10
59	0x31601d29	3.2612866e-09
60	0x2f488ac8	1.8239199e-10
61	0x314c88f5	2.9763758e-09
62	0x2ba51dbb	1.1732207e-12
63	0x322b6506	9.97648e-09
64	0x328b966d	1.6250135e-08
65	0x38151911	3.5547713e-05
66	0x328b9671	1.6250143e-08
67	0x328b9670	1.625014e-08
68	0x328b967a	1.6250159e-08
69	0x3823abb6	3.9022147e-05
70	0x3bff5d22	0.0077930847
71	0x328b9670	1.625014e-08
72	0x3847ee4d	4.7667232e-05
73	0x328b9665	1.6250121e-08
74	0x363b3bc3	2.7899957e-06
75	0x381c21f6	3.7224927e-05
76	0x361b4810	2.3138746e-06
77	0x37f79324	2.9513212e-05
78	0x328b9676	1.6250151e-08
79	0x38648b3b	5.4489105e-05
80	0x2b2fa664	6.2403403e-13
81	0x31554aa9	3.1038019e-09
82	0x2b2fa66e	6.2403457e-13
83	0x2b2fa65b	6.2403354e-13
84	0x2b2fa66c	6.2403446e-13
85	0x340eaf1f	1.3288489e-07
86	0x3491a6cc	2.7129715e-07
87	0x2b2fa667	6.240342e-13
88	0x31a569e9	4.8141726e-09
89	0x2b2fa667	6.240342e-13
90	0x2eeef384	1.0866244e-10
91	0x3101a416	1.8865243e-09
92	0x2ea91add	7.690002e-11
93	0x30d08be2	1.5173749e-09
94	0x2b2fa66f	6.240346e-13
95	0x31ba5792	5.423268e-09
96	0x2f25c80b	1.5077732e-10
97	0x33bb6b5a	8.727393e-08
98	0x2f25c7f9	1.5077707e-10
99	0x2f25c801	1.5077718e-10
100	0x2f25c806	1.5077725e-10
101	0x3394cc02	6.928896e-08
102	0x383bbf2b	4.4762313e-05
103	0x2f25c803	1.5077721e-10
104	0x33d8a02b	1.0087418e-07
105	0x2f25c800	1.5077717e-10
106	0x32fa4b9e	2.9138217e-08
107	0x33d1cd0d	9.7696194e-08
108	0x333790e2	4.2739778e-08
109	0x33b29c7b	8.3172345e-08
110	0x2f25c802	1.507772e-10
111	0x33fed970	1.1867348e-07
112	0x2dbad90e	2.1242143e-11
113	0x33a64e23	7.7441904e-08
114	0x2dbad8fe	2.1242116e-11
115	0x2dbad908	2.1242133e-11
116	0x2dbad907	2.1242131e-11
117	0x361956fe	2.2849413e-06
118	0x36a43b45	4.8944808e-06
119	0x2dbad90c	2.124214e-11
120	0x33ae2c89	8.110607e-08
121	0x2dbad906	2.124213e-11
122	0x31349242	2.6276585e-09
123	0x3344e978	4.5847145e-08
124	0x30bd932a	1.3793386e-09
125	0x329e15a4	1.8403462e-08
126	0x2dbad90b	2.1242138e-11
127	0x33e50478	1.0664456e-07

exp_avg f4 [8]
0	0xb72f72ca	-1.0457539e-05
1	0x35ea1afc	1.7442212e-06
2	0x38c0a6d1	9.1863454e-05
3	0xb8e95341	-0.00011125813
4	0xbb0b781c	-0.0021281308
5	0x395704e4	0.0002050582
6	0xb991c4c2	-0.0002780315
7	0x394489d6	0.00018743364

exp_avg_sq f4 [8]
0	0x35560a76	7.9736435e-07
1	0x319052fb	4.2003854e-09
2	0x353501a2	6.743013e-07
3	0x35a31368	1.2150094e-06
4	0x3b227091	0.0024786333
5	0x35239b39	6.094811e-07
6	0x36b41985	5.367389e-06
7	0x36a228f1	4.8327424e-06

exp_avg f4 [1, 8]
0	0xb92e3631	-0.00016614121
1	0xb9acae2e	-0.0003293617
2	0x3a98ad1c	0.001164827
3	0xb95c4b2c	-0.00021008839
4	0xbc8d7105	-0.017265806
5	0x3822e268	3.8834667e-05
6	0x3a12a149	0.00055934914
7	0xbb999a7b	-0.004687605

exp_avg_sq f4 [1, 8]
0	0x36da25fa	6.5013273e-06
1	0x37aadef8	2.0369407e-05
2	0x36d8b307	6.458143e-06
3	0x36b08e14	5.261749e-06
4	0x3cb73d3c	0.022368066
5	0x369eda25	4.7341623e-06
6	0x395057b0	0.00019869092
7	0x3b8c6f91	0.0042857607
