FinishedEmulators/unscreened_fofr_nonlin_Pk/version_4/checkpoints/epoch=265-step=21769440.ckpt (torch, 16517 bytes, 20 tensors)

hidden_layers.0.weight f4 [16, 7]
00000000: eeb9 803f 0c3b 91bf a24c 803e c428 4b3d
00000010: 0b9e 133e 9e00 97be 0ce2 f03f be51 2fbf
00000020: ad87 ad3e 3056 4fbe db5a 893a 3b49 de3d
00000030: 3f7b 2fbf fce1 70bf ecc2 143f fe90 16bf
00000040: 1013 26bd f47a 86bb 379c 75bd d3fd 6ebf
00000050: d1f6 3dbf f01b f6be 3658 a53e a3b8 92be
00000060: 6d8b 89bd f657 17be b00e e6be 9f67 f53e
00000070: 99fb d03f 28ad e1be ab83 923c cc95 173d
00000080: 8138 bd3d 4bf5 05bf 2cea 883d 7f23 813e
00000090: 604d 26bf 4676 23be c7cc 5fbd dc85 2b3f
000000a0: 7709 08bf 297a d53f 2dd8 19bf ff3a a63f
000000b0: 6cef 5fbf 75a3 a1be 20ef 35be 7bf7 aa3d
000000c0: 7e1c 32be 31d4 30bf 6b4b febf 3973 bb3d
000000d0: fe02 673b c02b 7fbe e42e dcbf 80ab cdbe
000000e0: 1788 8a3f 078e 53bf 2ffd aebd 8d4d b6bc
000000f0: 5d08 03be 2c7b 09bf ed6f 7b3f 1592 383f
00000100: d075 553e 9963 c33a 295d a23b 2a68 85be
00000110: 4251 ddbd abad e83f a060 9a3f 128e 0dbf
00000120: e1e4 ebbd 1e8c 04bd 394b 873e 282c 73bf
00000130: 7f07 ff3f b2b7 463f 27b1 163f 9d39 153e
00000140: 31c2 5e3d ea52 313e 2d03 2cbf 8964 183f
00000150: 58a2 97bf 9864 133f 5217 793e c3f3 da3d
00000160: 96ac afbe 9190 883e 35a1 4abf c936 a33f
00000170: a729 cb3f d17c fe3e 7e92 373e 4650 ccbe
00000180: 6f01 063e 5b0f febe 3cf1 3b3e e149 9bbe
00000190: 7c76 223e 115d 3b3d a7fb b5be a6ce 89be
000001a0: 5552 b2bd 1154 223f 3a08 353f 91b6 95be
000001b0: c48e 99bd f75e a63e 5b63 02bf dc56 cd3f
1.0056741 -1.1346145 0.25058466 0.049599424 0.14415757 -0.29492658 1.8818984 -0.68484104
0.33892575 -0.20247722 0.0010479348 0.10853811 -0.68547434 -0.94094825 0.5810993 -0.5881499
-0.040545523 -0.0041040126 -0.05996343 -0.93356055 -0.74204737 -0.4806819 0.32293862 -0.28656492
-0.067160465 -0.14779648 -0.4493308 0.4793062 1.6326782 -0.4407742 0.01788505 0.03700809
0.09239293 -0.5232741 0.0668529 0.25222394 -0.64961815 -0.15963086 -0.05463865 0.6700113
-0.5313944 1.6677905 -0.60095483 1.2986754 -0.87474704 -0.3157002 -0.17767 0.083479844
-0.17393681 -0.6907378 -1.9866766 0.09152836 0.0035249586 -0.24919033 -1.720181 -0.40169907
1.0822781 -0.8263859 -0.08544385 -0.022253776 -0.12796159 -0.5370357 0.9821766 0.72097903
0.20845723 0.0014907002 0.004954953 -0.26056033 -0.10806514 1.8177999 1.2060738 -0.5529491
-0.115182646 -0.03236019 0.26424578 -0.9498925 1.9924163 0.77624047 0.58864063 0.14572759
0.054384414 0.17316785 -0.67192346 0.59528404 -1.1846418 0.5757537 0.24325302 0.10691025
-0.3431136 0.26672795 -0.7915223 1.2751094 1.5872086 0.49704602 0.17926976 -0.39904994
0.13086484 -0.4962109 0.18353742 -0.30329803 0.1586551 0.045743052 -0.35543558 -0.26915473
-0.0870711 0.63409525 0.7071568 -0.2924085 -0.074979335 0.32494327 -0.50932854 1.6042132

hidden_layers.0.bias f4 [16]
00000000: 1b0f 933e f499 153f c051 66bf f04d 933e
00000010: beba eabe 8201 7740 20d2 9abf c6a3 02c0
00000020: 1dae 89bf 7d49 77c0 ab1a 3f3e 0567 d33f
00000030: b84c 0bbf 1461 e9be cf97 07bf 6913 343f
0.28722462 0.5843804 -0.8996849 0.287704 -0.45845598 3.859467 -1.2095375 -2.041246
-1.075626 -3.8638604 0.18662517 1.6515814 -0.5441394 -0.45581877 -0.52966017 0.7034212

hidden_layers.1.weight f4 [8, 16]
00000000: 8bd8 153f e425 e6bd dbe9 bb3e 2119 663b
00000010: 2d2c 1ebf b6f6 76bf fe7c 76bb f64b b53f
00000020: d555 a63d ee84 7dbf f999 b7be f485 a53e
00000030: 7c03 7c3c b841 bbbc 38fc 9d3c 8fa9 843f
00000040: 234c 023f e257 553e 4f55 7bbe 6271 a9be
00000050: 0818 41be 7cff e13d 86f0 dcbe aae6 333d
00000060: e5b5 0dbe 801d fb3d ed23 8cbf 6804 a83d
00000070: 6852 01be c47d 41bf e9ae 45bf 3a1d 7cbd
00000080: a024 b4be 86f9 803f 39ff 95bf bc0d 57bd
00000090: fcbb 99be 2295 19bf 45d0 c9be c1e4 f03e
000000a0: 484c df3d 83a2 813e 106c 313e 73e1 923f
000000b0: 9e19 82bf aca1 97bf e3f6 1d3f 8b06 50be
000000c0: dac3 533e fcd4 bbbd 2ed9 263e d6f3 9e3d
000000d0: 7192 17bf f3f5 2e3f 1212 0bbc 6eb0 113e
000000e0: 7778 0abd cdeb c0be 1c69 12bf 5849 383e
000000f0: 670c 2e3c 1ee8 04bd c314 74bd 384a 10bf
00000100: 048b a139 4a2f 9c39 87d1 0d39 1820 96b9
00000110: b867 0338 4fb0 9639 766f 9039 3801 f5b4
00000120: bfff 6738 042d 2c39 5d74 4eb9 9a37 a4b9
00000130: 4fed 27b9 56e3 96b7 7f51 9439 ca7f 6d38
00000140: 3877 b0be 61b2 6e3e bf94 c1be 7db1 aa3e
00000150: ad9a 923e 0722 62bf c74e 06bf 25c0 563f
00000160: aec2 aebf 545c 163f 1f2a 79bf feb9 3a3f
00000170: 327a 7fbe 7a66 6bbf 23ef b2be 17f5 9b3e
00000180: feff 5e3e 543e 6bbc b574 0fbd 7302 523d
00000190: c273 26bd e813 75bd 7601 2ebb f28a bfbe
000001a0: cbc2 c23c 602f 54be 22bd 6e3d 795e 64bd
000001b0: ed78 61bb cfee a9b9 8a27 f7bc 46be 0cbe
000001c0: 2a96 fabe 0f25 36be 76c1 cbbe 66c3 0c3f
000001d0: 6e7d 123f 9689 873c 27b4 58bf 9138 c43e
000001e0: 2d2c 2abf d92c 7abf fa56 06bf fded 74bf
000001f0: d229 38bf d87c 59bf 57d2 443e 5849 4c3e
0.58533543 -0.11237696 0.36701855 0.0035110193 -0.61786157 -0.964702 -0.0037611122 1.4163806
0.0812184 -0.9903096 -0.3585966 0.3232876 0.01538169 -0.022858486 0.019285306 1.0364245
0.50897425 0.20834306 -0.24544261 -0.33094317 -0.18856823 0.11035058 -0.43152255 0.04392115
-0.13838919 0.12261486 -1.0948464 0.082039654 -0.12629092 -0.7558253 -0.77220017 -0.06155131
-0.35184193 1.0076149 -1.1718513 -0.052503332 -0.30026233 -0.59993184 -0.3941671 0.47049525
0.10903221 0.253193 0.17326379 1.1475052 -1.0164068 -1.1846213 0.61704844 -0.20314996
0.2068018 -0.09171483 0.16293785 0.07761352 -0.59207827 0.6834404 -0.008488195 0.14227459
-0.03380629 -0.37679902 -0.57191634 0.17996728 0.010623074 -0.032447927 -0.059590112 -0.5636325
0.00030811888 0.00029789872 0.00013524863 -0.0002863414 3.132943e-05 0.0002874159 0.00027548865 -4.5635693e-07
5.5312874e-05 0.00016419968 -0.0001968904 -0.00031321944 -0.00016014765 -1.7987255e-05 0.0002828948 5.6624216e-05
-0.34465957 0.23310234 -0.37808797 0.33338538 0.28633633 -0.8833317 -0.52463955 0.8388694
-1.3653162 0.5873463 -0.97329897 0.7294005 -0.24948958 -0.9195324 -0.34948072 0.30460426
0.21777341 -0.014358122 -0.03502341 0.051271867 -0.04063774 -0.059833437 -0.0026551164 -0.37410694
0.023774525 -0.20721197 0.05828584 -0.05575416 -0.0034404353 -0.00032412118 -0.03017022 -0.13744459
-0.4894269 -0.17787574 -0.39796036 0.54985654 0.5722264 0.016545098 -0.8464989 0.38324407
-0.66473657 -0.9772468 -0.52476466 -0.9567564 -0.7193881 -0.8495612 0.19220863 0.19949853

hidden_layers.1.bias f4 [8]
00000000: d7d4 3bbf 34a6 91be 1117 06bf d1ed 02bf
00000010: 2435 f7b8 b9ca 193f 2add 3bbc 2d62 af3e
-0.7337164 -0.28447115 -0.52378947 -0.5114413 -0.00011787776 0.60074955 -0.011466304 0.3425459

output_layer.weight f4 [1, 8]
00000000: d4ee 683f b1af 473f 2fa7 e4bf 863a 363e
00000010: 47f6 35b8 dee0 87bf 1e71 36bd 9c50 03c0
0.9098942 0.7800246 -1.786352 0.17795762 -4.3383126e-05 -1.0615499 -0.04454147 -2.051795

hidden_layers.0.weight f4 [16, 7]
00000000: 0e11 603a 4d57 88ba 451e d739 0d9b e1b9
00000010: b64c e83a b47a 4bba 3a3c cfb9 6efa 5fba
00000020: bd07 a23a 945f 953a e0d2 953a 6ffe 873a
00000030: 9c44 023b 0096 2c3a 07b6 8f39 04d6 603a
00000040: 6882 973a dcd3 4bba 961d 02b6 7c15 bfb9
00000050: bd68 003a 65e3 d939 9573 e23a e0d5 a43a
00000060: 33ee 9aba eb5c 913a bb16 b1b9 e265 a2ba
00000070: 0b9a abb9 5f93 863a a2ff a1b9 b773 013a
00000080: 1a35 ab3a 66bf d439 9280 06ba 9ff9 afba
00000090: 5f9c 04ba 6534 603a a151 a43a 44ef 90ba
000000a0: 8b27 d0b7 a378 e9b9 ad92 af38 cd24 db39
000000b0: c7a2 c939 c6d7 b73a 3b04 0bbb 1224 0438
000000c0: 8a17 ca3a 4f11 1b3a 6e4f 27bb f0fd 203a
000000d0: 2d5a adb8 1a11 8c39 f5bd ff38 56a4 d1b9
000000e0: 6bf1 01ba af6b 09bb 3d0e 4bba 789a 3fb8
000000f0: b5fb 4bba 4523 423a 5722 2db8 da8c ca3a
00000100: bc37 56ba 4eef 253a 3b83 7439 5297 a33a
00000110: 52cb 013a 3bab 983a 1f50 833a b40f 593a
00000120: e024 823a 18e1 53ba 2271 0d3a 20b6 0eba
00000130: ccca 8aba 3eaf daba e057 73ba f61a 9839
00000140: 3a98 bf39 fc51 283a 92b3 b93a 5156 3f39
00000150: 751a ed3a 67df 323b 06ca 113b 799b b0b9
00000160: 0acb 23b9 b1ff 94b9 c3b1 1039 f105 34b9
00000170: 3bc4 e3b9 6b78 cdb9 9ead cc3a 92ed 4739
00000180: 289f 44ba cd74 6dba 89db 90ba 6435 2eba
00000190: 7461 cdb9 dc96 6bb9 bb17 eaba e960 1c39
000001a0: a0a0 9f3a d1fe a2ba d8fe 453a 3afb d3ba
000001b0: eb06 c43a 2325 1039 4c96 8bb9 9e66 05ba
0.0008547463 -0.0010401994 0.00041030548 -0.00043030866 0.0017723057 -0.00077621196 -0.0003952699 -0.0008544092
0.0012361925 0.0011396282 0.0011430643 0.001037551 0.001987732 0.0006583631 0.00027410706 0.00085768127
0.001155925 -0.0007775405 -1.938873e-06 -0.00036446366 0.000489842 0.00041558887 0.0017276878 0.0012575947
-0.0011820256 0.0011090314 -0.00033777006 -0.0012389983 -0.00032730433 0.0010267309 -0.00030898774 0.00049382023
0.001306209 0.00040578394 -0.0005130853 -0.0013425833 -0.00050587015 0.0008552729 0.0012536534 -0.0011057635
-2.4813946e-05 -0.00044531105 8.371971e-05 0.00041798354 0.00038458986 0.0014026097 -0.0021212238 3.1504846e-05
0.0015418392 0.000591536 -0.0025529522 0.0006141355 -8.2660794e-05 0.00026715623 0.0001219473 -0.00039986026
-0.00049569336 -0.0020968725 -0.0007745957 -4.568181e-05 -0.0007781343 0.0007405768 -4.1278396e-05 0.0015453354
-0.0008171757 0.00063299097 0.0002331854 0.001248101 0.00049512566 0.001164771 0.0010018385 0.0008280233
0.0009929202 -0.0008082553 0.0005395581 -0.0005444009 -0.0010589003 -0.0016684306 -0.0009282809 0.00029011787
0.00036543777 0.0006420908 0.0014167896 0.00018247335 0.001808955 0.0027293803 0.002224566 -0.00033685172
-0.0001562053 -0.00028419265 0.00013799132 -0.00017168351 -0.00043443017 -0.00039190365 0.0015615707 0.00019066621
-0.0007500523 -0.0009058237 -0.0011051755 -0.0006645529 -0.00039173255 -0.00022467546 -0.0017859855 0.00014913421
0.0012178607 -0.001243556 0.00075529283 -0.0016172894 0.0014955675 0.00013746745 -0.00026624126 -0.00050888385

hidden_layers.0.bias f4 [16]
00000000: 0000 0000 0000 0000 0000 0000 0000 0000
00000010: 0000 0000 0000 0000 0000 0000 0000 0000
00000020: 0000 0000 0000 0000 0000 0000 0000 0000
00000030: 0000 0000 0000 0000 0000 0000 0000 0000
0.0 0.0 0.0 0.0 0.0 0.0 0.0 0.0
0.0 0.0 0.0 0.0 0.0 0.0 0.0 0.0

hidden_layers.1.weight f4 [8, 16]
00000000: b257 17ba c384 6ab9 b7c6 5dba dc27 e5ba
00000010: 5a92 b8ba f24c bfba dd2a 40b9 12d8 00bb
00000020: 20ed 93ba 20e4 0d3a d836 963a 60b9 153a
00000030: 4666 543a 96fc 83b9 52b5 4739 b4f7 0eba
00000040: 9a2a 8db9 1658 c938 a917 41ba ae33 16ba
00000050: 4ae5 b23a c919 9c3a c101 42ba f60a 9d3a
00000060: 7533 c739 589e a0b9 aa18 94b9 3372 52b8
00000070: 2399 45bb 3221 7fba 1652 b739 c3c8 f3ba
00000080: 1f23 53ba a9b0 803a 58ab a9b9 21ea 8dba
00000090: f292 d9b9 9038 e939 5845 b23a 4de7 173a
000000a0: 5a6b 17ba adf4 59ba 89bf b439 f2e1 373a
000000b0: feb4 743a 1d54 d4ba 3409 9aba 740b 7bb9
000000c0: d89d 883a 57c2 4bb8 513f 02bb aff2 99ba
000000d0: 85f6 de39 224b 9c39 a8d5 45ba af92 f6b9
000000e0: f8e4 203a 9224 cfb9 ea54 dfba ad7d b238
000000f0: 1333 15ba 10a5 e53a 04b7 793a 666e 903a
00000100: c727 b13a 0d9c cf39 4030 6e3a 9367 d839
00000110: abb1 9b3a d2fc 1839 2ffa 7fb8 cc4f a9b8
00000120: dbe2 4b39 7633 84ba bd82 dfb9 1473 e03a
00000130: 31bb cfba 011c bfb9 5951 6a39 98fb 13ba
00000140: fb9e f738 c9ee 1a3a 62cc 903a 63a6 7139
00000150: 7d93 a1b9 3e0c f1b9 dc97 8b38 3f31 9438
00000160: 9398 afba 9919 80ba 1a7d cb3a 779c c2ba
00000170: 2f87 01bb 7b81 2639 336a 80ba 211f b9b8
00000180: 702b 3d3a 350c 1aba 0cc1 74ba c7a8 1d39
00000190: a0b7 11ba 1a33 b8b9 b5dc 153a 99f8 2c39
000001a0: 8bae 2937 b384 733a e3e1 3239 56f8 05b9
000001b0: eb5e 8cb8 8de7 5639 365e ffb9 ad57 9cb9
000001c0: 8a6f c2b9 ac3f 56b9 d3f4 3c3a 8c2d a43a
000001d0: 8c1b 93ba 9d52 29b9 a911 bd3a 113a 973a
000001e0: 1e86 7cba 4087 cb38 eb1f 183b 254b 61b9
000001f0: e10d 6eba 0370 bb38 5761 aaba 2f26 373a
-0.00057732605 -0.00022365437 -0.0008460092 -0.0017483192 -0.0014081702 -0.0014595075 -0.00018326515 -0.0019660038
-0.0011285879 0.00054127164 0.0011460437 0.0005711522 0.0008102398 -0.00025174458 0.00019045666 -0.0005453781
-0.00026925356 9.600834e-05 -0.00073658914 -0.0005729747 0.0013648656 0.001190954 -0.0007400774 0.0011981416
0.00037994576 -0.00030635553 -0.00028247136 -5.0174258e-05 -0.003015109 -0.00097324245 0.0003496564 -0.001859926
-0.00080542447 0.0009818274 -0.00032361853 -0.0010827222 -0.00041498948 0.00044483365 0.0013600988 0.00057946594
-0.00057761895 -0.00083143526 0.0003447498 0.00070145645 0.0009334831 -0.0016199384 -0.001175201 -0.00023941492
0.0010423018 -4.8579965e-05 -0.0019874165 -0.0011745299 0.0004252681 0.00029810617 -0.0007546791 -0.00047030064
0.00061376346 -0.00039509364 -0.0017038856 8.51111e-05 -0.00056915096 0.0017520506 0.00095258676 0.001101923
0.0013515883 0.00039598384 0.00090861693 0.000412759 0.0011878511 0.00014590033 -6.102974e-05 -8.073411e-05
0.00019444099 -0.0010086137 -0.00042631282 0.001712414 -0.0015848634 -0.00036451223 0.00022346283 -0.00056450954
0.0001180749 0.00059102156 0.0011047239 0.00023045535 -0.000308182 -0.00045976223 6.6563225e-05 7.066363e-05
-0.0013396911 -0.0009773254 0.0015524954 -0.0014847656 -0.0019764414 0.00015879229 -0.0009797275 -8.827286e-05
0.00072162505 -0.0005876453 -0.00093366276 0.00015035561 -0.00055586733 -0.00035133288 0.0005716787 0.00016495808
1.0113824e-05 0.0009289488 0.00017059552 -0.00012776381 -6.6934e-05 0.0002049489 -0.00048707583 -0.00029819962
-0.00037085667 -0.0002043235 0.00072081125 0.0012525781 -0.001122342 -0.00016147872 0.0014424819 0.0011537691
-0.0009633022 9.7049866e-05 0.0023212384 -0.00021485666 -0.00090810476 8.937719e-05 -0.001299898 0.0006986586

hidden_layers.1.bias f4 [8]
00000000: 0000 0000 0000 0000 0000 0000 0000 0000
00000010: 0000 0000 0000 0000 0000 0000 0000 0000
0.0 0.0 0.0 0.0 0.0 0.0 0.0 0.0

output_layer.weight f4 [1, 8]
00000000: 4c9d 6c3a e71d 88b9 d38d a4ba 25f4 7a3a
00000010: 52b3 1c3a 0dbf 28b9 e336 933a af55 d0b9
0.00090261246 -0.0002596222 -0.0012554474 0.00095731235 0.00059776485 -0.000160929 0.0011231567 -0.0003973669

exp_avg f4 [16, 7]
00000000: 417a 0ebb 190c 3aba 3a93 033b 3d7c 783a
00000010: 4058 943c ed72 0bbb 826a 00bb 04c7 06b9
00000020: 33f1 36b8 a926 8f39 0ff4 34b9 539e 8d3a
00000030: 9595 54b8 b264 10b9 9ad6 6939 7abb a738
00000040: f849 cfb9 1969 2439 b976 14bb ccd5 1439
00000050: 6847 7b39 d6cf b837 cd86 8837 a43e 6fb8
00000060: c15d 24ba a943 8038 e9a5 263a c73e a037
00000070: 3c61 903a 925e a639 7227 62ba eb55 f4b9
00000080: db46 0dbc e985 6339 a543 383a 3361 223b
00000090: 4713 563a 81ab 09bb 7eac 2eba 1e59 9cbc
000000a0: 76d7 a23a 9ea4 ea3a a617 05ba e161 24b9
000000b0: 91a9 183a 6ff0 933a 02ac c53a bfe6 37bb
000000c0: 85de 2c39 30bb 7939 906d 8738 57d5 8eb9
000000d0: b7ac 91b7 7c42 f3ba f5ea 0539 d4d9 2739
000000e0: f0ea 2438 d994 3737 eab5 12b9 a358 3c3a
000000f0: 9e64 0f3a bd43 93b8 6694 95b9 5f46 a73a
00000100: 2573 d339 6536 a6ba 8c71 c8b9 a626 2dbc
00000110: d5bc d33a 2080 6c3a efe9 933a 6c0c a639
00000120: 0fb6 5dba cc09 cab8 4975 fcbb 4389 9139
00000130: 950d 7039 573f 25bb 7e32 52ba 4c52 343b
00000140: e331 95b9 ea6b ac3c bc06 c9ba 6141 02bb
00000150: 64ef 4e39 4b32 8138 eae7 98b9 89be 563a
00000160: f953 3cbb 5b2f 02bb e26c bf39 7983 dc39
00000170: 97ec 1c39 38ac 34ba b018 0a3b dd09 c3bb
00000180: 364a 67bb 3a15 2b3a b2b3 6aba cd72 8cb9
00000190: 4a49 6b3a daa1 1cb9 e4be c53b f2b8 74b9
000001a0: 6644 44b8 971c 13bb 7cb2 3aba bd4f d83a
000001b0: a5fd ac3a 9181 903c a115 d2ba 96bf eaba
-0.002174035 -0.00070971396 0.0020076768 0.0009478962 0.018108487 -0.0021278218 -0.0019594734 -0.00012853375
-4.3616816e-05 0.0002730389 -0.00017257057 0.0010804631 -5.0684048e-05 -0.00013770422 0.00022300557 7.998101e-05
-0.00039537228 0.0001567941 -0.0022653772 0.00014194025 0.00023963826 2.203129e-05 1.6275235e-05 -5.704038e-05
-0.0006270074 6.116118e-05 0.000635712 1.910272e-05 0.0011015306 0.00031732448 -0.00086270936 -0.0004660332
-0.00862285 0.00021698292 0.0007029123 0.0024777174 0.00081663247 -0.0021006765 -0.00066632766 -0.019085463
0.0012423832 0.0017901843 -0.0005077071 -0.00015676722 0.0005823607 0.0011286865 0.001508117 -0.002806112
0.00016486093 0.00023816223 6.457709e-05 -0.000272433 -1.7365774e-05 -0.0018559243 0.00012771397 0.00016007508
3.931945e-05 1.0942306e-05 -0.00013991413 0.0007184839 0.000547001 -7.0221235e-05 -0.0002853006 0.0012762061
0.00040330846 -0.0012681006 -0.00038231572 -0.010568297 0.0016154299 0.00090217777 0.0011284928 0.00031671242
-0.000845761 -9.6339354e-05 -0.007704411 0.00027758823 0.00022893243 -0.0025214755 -0.0008018388 0.0027514873
-0.00028456663 0.021047551 -0.001533709 -0.0019875395 0.00019734871 6.160567e-05 -0.0002916449 0.0008191844
-0.0028736575 -0.0019864652 0.00036511483 0.00042059625 0.00014965456 -0.00068921177 0.0021071844 -0.0059521035
-0.0035292036 0.00065262953 -0.0008953168 -0.00026788414 0.00089754595 -0.00014937614 0.006034719 -0.00023338551
-4.6793743e-05 -0.002244746 -0.0007121933 0.0016503256 0.001319815 0.017639907 -0.0016028174 -0.001790988

exp_avg_sq f4 [16, 7]
00000000: 5628 0538 35d3 6436 bb83 3f38 7bd1 e436
00000010: fee9 ef3a 1111 1038 c4b9 9437 eaef 1136
00000020: ea47 8934 b9dd 7d36 292c 2135 e99a 9038
00000030: e2a2 1334 d766 9735 d881 6136 2e84 b834
00000040: 66c5 b036 d6a9 6c35 0a68 de38 e2c5 ba34
00000050: 5739 d035 004b 7537 0052 e635 77f0 da37
00000060: 0136 8536 6dd0 123a bc4a cb37 ce52 8636
00000070: a05e 9237 5678 ec35 6f84 c137 92cf 6a36
00000080: 027c 7c3a 15d0 8836 8730 0c37 8ce7 8438
00000090: 6c22 e836 8ca3 c038 cb11 7137 8020 6c3b
000000a0: 8cfe f037 926b 2438 99e8 1538 998d 8d36
000000b0: b0cc 8a38 03ed 2037 015d b73a e7a8 a438
000000c0: 7d11 3337 7271 a435 d214 0f34 7e6e f635
000000d0: a8c0 9534 321e b838 5dc1 9e33 b360 3c35
000000e0: 70e0 8e37 71fc fc35 e211 ea37 9d68 9436
000000f0: 7bb1 333a 18a7 5b37 2250 4c36 0d6b 4537
00000100: ee1b a735 9d13 8737 fe2d 2236 626a 613a
00000110: 9d00 f236 cfe9 1437 36d5 4237 a1d6 b135
00000120: d13a 9437 0a3f 3d36 d9d7 213a 4d68 a936
00000130: 5612 db36 1d1a a438 4a96 1137 a8cf f438
00000140: 44e5 9d37 09ae 813b ce51 b537 267c 2638
00000150: 171e ce37 6f19 4136 bbd6 3138 b42e de36
00000160: 3178 863a 9a98 3138 a7c0 f836 7565 2239
00000170: a15c 9337 8987 8939 8ee7 2e38 0641 c03b
00000180: b24a 3839 1875 4338 49ab 3437 9eb5 9a35
00000190: 2792 9137 2089 3e36 7b98 e439 77a2 6e36
000001a0: 9194 9c36 c391 5f38 0342 c336 a4a7 a138
000001b0: 8fb1 3f37 2f9c 4d3b fde1 be37 2002 0938
3.1747237e-05 3.4097586e-06 4.5660632e-05 6.8193162e-06 0.0018303988 3.434817e-05 1.7729479e-05 2.1746332e-06
2.5570563e-07 3.7828997e-06 6.0041435e-07 6.895309e-05 1.3749698e-07 1.1280307e-06 3.3603192e-06 3.4368844e-07
5.268189e-06 8.8163995e-07 0.00010605164 3.4789178e-07 1.5513896e-06 1.46206e-05 1.71602e-06 2.60996e-05
3.9699958e-06 0.0005600516 2.4234287e-05 4.003151e-06 1.744862e-05 1.7618393e-06 2.3069062e-05 3.498954e-06
0.0009631516 4.07734e-06 8.355949e-06 6.3373795e-05 6.918146e-06 9.1857364e-05 1.4368862e-05 0.0036030114
2.8728762e-05 3.920083e-05 3.574099e-05 4.2186116e-06 6.618479e-05 9.591927e-06 0.0013989509 7.85159e-05
1.0673303e-05 1.2251969e-06 1.3325487e-07 1.8360586e-06 2.789359e-07 8.779428e-05 7.392621e-08 7.0176173e-07
1.7032231e-05 1.8848933e-06 2.7903301e-05 4.4229223e-06 0.0006854755 1.3092322e-05 3.0445012e-06 1.176704e-05
1.2450598e-06 1.6102387e-05 2.4166652e-06 0.0008598921 7.2122334e-06 8.875925e-06 1.1612943e-05 1.3249993e-06
1.7670363e-05 2.8199888e-06 0.00061738264 5.0487347e-06 6.528843e-06 7.8249934e-05 8.677665e-06 0.00011673506
1.8822619e-05 0.003957514 2.1614975e-05 3.9693106e-05 2.4571125e-05 2.8774045e-06 4.2400072e-05 6.6215525e-06
0.0010259209 4.234221e-05 7.4134036e-06 0.0001548732 1.75669e-05 0.00026231658 4.1700485e-05 0.0058671264
0.00017575434 4.6600675e-05 1.07687165e-05 1.1526752e-06 1.7353404e-05 2.8392024e-06 0.00043601156 3.555933e-06
4.6664577e-06 5.3303094e-05 5.8191376e-06 7.708304e-05 1.1425828e-05 0.003137361 2.2754999e-05 3.2665324e-05

exp_avg f4 [16]
00000000: 4f30 29bb d2e3 5db9 545c b639 0c74 31b7
00000010: 5405 a03a 3806 413b 326d 00ba 4950 9c39
00000020: b4fc ec38 af9c c63a ac68 9e3a caf7 52bb
00000030: 0ebe b839 d9a1 533a b905 88ba e7d2 27bb
-0.0025816148 -0.00021161072 0.00034782535 -1.0577041e-05 0.0012208619 0.002945317 -0.0004899084 0.00029814456
0.000113004266 0.0015152897 0.0012085638 -0.003219115 0.00035236817 0.00080731284 -0.0010377682 -0.0025607885

exp_avg_sq f4 [16]
00000000: 0cdd 3f38 8c17 6336 d065 a236 69c4 c637
00000010: 95ea c137 c6be bb38 85cf 6f38 65b0 f735
00000020: 6932 da37 b806 8937 2eeb 8e37 0067 ee38
00000030: ed36 2738 9322 7d39 8ac5 8837 0580 9c38
4.5743815e-05 3.3839342e-06 4.8398288e-06 2.36949e-05 2.3116629e-05 8.952389e-05 5.7175308e-05 1.8454272e-06
2.60111e-05 1.6334801e-05 1.7037233e-05 0.000113679096 3.9867056e-05 0.0002414084 1.630445e-05 7.462505e-05

exp_avg f4 [8, 16]
00000000: 98c0 1cbb 23f1 c239 bb9c 173a 03ef acbb
00000010: bf3f 8739 f10f e5b8 3ade 19bb 9930 4c38
00000020: b96b 65bb b82b 3a3a b70b 89b9 e944 83bb
00000030: db21 1ebb 2b97 8ebc 0491 febb a935 85b9
00000040: b324 9ab8 ac6b ae37 38ba 36b6 7db5 07b8
00000050: 8ae8 5c38 8c46 00b9 db07 edb8 74ae 53b6
00000060: 43da a6b7 b40b ba37 5721 d0b8 b831 a937
00000070: a5c9 61b8 9f32 d8b9 9999 4137 e2b4 cab8
00000080: 4534 1d38 eb95 4e39 b140 8039 9367 a8ba
00000090: 4d2f 83b8 3e7b cfb9 d440 9eb9 b9c9 3c38
000000a0: 6950 f2b9 b200 ef38 2455 8c39 cbc8 d4ba
000000b0: ac1b 5eb9 eeb8 6dbb 16b9 dcba fac7 0539
000000c0: 15f7 cfb8 a213 d438 1210 4239 fd5f 14ba
000000d0: f53e dbb8 5612 1d39 324f 5b39 aa5f e536
000000e0: 751f d0b9 0090 5437 d0cf 5039 0a55 4aba
000000f0: 92d2 5e39 491c 98ba 46ea 64ba debf 8639
00000100: fe88 4c34 b1e8 38b4 998b 35b4 92dd 6034
00000110: 7821 a432 8535 d432 cd37 bab4 4dd7 f732
00000120: 9855 9234 6b24 99b1 30b8 7ab2 98dc 4834
00000130: bfa4 84b5 6bdd d4b5 798b c6b3 b682 b332
00000140: 74b3 3eb9 49b5 16b7 4ffc 7138 778f cfb9
00000150: 0558 7db8 2c37 25ba 8b66 f639 a3fc ae37
00000160: 9a99 8ab9 d407 74b7 f3e7 4838 4adb e2b9
00000170: 9d2d b839 0998 0e3b 8731 a938 a094 5fb9
00000180: e496 4d39 5245 3fb9 51a2 34b9 6f31 8039
00000190: e406 0037 174f 0938 8b23 7db9 0db3 e237
000001a0: 8b2f 8e39 d215 b4b7 714c 93b7 c97b 5d39
000001b0: 6275 31ba dafe 91ba 8ea2 1637 335f af37
000001c0: 7389 1538 f209 0bb8 14f8 5538 7f1c 84b9
000001d0: 5344 5fb9 1b2a e3b8 6d63 0e3a 3887 0338
000001e0: b56e 03b9 2550 82b8 72bb 7039 cb6c 16ba
000001f0: 0fec 9c39 cce6 a63a ddc2 83b9 0939 d338
-0.0023918506 0.00037182224 0.00057835475 -0.005277516 0.000257967 -0.0001092254 -0.0023478405 4.868265e-05
-0.0035006835 0.00071018515 -0.00026139405 -0.0040060175 -0.0024129066 -0.017406067 -0.007768752 -0.00025407717
-7.350128e-05 2.0792555e-05 -2.7228507e-06 -3.2355532e-05 5.2668656e-05 -0.00012233312 -0.00011302504 -3.1542995e-06
-1.9890378e-05 2.2178378e-05 -9.924423e-05 2.0169522e-05 -5.3831976e-05 -0.00041236446 1.1539459e-05 -9.665803e-05
3.7480397e-05 0.0001970154 0.0002446226 -0.001284825 -6.255377e-05 -0.0003957394 -0.0003018441 4.501056e-05
-0.00046217747 0.000113965376 0.00026766316 -0.0016234157 -0.00021181878 -0.0036273557 -0.0016839828 0.00012758365
-9.916552e-05 0.00010112605 0.00018507268 -0.00056600553 -0.000104544604 0.00014979517 0.0002091497 6.8358686e-06
-0.0003969629 1.2669712e-05 0.00019913842 -0.000771836 0.00021250013 -0.0011605109 -0.0008732419 0.00025701424
1.9048818e-07 -1.7220988e-07 -1.6907724e-07 2.0942232e-07 1.9107333e-08 2.4704386e-08 -3.46858e-07 2.8852492e-08
2.7256897e-07 -4.4570263e-09 -1.4593795e-08 1.8706703e-07 -9.882714e-07 -1.5859672e-06 -9.2454634e-08 2.0897783e-08
-0.00018186664 -8.9829055e-06 5.769386e-05 -0.00039589006 -6.0401875e-05 -0.0006302472 0.00046997177 2.086006e-05
-0.00026435853 -1.4545356e-05 4.7899735e-05 -0.00043269462 0.000351292 0.00217581 8.067773e-05 -0.00021322304
0.00019606535 -0.00018241003 -0.00017226605 0.00024450893 7.630999e-06 3.2737003e-05 -0.00024141201 2.7024676e-05
0.00027119773 -2.1467833e-05 -1.7559361e-05 0.00021122316 -0.00067695056 -0.0011138574 8.978544e-06 2.0905956e-05
3.5652378e-05 -3.3149445e-05 5.1014198e-05 -0.00025198233 -0.0002129239 -0.00010832046 0.0005431686 3.1358766e-05
-0.00012534375 -6.213811e-05 0.00022958012 -0.00057382573 0.00029930516 0.0012733578 -0.00025131452 0.00010071888

exp_avg_sq f4 [8, 16]
00000000: b0c6 3f38 e710 5a36 f80d 7936 ddb8 8539
00000010: 128a 0b36 c622 2438 6f2e 6438 92b7 7434
00000020: 3129 d338 0a29 3736 078c 8537 e4a9 4d39
00000030: 94d4 1a38 5a87 dc3a 9cce dc39 6224 8937
00000040: 819f cc34 ac9b fb32 5869 9532 b4bf ee34
00000050: 335b 1e33 960b 2436 9bca 8b34 2783 252f
00000060: 3b13 7a33 e2b0 0333 318f ba33 44e7 c235
00000070: 15e0 4834 499d 4337 f89d da34 d31d a334
00000080: e622 3b37 ebd1 7035 b9e5 5b35 647d 1338
00000090: 14ae 8235 b5c3 4d38 2e12 9836 6ffa 1833
000000a0: 4ad2 3737 6f32 0135 e66a 1d37 5d8b 9138
000000b0: 5261 8a35 29ff 5d39 1b08 1d38 a9a2 4837
000000c0: 03da d736 107c 0835 984f ef34 9140 8937
000000d0: 12c7 ea34 c26d 0938 0523 9f36 7b83 7c32
000000e0: 48bd 6836 4dac d734 241b 7136 6262 0b38
000000f0: e1dd 2437 64d6 2b39 386b af37 2a7d d936
00000100: 3c64 152a de8d 142a 71aa ad29 8879 652b
00000110: ce49 0a29 84fa e52a eec0 5d2c 2681 a827
00000120: 612b 632a ff37 6e28 6823 ab29 fa69 762b
00000130: 5bc5 9c2d 2e9f 292e 76be 682c 2482 f229
00000140: 3f42 6e35 ae67 1736 ab5a 6435 69a5 4137
00000150: ed0d 2f35 29be 0f37 5c1f ef36 3478 2233
00000160: 2649 8335 870c 1c34 364b 1735 9f28 de37
00000170: 4d16 0c37 9c98 9539 0e93 f137 3e2b 9a35
00000180: 7bc8 f734 9729 d034 4c52 7634 8a04 3636
00000190: 1305 c933 1f5b a135 0adb 1437 b437 7832
000001a0: 934b 4235 7a3a 4333 248c 8834 0d66 3436
000001b0: e51a 5438 4b9d ea38 5b5f 2a37 7b35 b634
000001c0: ef24 0d36 8d32 0135 fb5b d734 085b 1f37
000001d0: 7afa 0f35 a26d 9837 830e a336 b9f6 0a32
000001e0: fcb1 8035 6218 a434 08eb 6035 8c4a b337
000001f0: afde 2c36 0f2e 4839 15a2 6d37 4235 0736
4.572299e-05 3.249437e-06 3.7112022e-06 0.0002550547 2.0792982e-06 3.9133032e-05 5.440268e-05 2.2791053e-07
0.000100689365 2.7293013e-06 1.592004e-05 0.00019613613 3.691444e-05 0.0016825006 0.00042115606 1.6348615e-05
3.8114015e-07 2.9291037e-08 1.7393788e-08 4.4470437e-07 3.6870187e-08 2.4444648e-06 2.6038182e-07 1.5053257e-10
5.822515e-08 3.066169e-08 8.687346e-08 1.4521434e-06 1.8707972e-07 1.16595265e-05 4.0720602e-07 3.0382816e-07
1.1154194e-05 8.971244e-07 8.191815e-07 3.516431e-05 9.736418e-07 4.9058075e-05 4.5320694e-06 3.5618026e-08
1.0956612e-05 4.8129635e-07 9.3828185e-06 6.940097e-05 1.0310125e-06 0.00021171257 3.7439266e-05 1.1958801e-05
6.432879e-06 5.084448e-07 4.457513e-07 1.6361739e-05 4.373074e-07 3.2765565e-05 4.742646e-06 1.4698226e-08
3.468087e-06 4.0172236e-07 3.5927596e-06 3.323181e-05 9.826822e-06 0.00016387698 2.0911553e-05 6.481675e-06
1.3268634e-13 1.3194261e-13 7.71231e-14 8.15258e-13 3.070617e-14 4.0852402e-13 3.1513086e-12 4.676939e-15
2.01767e-13 1.3223796e-14 7.6000675e-14 8.754383e-13 1.782279e-11 3.856753e-11 3.307491e-12 1.0769535e-13
8.875831e-07 2.2561103e-06 8.506856e-07 1.1542209e-05 6.5212845e-07 8.567739e-06 7.1264058e-06 3.782789e-08
9.78155e-07 1.453319e-07 5.636133e-07 2.6483378e-05 8.349843e-06 0.00028533197 2.8797916e-05 1.1486479e-06
4.6153204e-07 3.877328e-07 2.2940475e-07 2.7122755e-06 9.360715e-08 1.2021954e-06 8.872486e-06 1.4448165e-08
7.2380607e-07 4.545516e-08 2.543394e-07 2.6881492e-06 5.0569786e-05 0.000111872876 1.0154991e-05 3.3939054e-07
2.1032135e-06 4.8129806e-07 4.0113795e-07 9.498333e-06 5.363614e-07 1.8170864e-05 4.859468e-06 8.088755e-09
9.588543e-07 3.056512e-07 8.378852e-07 2.1373176e-05 2.5759616e-06 0.00019090644 1.41640385e-05 2.0147568e-06

exp_avg f4 [8]
00000000: 7a99 b0bb f951 4fb9 a6ba afba a7d5 bbb9
00000010: a574 d5b4 6efe 313a 6969 97b9 64c5 0c3a
-0.0053893896 -0.00019771596 -0.0013407066 -0.00035826603 -3.9759212e-07 0.0006789927 -0.000288795 0.00053699897

exp_avg_sq f4 [8]
00000000: 8ee5 3d39 8191 1b36 62df 1a38 20cc dd37
00000010: 2956 392c 1e56 2a38 149d 0237 cbbf 0c38
0.0001810996 2.3181494e-06 3.6924503e-05 2.6440306e-05 2.633791e-12 4.061136e-05 7.785176e-06 3.3557222e-05

exp_avg f4 [1, 8]
00000000: 5dab 97bb 8a18 99b8 4594 d739 b8cf 60bb
00000010: 8198 78b5 7b72 04b9 5ad7 92ba aded e0b8
-0.0046285824 -7.300179e-05 0.00041118465 -0.0034303498 -9.260912e-07 -0.00012631148 -0.0011203096 -0.00010725423

exp_avg_sq f4 [1, 8]
00000000: 51ae f539 2a61 8c35 b7e7 5836 608c e439
00000010: 6671 8c2f 7700 b937 b904 3137 da23 0436
0.00046859917 1.0459091e-06 3.2321384e-06 0.00043592136 2.5546426e-10 2.2053935e-05 1.0551122e-05 1.96904e-06
