FinishedEmulators/unscreened_fofr_lin_Pk/version_3/checkpoints/epoch=362-step=29707920.ckpt (torch, 16517 bytes, 20 tensors)

hidden_layers.0.weight f4 [16, 7]
00000000: dfb8 62bd 05c5 38be 1f4d 31be e615 4cbe
00000010: 6952 763e a391 02bd 6f42 ed3e 3480 53bd
00000020: 2328 fdbf 58f0 e13f 671e 5e3f b342 d23d
00000030: 579f ffbd d3c3 563e 29e4 033a b701 1abe
00000040: 8468 e1bd a57c 20bd bd54 1d3e a229 2ebf
00000050: b25e 9d3e 9b90 d03b 28d3 0c3e c0e2 4cbe
00000060: f46c 77bd d6eb d43e e6c7 98bf 71fd 533f
00000070: 555e 9a3b 7c15 40bf f329 b8be c27b d9bd
00000080: 9871 8c3e efa2 f1be a32e 0d3f efa7 103c
00000090: a697 c3bf a6c8 fdbd b6ac 16bd f217 513f
000000a0: caa5 2abf 2b5f d13f 408e 773b 850d 03bf
000000b0: 4acd c7bd 803b 39bc 3f2d 123f a101 a4be
000000c0: e95a 923f 92e1 93bb 13ce a1bf e830 d73e
000000d0: 8bc5 cd3d fef2 003e c785 0fbf 2356 813e
000000e0: 6b5e 0abd d69a a4bd 3ddb f33e 1eab 843e
000000f0: d274 c43d 8a0f 55bd 6f68 353e 400e 39ba
00000100: bf30 f7bf d918 82bd 7713 92bc efd7 563e
00000110: 2131 f8bd abd4 d63e 2e07 443a 7e6d 653d
00000120: 6751 723d 2ef6 d83c f2b6 273e 1b8a cdbb
00000130: 2f76 a83e 49e6 0cbd 3811 853e ec3a 0c3f
00000140: 081c a73e 2236 ab3e a579 7ebf ebf5 2d3f
00000150: ef02 07bd 0140 ecbd fd9d cd3d a46e 0fbc
00000160: bac8 633e dea2 e2bc f78f de3e d847 463b
00000170: 86a9 87bf 67ae 213f e865 673e 1bd7 153c
00000180: c1b6 e8bd 423b 983c 23d3 83b8 1991 5ebf
00000190: 9d5b ce3d b387 1c3d 75d1 043f d66a a7bd
000001a0: b086 843f 4fa3 b5bc 3168 3d3e cb22 78be
000001b0: d2e9 3cbd e487 773e 1232 81bd 6dc8 f43e
-0.055352088 -0.18043907 -0.17314576 -0.19930229 0.24054874 -0.03187717 0.46339747 -0.051635936
-1.9777874 1.7651472 0.8676514 0.10266628 -0.124815635 0.20973139 0.0005031252 -0.15039717
-0.11006263 -0.03918137 0.15364356 -0.68032277 0.3073631 0.0063648946 0.13752425 -0.20008373
-0.06040664 0.4158618 -1.1936004 0.82808596 0.0047109523 -0.7503278 -0.35969505 -0.10619308
0.27430415 -0.4719462 0.55149287 0.008829101 -1.5280654 -0.12391786 -0.036785804 0.8167716
-0.66659224 1.6357168 0.0037773997 -0.51192504 -0.09755953 -0.01130569 0.5710029 -0.32032493
1.1433994 -0.004512974 -1.2641014 0.420295 0.10047444 0.12592694 -0.56063503 0.2526103
-0.03378145 -0.08037345 0.47628203 0.25911802 0.09592594 -0.052016772 0.1771562 -0.00070593134
-1.9311751 -0.063523956 -0.017831547 0.2098081 -0.121187456 0.41959128 0.00074778765 0.056012623
0.059159663 0.026484575 0.16378382 -0.006272567 0.32902667 -0.034399305 0.259897 0.5477741
0.32638574 0.33439738 -0.99404365 0.67953366 -0.032961782 -0.11535645 0.100398995 -0.008754406
0.2224454 -0.027665552 0.4346921 0.0030255225 -1.059861 0.6315674 0.22597468 0.009145523
-0.113629825 0.018582944 -6.285894e-05 -0.8694015 0.100760676 0.03821535 0.51882106 -0.08174674
1.0353603 -0.022172598 0.18496777 -0.24232022 -0.046121426 0.24172932 -0.06308378 0.47809163

hidden_layers.0.bias f4 [16]
00000000: 0977 cdbd 34f4 91be 2f14 923f 58c4 df3e
00000010: 1cee 943e 9b69 8740 fa05 6f40 0a91 5d3f
00000020: 7592 213d 1292 e43f 6304 903f b37f 8dbe
00000030: 47c2 63bd 1c3d a83e 1837 553e 571f 0f3e
-0.1003247 -0.28506625 1.141241 0.43704486 0.29087913 4.2316413 3.7347398 0.8654944
0.039446313 1.7857077 1.1251339 -0.2763649 -0.0556052 0.32859123 0.20821798 0.13976799

hidden_layers.1.weight f4 [8, 16]
00000000: a17b f43d 8ca1 753e 1a43 9f3f 5a6e 26bf
00000010: 891e 6abf 09b8 313f ff62 adbf 059d fcbe
00000020: f794 a0be 0308 803f cfc0 75be 388e 51bd
00000030: 2fdc ec3d fa20 9d3d fe3d 4b3c ec6d d83e
00000040: 1869 a8bd 4180 173f b3f5 443e 4f42 443e
00000050: d282 893e f145 a0bf 0c73 93bd cb5d f6bc
00000060: 53fc a1bc d416 633e e707 913e 60e1 8f3e
00000070: 4a01 a53c 5c09 db3e e866 a73d 6cda 983e
00000080: e1f9 f23d 3725 d7be 1d93 a7bd 6ae4 acbf
00000090: e5d3 653e f8fb 6e3d 2c99 56be c7bb 183f
000000a0: 5cfa 473c cbcf 47bf 3e56 b9bd fc98 2abf
000000b0: 6e82 193c 05d1 0d3f 3caa df3d f7e3 a43e
000000c0: df57 3a3d 2f5b f33e a0b3 143f 2efe c93e
000000d0: bf40 cdbd 6792 e5be fb1e f8bb 9348 07bf
000000e0: 3fa0 cc3c 9699 7d3f 4427 b93e 6156 88be
000000f0: 6a83 93bd c755 bcbb 5e4b 2cbf 46d7 c6be
00000100: 4cba 60bc ce27 bcbe 19f3 9dbe e775 fcbe
00000110: 825c c83e b4a3 92bf 18ef a0be 454d 203e
00000120: 8664 3a3d 55ba 3a3e 0174 d1be 34bd 5ebe
00000130: f47c 0cbd 3a7c e4be 05cf 4ebe 5448 bc3d
00000140: 90ff 2e3c 8103 9dbf 3150 9dbe 2732 bbbe
00000150: 6c77 e33d 1424 9cbe 71fb 153f 5bd8 1d3e
00000160: a78f efbd 25f7 793e f887 1f3f 94fa 3d3d
00000170: 0fda 94bd 1b86 42bc 42cd 9d3e 6d53 c6be
00000180: 4d8c 31be acfb e53e 2a49 cdbe 20f2 b4be
00000190: c0de d1be 7b7b c33b 5f1b 913f f080 c4be
000001a0: 6929 b73b 4f53 42be da09 f83e b637 a1be
000001b0: 95b9 13be 4ffc 42be edec 8ebe 171e 96be
000001c0: 0fec cf36 b0ea 88b6 3681 9536 0426 b1b5
000001d0: c46e 1237 e9c0 3237 68b4 f334 cb43 6637
000001e0: 357d 8d36 bef4 a135 090d d635 f897 19b7
000001f0: ebe8 0536 e51d 8937 4925 4036 f1f0 7c36
0.11937643 0.23987406 1.2442353 -0.65012133 -0.9145284 0.6942144 -1.3545836 -0.49338546
-0.3136365 1.0002445 -0.23999332 -0.05116102 0.11565434 0.076723054 0.012404917 0.42271364
-0.0822317 0.59180075 0.19234352 0.1916592 0.2685762 -1.2521344 -0.07199678 -0.03007402
-0.019773638 0.22176677 0.28326342 0.28101635 0.020142216 0.42780578 0.08173925 0.29854143
0.11864067 -0.4202058 -0.081823565 -1.3507206 0.22444113 0.058345765 -0.20956868 0.59661525
0.012205686 -0.7805144 -0.090496525 -0.66639686 0.009369476 0.55397063 0.109211415 0.32205173
0.045493957 0.47530505 0.58086586 0.39451736 -0.10022115 -0.4483826 -0.0075720525 -0.52845114
0.024978755 0.9906248 0.3616277 -0.26628402 -0.072027996 -0.00574753 -0.673025 -0.38836116
-0.013716292 -0.3674912 -0.3084953 -0.49308702 0.39133078 -1.1456208 -0.31432414 0.15654476
0.045506023 0.18235143 -0.40908816 -0.21751863 -0.034298852 -0.44626027 -0.20196159 0.09193483
0.010681048 -1.2266694 -0.30725244 -0.365617 0.11106762 -0.30496275 0.58586794 0.15414564
-0.116973214 0.24410684 0.62316847 0.046381548 -0.07268154 -0.011872794 0.30820662 -0.38735524
-0.17338677 0.44918573 -0.40094882 -0.35340977 -0.40990257 0.0059656478 1.1336478 -0.38379622
0.0055896533 -0.18977092 0.48445016 -0.31487817 -0.14426263 -0.1904156 -0.27915135 -0.29319832
6.1965616e-06 -4.080437e-06 4.455588e-06 -1.3198592e-06 8.728068e-06 1.0654542e-05 4.539354e-07 1.3724853e-05
4.2167035e-06 1.2066664e-06 1.5948036e-06 -9.154894e-06 1.995412e-06 1.6345593e-05 2.8631932e-06 3.7691173e-06

hidden_layers.1.bias f4 [8]
00000000: 3a3f 7bbf cf9e ddbe 39a1 e13d 5a6d 3c3e
00000010: c41b 183e c39b 17bf 290c 0e3e b0bd a836
-0.9814335 -0.43285224 0.11017079 0.1840109 0.14854342 -0.5922205 0.13871826 5.0288727e-06

output_layer.weight f4 [1, 8]
00000000: d76f 8dbf 35a8 89bf 882a 663f ffa6 253f
00000010: 50e5 233f 163e 81bf 0fdb 163f 9a1d ea35
-1.1049756 -1.0754458 0.8990865 0.6470794 0.6402178 -1.0097072 0.58928007 1.7442974e-06

hidden_layers.0.weight f4 [16, 7]
00000000: db7c a2ba c0e8 ae38 8845 e83a e3c1 b239
00000010: 1d24 ea3a 6b7f 6c3a 8e59 9dba 801c d8ba
00000020: ce0c aeba 59af a63a 30fe fb38 bc68 913a
00000030: 991c 5bba d3d7 8c3a d26c 083a 53e3 273a
00000040: 07f3 c6ba d57b c6b9 5e38 22b9 9e2f 043a
00000050: 9fe1 63ba f145 c63a f6a9 4c3b a1e4 24ba
00000060: 8a6e e0ba 0d06 1f3a 1b9d e939 d0ba d3b9
00000070: afc5 1f3a 64aa 5239 5e5b 153a e4ec 073a
00000080: dcf0 013a 7c19 9dba 6b1d 2b3a 65b8 3339
00000090: 224a 893a 8784 6c3a 8f5a 2c3a bce8 ae39
000000a0: 70cc ae3a 4ee4 9eb9 0f15 d6b9 2713 f43a
000000b0: 02bd 9aba 4ba1 6137 c9c4 0139 0394 5eb9
000000c0: 68f2 30b9 f3f5 0239 857f 8cba 2117 f439
000000d0: 8169 da3a e68e ce39 49aa e0ba 58df fd39
000000e0: c350 f23a bcd4 413a 9911 44ba cc68 7d3a
000000f0: 0740 edb9 cd13 42ba d629 683a 63e4 f239
00000100: 9d44 813a b143 f33a d5e5 71b9 724f 5439
00000110: a13a 56b9 6b43 10ba 5245 96ba 366e a1ba
00000120: 1ead 3c3a 674d cd3a a08e a5b8 f6eb a23a
00000130: 6d07 c8b9 a076 84ba ac64 c1ba c469 65b9
00000140: 8f57 c73a 6ecc 6e39 bc39 62ba bd8a 6b39
00000150: aee7 a238 8461 d03a 08f8 9b39 0984 2439
00000160: 2867 af3a 3fed 473a 4d1c 803a 494f f038
00000170: 23cd 2b3a 92ec 4db9 eb4c 063b 2786 e03a
00000180: c335 f939 f6b4 22b9 9a3c 1c3b 90d1 36b9
00000190: 1b85 b6b9 5fbb 2e38 c597 5d3a b62c 81ba
000001a0: 3c15 0ab9 1bca 6c38 07c6 023b 71f0 023b
000001b0: a7e1 4d3a da1a b73a 6261 69ba 6239 5bba
-0.0012396829 8.3403196e-05 0.0017720917 0.00034095263 0.0017863546 0.00090216723 -0.0012004839 -0.0016487986
-0.0013278963 0.0012717053 0.00012015959 0.0011093835 -0.00083584484 0.0010745473 0.0005204204 0.00064044184
-0.0015178629 -0.00037857765 -0.00015470522 0.0005042496 -0.0008692983 0.0015127045 0.0031229234 -0.0006290172
-0.0017122787 0.000606627 0.00044558276 -0.00040384242 0.0006094826 0.00020090636 0.00056975137 0.0005185141
0.00049568503 -0.0011985744 0.0006527516 0.00017139463 0.0010474364 0.00090224337 0.00065747736 0.00033361267
0.0013336074 -0.0003030621 -0.0004083295 0.001862143 -0.0011805596 1.3448599e-05 0.00012375707 -0.00021226708
-0.00016874971 0.0001248939 -0.0010719156 0.0004655654 0.0016663523 0.0003939785 -0.0017140593 0.00048422324
0.0018487204 0.00073940656 -0.0007479429 0.00096668 -0.00045251867 -0.0007403463 0.00088563317 0.00046327998
0.0009862367 0.0018559602 -0.0002306917 0.00020247491 -0.00020430471 -0.000550321 -0.0011464751 -0.0012316171
0.00071974273 0.0015663326 -7.894379e-05 0.0012429941 -0.00038152505 -0.0010106154 -0.0014754734 -0.00021878543
0.001520859 0.00022773605 -0.0008629819 0.0002246303 7.767916e-05 0.0015898203 0.00029748701 0.00015689446
0.0013382183 0.00076266 0.0009774059 0.0001145886 0.00065537 -0.00019638453 0.0020492624 0.0017129824
0.00047533037 -0.00015516937 0.0023839832 -0.0001743494 -0.00034812916 4.1659336e-05 0.00084530964 -0.0009855244
-0.00013168616 5.645501e-05 0.001995446 0.001997974 0.0007853754 0.0013969794 -0.0008902756 -0.0008362738

hidden_layers.0.bias f4 [16]
00000000: 0000 0000 0000 0000 0000 0000 0000 0000
00000010: 0000 0000 0000 0000 0000 0000 0000 0000
00000020: 0000 0000 0000 0000 0000 0000 0000 0000
00000030: 0000 0000 0000 0000 0000 0000 0000 0000
0.0 0.0 0.0 0.0 0.0 0.0 0.0 0.0
0.0 0.0 0.0 0.0 0.0 0.0 0.0 0.0

hidden_layers.1.weight f4 [8, 16]
00000000: 1404 a4b9 f761 3d3a d028 a3b9 eea7 5f39
00000010: c656 9cb9 3aa2 003b 6485 4eba 5dc8 8cba
00000020: 3831 3c3a b130 16ba 5ddf 3db9 d72c 8aba
00000030: 73d2 7f3a 8ca5 4cb9 b6a5 dd3a 5822 98ba
00000040: ba3c 2039 e36b feb9 96bc 27bb c227 daba
00000050: 1b14 81ba ea64 1538 5218 c3b9 1fcf b1b8
00000060: ef47 08bb abb3 66b9 4cb8 bfba 8c96 e3b9
00000070: 936a 9db9 c257 c1b8 c17f 1c3a 2457 acb9
00000080: b1b4 eb39 873d 01bb 8845 eab9 e8d8 0e3a
00000090: cad9 44b9 d0c6 41b9 d230 64b9 f53f 463a
000000a0: 784d 42bb 2d17 da39 3b90 1a3b 3ffc 23ba
000000b0: 0ca3 04b9 4397 c03a 3a2d 92b8 2676 00ba
000000c0: da44 f3b9 eb9b cd39 ad3e 5c39 f8b9 81ba
000000d0: af9a 59ba 5af7 d4b9 6f27 703a c422 6aba
000000e0: aa1e 48ba 5588 ab3a 4aca c4ba e099 4b3a
000000f0: 4c01 2139 8211 bf3a 2b58 f1ba fa0f 8db9
00000100: ef03 c139 c0c7 93ba bff4 ba39 e1a7 95b9
00000110: 5c70 d239 b081 1fb9 48f5 d6ba 6df9 8fba
00000120: 67b8 a0ba 49c6 873a 5e1b 86ba 3d73 3cb8
00000130: 8f44 08bb 01b8 6aba 9dc7 4a3a 1d60 a938
00000140: 3917 14ba a858 d23a d886 80ba 59cf dc3a
00000150: bf81 a93a d822 84ba 862f 843a 8313 b6ba
00000160: 4e26 e2b9 dedd 32b9 bd5e 963a fce4 aab9
00000170: 3863 983a b96a a3ba 79a1 d53a 9c69 9dba
00000180: 9d3e a13a 9006 2d3a c6d1 b1ba d21b 05b7
00000190: a54f 7b3a ba31 fa3a f25f 7a38 6435 a3ba
000001a0: 8940 8d3a 840e 6f3a f940 1fba 6d61 f3b8
000001b0: bebc 763a acc8 ce3a 6188 c43a 313b 10ba
000001c0: 28c4 2e39 5dfc d1ba 7e59 9e3a 8c5d a338
000001d0: a59d 62b8 867f 293b 39fe 8cba 8982 8fba
000001e0: 1d0e 27ba 4c43 f83a 4dc0 913a 55cf 773a
000001f0: 754d 87ba 7169 453a 3e07 7eba 462b 2039
-0.00031283556 0.0007224376 -0.0003112019 0.00021329496 -0.0002981929 0.0019627945 -0.0007878153 -0.0010740865
0.0007178965 -0.00057293015 -0.00018107654 -0.0010541928 0.00097588374 -0.00019516627 0.0016910348 -0.0011606915
0.00015281411 -0.00048527037 -0.0025594584 -0.0016643929 -0.0009847911 3.5618352e-05 -0.00037211418 -8.478597e-05
-0.002079483 -0.00022001441 -0.0014627068 -0.0004340898 -0.00030024778 -9.219303e-05 0.00059699645 -0.0003287132
0.00044957318 -0.001972051 -0.00044683763 0.00054491917 -0.0001877315 -0.00018479978 -0.00021761961 0.0007562631
-0.0029648226 0.00041597467 0.0023584503 -0.0006255544 -0.0001264924 0.0014693517 -6.9702466e-05 -0.0004900418
-0.0004639987 0.00039216815 0.00021004184 -0.0009897342 -0.0008300943 -0.00040620082 0.00091611495 -0.0008931572
-0.0007633964 0.0013086895 -0.00150139 0.00077667646 0.0001535464 0.0014577361 -0.0018413117 -0.0002690552
0.0003681476 -0.001127474 0.00035659035 -0.00028544574 0.00040138036 -0.00015211734 -0.0016400004 -0.0010984369
-0.0012261987 0.0010358776 -0.0010231545 -4.4930017e-05 -0.0020792817 -0.00089538103 0.0007735433 8.0764505e-05
-0.00056492124 0.001604815 -0.0009805812 0.0016846462 0.0012932344 -0.0010081185 0.0010084964 -0.0013891313
-0.00043134618 -0.00017058055 0.0011472326 -0.00032595533 0.0011626249 -0.0012467719 0.0016298733 -0.0012009623
0.0012301985 0.0006600404 -0.0013566546 -7.933895e-06 0.0009586758 0.0019088306 5.9694e-05 -0.0012451825
0.0010776679 0.00091192895 -0.00060750503 -0.0001160529 0.000941228 0.0015776358 0.0014994257 -0.0005501984
0.00016667007 -0.0016020645 0.0012081114 7.78987e-05 -5.4029417e-05 0.0025863363 -0.0010756917 -0.0010948937
-0.00063726475 0.0018940954 0.0011119932 0.0009453197 -0.0010322767 0.00075306656 -0.000969041 0.0001527491

hidden_layers.1.bias f4 [8]
00000000: 0000 0000 0000 0000 0000 0000 0000 0000
00000010: 0000 0000 0000 0000 0000 0000 0000 0000
0.0 0.0 0.0 0.0 0.0 0.0 0.0 0.0

output_layer.weight f4 [1, 8]
00000000: 2a62 90ba 0db9 7eb9 b7e3 023b 4b7d 2c3a
00000010: 2266 d837 dd80 53ba bd0c 7c39 2d64 ffb7
-0.0011015583 -0.00024292264 0.0019972154 0.00065799494 2.5796766e-05 -0.00080682134 0.00024037338 -3.0445017e-05

exp_avg f4 [16, 7]
00000000: cb92 b2b6 560f ebb5 8e45 c337 02ee afb7
00000010: fc5e aab7 c4b6 ee39 7ceb 95b8 e100 b839
00000020: a5ec a838 ef14 b9b9 f1e8 1139 9669 e8ba
00000030: fc4f ee39 b7de 8a39 df90 65bb 2b23 88ba
00000040: 98ae 763b e147 4c39 67ae 9b3c 0540 20bb
00000050: 623b 1cbb a14e de39 21ca 0739 2117 e5b9
00000060: 7872 3e39 ae11 62bb 044a 4c39 d771 bc39
00000070: f1de 85b9 0923 80b8 e874 bf39 e937 2d39
00000080: feea 883a ec24 d0b9 9421 aeb6 40b8 053a
00000090: 6068 2b39 e5f6 1fba c770 2c38 7cb5 5ebb
000000a0: 8ae1 c7b7 bf64 e239 e88c 4bba 4b57 60b9
000000b0: 67f6 893a 5049 0b3a a379 003b df0f 4eba
000000c0: 0e6c 7e37 2404 23b8 065e 15b8 3bf6 5e39
000000d0: 8690 93b7 8d3b f038 3aad 42b7 1422 9a39
000000e0: b6a2 c937 796d dc36 59c9 cab7 a052 23b8
000000f0: aa73 7936 43eb 8d39 1ab3 dbb6 f20c 79bb
00000100: 1b4c 88ba 6e84 833b a62c 233a 51a2 933c
00000110: 748f b2bb 8a05 11bb 84c5 94b8 9b69 84b8
00000120: 7908 b2b8 0e00 fb37 a2f5 f9b8 5f82 9a3a
00000130: 59f1 90b9 c547 4cb8 426c e4b6 706a 3538
00000140: 4e7a 3838 e1fb e237 80fb e1b8 64c1 acb8
00000150: 8981 12b9 a9f8 0bb8 eb4e ee38 3613 de38
00000160: b784 0c3a 0f36 8dba e8a7 2f39 23fe 04b9
00000170: ec6c 51b8 c67d 8539 d5c1 5838 1d43 563a
00000180: 497d 7ab9 4866 0c38 7651 48ba ee21 5fb9
00000190: 1052 673a 2c3b 87b8 b46d 873b bdb3 65ba
000001a0: 0454 1bba c243 2739 5a34 5838 bf29 59b9
000001b0: 2b63 0137 6c71 b2ba 89be 45b9 3e8b 86b6
-5.3219023e-06 -1.7513328e-06 2.32782e-05 -2.0972457e-05 -2.030981e-05 0.00045531068 -7.148736e-05 0.0003509587
8.054943e-05 -0.00035301546 0.00013915055 -0.0017731662 0.0004545449 0.00026487347 -0.0035028977 -0.0010386457
0.0037640687 0.00019481733 0.01900406 -0.002445222 -0.0023839106 0.00042401723 0.00012949902 -0.00043695516
0.00018162455 -0.0034495401 0.00019482529 0.00035942972 -0.0002553384 -6.1100414e-05 0.0003651746 0.00016519394
0.001044601 -0.0003970036 -5.189513e-06 0.0005101003 0.00016346714 -0.0006102159 4.1113028e-05 -0.0033982685
-2.3827673e-05 0.0004318114 -0.0007764832 -0.00021394824 0.0010525704 0.00053133536 0.001960375 -0.00078606413
1.5164738e-05 -3.8866085e-05 -3.5611934e-05 0.00021263298 -1.7591065e-05 0.00011455184 -1.16036335e-05 0.0002939856
2.4036835e-05 6.569255e-06 -2.4174036e-05 -3.893918e-05 3.7171217e-06 0.000270689 -6.5475588e-06 -0.00380021
-0.0010398658 0.0040135896 0.00062246097 0.018021734 -0.00544923 -0.0022128546 -7.09398e-05 -6.313921e-05
-8.4892796e-05 2.9921557e-05 -0.00011918998 0.0011788121 -0.00027645638 -4.870423e-05 -6.8075324e-06 4.325289e-05
4.3982924e-05 2.705859e-05 -0.000107756816 -8.237621e-05 -0.000139719 -3.3371765e-05 0.00011363424 0.00010589363
0.0005360352 -0.0010773557 0.0001675185 -0.00012683174 -4.9930924e-05 0.00025461445 5.1678933e-05 0.0008173453
-0.0002388853 3.3473858e-05 -0.0007641533 -0.00021279577 0.0008824179 -6.448323e-05 0.0041329507 -0.000876244
-0.00059253 0.00015951603 5.154717e-05 -0.00020710284 7.7120885e-06 -0.0013614125 -0.00018858364 -4.009721e-06

exp_avg_sq f4 [16, 7]
00000000: 6575 ab33 6371 1732 eab2 0434 8918 9b32
00000010: bce6 7536 6942 6636 ca9d 4a33 5069 dc35
00000020: 1f0c 2b34 5929 e035 d710 3835 c24a 6a38
00000030: 5ede c235 29a2 4d35 e303 1339 3374 8137
00000040: 578a 6739 c80e 1238 762e 9d3b 6a29 fe37
00000050: 666e 7338 1ba2 9236 7911 0835 ee2d e136
00000060: d150 9135 fc0b 5f39 0747 3535 40b5 1436
00000070: c12c 8536 8bd3 e634 155f d036 d114 8335
00000080: 7bf8 1c39 6e71 b836 2725 df35 ecd9 e836
00000090: f073 4635 9421 3337 1ca9 dd35 375c ad39
000000a0: 4043 c636 b54a 6b36 706e 1f38 411c 8c36
000000b0: b42c 8038 478f 1337 ac7c d33a 1047 0a38
000000c0: 922e 5a37 030d 3137 42cb 8e35 d3db 6e37
000000d0: 5018 4436 e0ab bf39 9b5a 2737 574a a236
000000e0: b4a9 e833 663e 4632 1907 4134 4141 e532
000000f0: a6fc ab36 aae2 8a35 f5b2 8d33 a3f4 3739
00000100: 29f6 9537 dca2 9139 dae5 3038 1bb3 db3b
00000110: 6540 4239 c2d5 8b38 5c0b e536 4132 4b35
00000120: 3b7b 3337 06c0 f235 ad5d 8539 8105 5338
00000130: e70a 5636 5b07 4b35 49e6 bb33 07ae 8b35
00000140: 7b5f 6534 116b f337 7b32 a233 24b6 a734
00000150: 0a71 6935 9fdc ca33 29e4 b135 f524 5034
00000160: f20f 3638 5a34 9a37 b849 0b35 39ec 7a35
00000170: ff51 bd33 eff2 9635 f968 9e34 f8fa 3238
00000180: 0cd2 0836 98b1 c634 8f24 8e36 a310 f834
00000190: 2100 da36 05de 9235 cf6f 0b39 0c98 5b37
000001a0: da59 1136 d3cc 2935 16a2 8b33 7c20 7f35
000001b0: ec07 2834 f5d8 0d38 d262 e335 c2b8 e734
7.984162e-08 8.815138e-09 1.2358547e-07 1.8055532e-08 3.664215e-06 3.4311327e-06 4.71753e-08 1.6421927e-06
1.5930026e-07 1.6701334e-06 6.8569847e-07 5.585957e-05 1.4518844e-06 7.6604425e-07 0.0001402046 1.5432108e-05
0.00022081412 3.482288e-05 0.0047967983 3.0298444e-05 5.803853e-05 4.3700106e-06 5.0689374e-07 6.7108695e-06
1.0826863e-06 0.00021271402 6.753111e-07 2.215922e-06 3.968919e-06 4.2994756e-07 6.209952e-06 9.766319e-07
0.00014969886 5.4968323e-06 1.6625607e-06 6.9395082e-06 7.392946e-07 1.0677049e-05 1.6515e-06 0.00033065837
5.9086888e-06 3.5061214e-06 3.8011407e-05 4.1756143e-06 6.111842e-05 8.795242e-06 0.0016135178 3.2967946e-05
1.3004656e-05 1.0553052e-05 1.063898e-06 1.4237087e-05 2.9220428e-06 0.00036558416 9.975071e-06 4.8366305e-06
1.0834211e-07 1.1539305e-08 1.7977108e-07 2.6688783e-08 5.1256093e-06 1.0347769e-06 6.598376e-08 0.00017543374
1.7876811e-05 0.00027777895 4.2175736e-05 0.0067047006 0.0001852527 6.667852e-05 6.8260542e-06 7.569652e-07
1.0697923e-05 1.8086291e-06 0.0002543753 5.0311446e-05 3.189483e-06 7.5634097e-07 8.749755e-08 1.0406956e-06
2.1362023e-07 2.9017714e-05 7.552895e-08 3.12387e-07 8.696376e-07 9.446489e-08 1.3253931e-06 1.9384954e-07
4.340703e-05 1.8382609e-05 5.188881e-07 9.3476007e-07 8.815913e-08 1.1246574e-06 2.950617e-07 4.267224e-05
2.0387843e-06 3.700959e-07 4.2361858e-06 4.6205705e-07 6.4969213e-06 1.0942464e-06 0.00013297725 1.3088818e-05
2.1658984e-06 6.3255465e-07 6.502175e-08 9.5042174e-07 1.5649101e-07 3.3819077e-05 1.6941578e-06 4.3161532e-07

exp_avg f4 [16]
00000000: 3480 1236 976d cc39 d835 73bb e24a 0d3a
00000010: 094f a8b9 b57e 133a 3a9a 48ba d369 27b9
00000020: b826 da37 d08d 87bb 503b 1038 d890 dab7
00000030: 0fe5 26b9 c8ce 2bb9 e4f1 67ba 85a6 5039
2.183032e-06 0.00038991563 -0.003711095 0.00053898816 -0.00032102343 0.0005626486 -0.0007652376 -0.00015965784
2.6005655e-05 -0.0041367784 3.4387514e-05 -2.6055073e-05 -0.00015916325 -0.00016384863 -0.0008847995 0.00019898459

exp_avg_sq f4 [16]
00000000: 0a04 fc33 2c0e 2336 09e9 5839 0d8c d736
00000010: 6e80 c336 c220 2b37 7fb8 6938 e3ab 8237
00000020: 0ae2 2a34 f64a 8739 b522 2937 b10a 9635
00000030: 22ae aa35 ce8c b735 bb31 d136 be0c 7b35
1.1735399e-07 2.4297142e-06 0.00020686178 6.4238034e-06 5.826404e-06 1.0200021e-05 5.5723354e-05 1.5577249e-05
1.5914716e-07 0.00025805057 1.0081266e-05 1.1178983e-06 1.2716666e-06 1.3675542e-06 6.2344748e-06 9.352333e-07

exp_avg f4 [8, 16]
00000000: 3f3b ba39 49de 6c37 f9af 6339 635c d738
00000010: 027c 6039 705a f9b9 e760 c4ba 6974 ce39
00000020: 1e98 073a 0d4e b5b8 e55c 36b9 07c4 a236
00000030: 82a4 aa39 f824 213a 8ef2 7238 46f8 be39
00000040: 1a4a f637 2ca8 d636 1098 97b9 691b f138
00000050: 6213 8a39 9c66 dcb9 1e2d b2ba 7ea4 8c39
00000060: 30b0 8138 6cdb e0b9 30a7 dcb9 f651 bc37
00000070: 0adc 6d38 d20c 4938 830e 3b38 5615 b638
00000080: a15a 113a 7504 b937 7d5a b43a 77f2 3db7
00000090: 35bb 2fb9 8b88 bbb9 b71b 17b9 88ca e039
000000a0: 5df1 923a df33 9b3a a74f 3a3a 43ae 9db7
000000b0: cb11 0a3a c91a ac3a e371 9c36 bdc1 0b3a
000000c0: f462 cf3a 1957 9838 e9a2 bc39 bcb4 fd39
000000d0: 3f07 753a c33c 4ebb f55a 1fbc b8ac 963a
000000e0: 97e8 df3a 8af6 03bb dd50 1bbb e3de db37
000000f0: b45f bf3a 12eb e83a 9b04 c639 ed4b b13a
00000100: 8315 c739 96bb cb37 3bc1 b13a bef8 bcb8
00000110: 66cd 9fb9 87b2 81b8 c735 2b3a 31da 1839
00000120: 61ba 513a 8717 903a f137 423a 1a8d c7b7
00000130: f984 b639 d665 7e3a dabe 19b7 7882 a939
00000140: 6765 e0ba 7452 b1b8 1127 163a 475f 39ba
00000150: 5e60 ceba d7ca 843b 4135 583c e7ef d0ba
00000160: 4594 daba 4ce8 673b db68 673b 2776 85b8
00000170: 0ca9 d1ba 8d03 ddba 3b1d 08ba 1d50 c7ba
00000180: 3939 d33a 86aa 9c38 11a0 f939 dc82 083a
00000190: 7ac7 843a 9b48 52bb c898 20bc d153 b23a
000001a0: 7afb f63a 8681 eeba eafb 08bb 8218 fe37
000001b0: e4f9 c23a e899 063b 553f c639 436f ba3a
000001c0: 6cd8 3f31 ef2e ec2e 497c d730 6d56 5230
000001d0: cb96 de30 ff0b 8fb1 6d59 67b2 fec7 3b31
000001e0: 650f 7e31 cd2b e5b0 e994 2cb1 0cba 732c
000001f0: c390 3131 acf4 8d31 54a1 1830 4d60 3631
0.00035520826 1.4118451e-05 0.00021713962 0.00010269207 0.00021408501 -0.00047560362 -0.0014982492 0.00039378114
0.00051725085 -8.645291e-05 -0.00017391478 4.850797e-06 0.00032547495 0.00061471714 5.7923193e-05 0.00036424602
2.9359991e-05 6.397275e-06 -0.0002891426 0.00011496881 0.00026335852 -0.0004203812 -0.0013593768 0.00026825437
6.184017e-05 -0.0004288809 -0.00042086234 2.2449512e-05 5.671013e-05 4.7934074e-05 4.459779e-05 8.6824104e-05
0.0005544816 2.2055794e-05 0.0013759878 -1.1321731e-05 -0.0001675904 -0.00035769152 -0.00014410807 0.00042875507
0.0011210848 0.001184102 0.0007107206 -1.8797005e-05 0.00052669336 0.0013130541 4.6624205e-06 0.00053312985
0.0015822337 7.264148e-05 0.00035979532 0.00048390578 0.0009347088 -0.0031469322 -0.009726276 0.0011495566
0.0017082867 -0.0020135962 -0.0023699321 2.6210624e-05 0.0014600665 0.0017770252 0.00037768934 0.0013526656
0.00037972265 2.4286837e-05 0.0013561615 -9.0108704e-05 -0.00030479877 -6.184453e-05 0.0006531146 0.00014577132
0.000800049 0.001099334 0.00074088486 -2.3788354e-05 0.00034812817 0.0009704506 -9.163947e-06 0.000323314
-0.0017120064 -8.455376e-05 0.0005727867 -0.00070713874 -0.0015745272 0.0040525007 0.0131962905 -0.0015940637
-0.0016676268 0.0035386262 0.0035310301 -6.363942e-05 -0.0015995814 -0.001686202 -0.0005192344 -0.0015206371
0.0016115076 7.470422e-05 0.0004761224 0.0005207488 0.001013025 -0.0032086733 -0.009802051 0.0013605302
0.0018843256 -0.001819656 -0.0020902106 3.0290572e-05 0.0014875499 0.0020538513 0.0003781269 0.0014223832
2.791718e-09 1.07403746e-10 1.5678633e-09 7.6520373e-10 1.6195484e-09 -4.1632116e-09 -1.3466303e-08 2.7325764e-09
3.6970615e-09 -1.6674392e-09 -2.511394e-09 3.4635654e-12 2.5839177e-09 4.131456e-09 5.552654e-10 2.6539226e-09

exp_avg_sq f4 [8, 16]
00000000: 3c81 e635 ede6 d431 2186 9036 4aaa d634
00000010: beec aa35 18cf 0937 66bc 2e38 2167 1536
00000020: 0987 5c36 d0dc b536 151e a336 b7a1 ac32
00000030: fb67 c135 807a 9636 e075 2b33 9604 3836
00000040: 69df 8936 8c40 7532 c08d 9d36 c690 0a35
00000050: 8810 5d36 a017 0d37 153f 5038 682f bf36
00000060: a229 ea36 25dd ae36 b194 0337 14a6 9632
00000070: b16d 6536 6595 0a37 3743 6333 bd2d e836
00000080: bd2d 8237 7322 2b33 ca98 1c38 4efe 4035
00000090: 694f 0637 7e33 0037 b950 9c38 f39a 0738
000000a0: 4aba 5138 5fdc 7838 7755 3c38 65dd b032
000000b0: 0b1e 5637 307d 9f38 ed6c 1833 abb6 0d38
000000c0: 908b 1a38 6849 1f34 66c0 9c38 ee2a 1937
000000d0: 0b7b 0838 75ea 4239 5085 873a 4c80 5c38
000000e0: f10d 8338 6341 ce38 8249 c738 b6a5 e434
000000f0: a10f 0238 c80e a238 8341 8f35 9e94 7038
00000100: 071e 9a37 c508 6933 b081 1738 6ad7 9535
00000110: 9dba 5237 d537 6a37 4a1c e538 69ed 1f38
00000120: a512 5438 1daa 4738 5b24 2838 9ab9 d632
00000130: 4a1c 7c37 e245 9a38 de54 9533 f075 2038
00000140: fe7d e337 c338 1c34 6427 8838 6323 2d37
00000150: 9fe9 cf37 96fa 9e39 ffa6 bb3a d2df d737
00000160: 274d 0138 c164 d238 911f d538 fb80 2935
00000170: 9778 c937 23aa 0538 0dec f735 4ce0 f737
00000180: 0397 2138 1128 2234 5cf0 a838 2938 1c37
00000190: 3937 0a38 bd0f 4239 7f03 8e3a 9632 5d38
000001a0: 3fba 8838 1212 dd38 4085 db38 3862 e834
000001b0: d863 0838 4818 ac38 3ad3 9435 2551 7738
000001c0: 5705 6e26 0fd9 4a22 bce7 2427 f89c 2f25
000001d0: 5dce 2d26 9a13 4e27 ccc7 a528 9c32 c726
000001e0: 59be 0227 3391 3927 49f0 1b27 2216 0923
000001f0: 7192 4526 b5bf 3327 e0e1 9a23 cd4e d026
1.7173948e-06 6.1962653e-09 4.307149e-06 3.9984508e-07 1.2734888e-06 8.214054e-06 4.1660292e-05 2.226276e-06
3.2861155e-06 5.4199263e-06 4.8612806e-06 2.0096975e-08 1.4409883e-06 4.4846092e-06 3.9921247e-08 2.7420806e-06
4.1089265e-06 1.4275553e-08 4.6954665e-06 5.161968e-07 3.2941189e-06 8.4097555e-06 4.9649814e-05 5.6977624e-06
6.97859e-06 5.2113487e-06 7.842828e-06 1.7537822e-08 3.4187508e-06 8.260225e-06 5.2913688e-08 6.9194634e-06
1.5518506e-05 3.984537e-08 3.7335594e-05 7.1895636e-07 8.0055115e-06 7.6413835e-06 7.4536954e-05 3.2330816e-05
5.000298e-05 5.9333044e-05 4.490229e-05 2.0589775e-08 1.2762389e-05 7.605029e-05 3.5489325e-08 3.3787142e-05
3.684644e-05 1.4834734e-07 7.474497e-05 9.129506e-06 3.253952e-05 0.00018588624 0.0010339413 5.2571573e-05
6.2491636e-05 9.835025e-05 9.502751e-05 4.258888e-07 3.100897e-05 7.727515e-05 1.0673397e-06 5.735887e-05
1.8372213e-05 5.4257516e-08 3.6121986e-05 1.1164059e-06 1.2560425e-05 1.3960486e-05 0.0001092484 3.812966e-05
5.0562103e-05 4.7603728e-05 4.008818e-05 2.499728e-08 1.5026957e-05 7.356309e-05 6.9537904e-08 3.825681e-05
2.7119178e-05 1.4549282e-07 6.4923224e-05 1.0319843e-05 2.4785111e-05 0.0003032281 0.0014316736 2.5734222e-05
3.082785e-05 0.00010032347 0.00010162511 6.31451e-07 2.4017221e-05 3.1868123e-05 1.8471634e-06 2.954914e-05
3.8526032e-05 1.5102002e-07 8.055635e-05 9.3114e-06 3.2953194e-05 0.00018507145 0.0010834782 5.2737618e-05
6.5196764e-05 0.00010541467 0.000104675535 4.328483e-07 3.2517913e-05 8.206122e-05 1.1088334e-06 5.896496e-05
8.2580074e-16 2.7491015e-18 2.2885195e-15 1.5232013e-16 6.0301107e-16 2.8598869e-15 1.8405328e-14 1.3822117e-15
1.8144312e-15 2.575262e-15 2.164083e-15 7.431472e-18 6.854657e-16 2.4945165e-15 1.6792375e-17 1.4454258e-15

exp_avg f4 [8]
00000000: f024 8ebb 780d 773a ac55 3bbc 0914 5fbc
00000010: a1a0 0dbc b036 343c 462f 77bc f1c0 00b3
-0.0043378994 0.0009424309 -0.011434 -0.013615617 -0.008644254 0.010999367 -0.015086954 -2.99778e-08

exp_avg_sq f4 [8]
00000000: 764f 4e39 2f68 c439 503a 6e3b f600 5a3b
00000010: 8518 543b 4da4 9f3a 9789 633b d98a f229
0.00019675292 0.00037461656 0.0036350675 0.0033264733 0.0032363248 0.0012179703 0.003471946 1.0771045e-13

exp_avg f4 [1, 8]
00000000: 92c4 613b d280 a53b 3fa2 023a a43f c0bb
00000010: d6c5 72ba 0f20 f0b8 d1f8 d0bc 3243 30b2
0.003444944 0.005050757 0.0004983283 -0.0058669616 -0.0009261047 -0.00011450063 -0.02550927 -1.0259827e-08

exp_avg_sq f4 [1, 8]
00000000: b318 c839 ee9b db39 c3d1 d238 d00a 683a
00000010: 65d3 ca39 a469 fb39 a666 c03b 6293 ba2a
0.00038165375 0.00041887112 0.000100526515 0.0008851709 0.00038685944 0.0004795316 0.0058716116 3.3142505e-13
