FinishedEmulators/screened_fofr_nonlin_Pk/version_7/checkpoints/epoch=312-step=25615920.ckpt (torch, 25157 bytes, 20 tensors)

hidden_layers.0.weight f4 [32, 7]
00000000: 0d25 d1bd 77b8 9abd e0d7 823b fc95 f5bd
00000010: e822 693e 2096 b2bd e85b 873e 5823 513f
00000020: 7452 063f df08 04bd a403 e0bb 4bc0 a03e
00000030: 4e34 8abe 05a5 e63f 4e05 f13e 3efc b4be
00000040: cd2c 24be d3e8 ebbc 3495 5e3d d034 bbbd
00000050: 92f9 3f3e 519b 0cbc 6bfd 8ebe b388 783d
00000060: 0e6f d23c 58b4 babd 5d08 47bf 2723 863d
00000070: f6aa 7ebe 3711 333f 8c3e 43be b011 4cbd
00000080: 5e7d e53e 7daf 7fbe aa2d f53e b546 41bf
00000090: 0df0 fabd 9db4 5fbe 10ab f1bc ab66 c43e
000000a0: 0814 64be 57d2 a3bf 7d89 1ebe 3a00 f2bd
000000b0: d6a9 93bd 03b4 e7bc 7cd2 b93e 6bcf ebbd
000000c0: f343 ea3e 66cd 76bc b6cd 4d3b b911 123c
000000d0: cb2c 083d f5db ab3b 44b4 9b3c c5ec f9bc
000000e0: fb8a b7be 139d a1be 4721 9f3c 4390 efbc
000000f0: 719f 9fbd 571d 50bd ebc6 803e 09c9 763e
00000100: e414 42be bef3 14be 8fb6 bcbc 91fe 443f
00000110: 47a6 28bf 71a6 823f a354 dd3e 09e1 85bf
00000120: c135 64be 6dff 31bd 723a d53e 8c70 93bf
00000130: 4926 b83f b6d5 a93e 64eb 583f e1b9 2d3e
00000140: 0068 c83d 6418 0f3e 78d2 7bbf 33f4 813e
00000150: cade 253b 1223 88bb 3846 8b3c 20f6 613d
00000160: ae58 8dbb 1e3c a4ba 4e4c 1abc e32e d6bd
00000170: 001f 983d b16d 62bd 01b3 92bd ac07 833e
00000180: 40aa 3fbe 1aed 923e 586a 913e 59d9 adbe
00000190: abcf 39bd 4d54 2b3b de5c c93e c1ba 5abf
000001a0: 707e e93e ed49 dabe 43eb 85bf b390 ddbd
000001b0: defd 22bc 8c10 883f ea32 2dbf 7210 0a3f
000001c0: af38 05bd 408c 37bf 97ad 45be 30a4 4abd
000001d0: 9a60 953e 360f a2be a993 7c3f bdcc b2bc
000001e0: 5b8c 163e f7c1 feba 8f6f a23b 82bc 943e
000001f0: 4ec4 39bf a0ed 2b3f 8f27 293e 0a1a 453e
00000200: 4114 9e3d b8f4 8d3c 22ac 193e 874d dabb
00000210: 2109 80be 77b1 e53c 990e d2be d503 213f
00000220: 5d0d 7d3e 40c7 793e 7313 04be 5eb2 9b3e
00000230: cfe2 053a ba14 06ba 5889 d13b ed6a 4f3d
00000240: 7735 9eba fa07 383a 0dac 65bc 95e8 e23d
00000250: 8779 29be 8fce db3e 708e bf3d 0660 ac3c
00000260: 7b27 b1bc f4a7 a03c 4ad7 11bc 24ab 10bb
00000270: e165 273c a282 133d 208c c0bb 96fc 69bc
00000280: c537 fbbc 9cf1 063c 85a9 7fbb 1798 083c
00000290: 8e19 41bd 0089 8aba 05c7 8e3a 44c9 8e3c
000002a0: cd18 323d 86ea 943d 5f15 46bc 6a6d ae3c
000002b0: 22fc 443e b7db 9cbd c7f0 4a3d 9a49 4e3d
000002c0: 2d64 61be 51a9 dabe e6ce b2bd f4eb 3e3e
000002d0: be40 93be d6be 843e e7ef b9be dd48 093d
000002e0: f9fb 1cba 710e 803d 08a3 333e ca6f 80be
000002f0: b700 a13e 533b 5cbf 8251 81bf e61c 58be
00000300: 8f98 39bd 527a f43e fb88 8abe 0117 0dbf
00000310: 65b9 6a3e 05ff 17be 8e14 033d 9669 823c
00000320: a871 3dbe 4ab6 35bf b42e d43c db55 ec3d
00000330: eb9b 843d 8aca c6bc d9da 3dbc 45ce 31bd
00000340: 0b6d b93c 36e2 0dbd 7168 a53d 8f98 aabd
00000350: 9be6 89bd 5e47 3fbc 3b57 503e 4e05 3dbe
00000360: 370d 7d3f ef0f c0be 39c7 cdbf 7fc7 39be
00000370: 0991 78bd c384 f23e c5f1 96be 01bd 1d3f
-0.10212145 -0.07554715 0.0039930195 -0.11991498 0.22767222 -0.0872004 0.26437306 0.81694555
0.52469563 -0.032235023 -0.0068363715 0.31396708 -0.2699303 1.801911 0.4707436 -0.35348696
-0.16032715 -0.028797543 0.05434151 -0.091409326 0.18747547 -0.008581952 -0.27927718 0.06067724
0.02568772 -0.09116429 -0.77747136 0.065496735 -0.24869904 0.6994814 -0.19066828 -0.049821556
0.4482221 -0.24969287 0.478864 -0.75498515 -0.12252817 -0.21846242 -0.029500514 0.3835958
-0.22273266 -1.2798566 -0.15482135 -0.118164495 -0.07210128 -0.028284078 0.362934 -0.11514171
0.45754966 -0.015063619 0.003140313 0.008915358 0.033245843 0.005244727 0.019006856 -0.030508408
-0.3584822 -0.3156515 0.019425048 -0.029243594 -0.07794083 -0.05080923 0.25151762 0.24100126
-0.18953282 -0.14546105 -0.02303627 0.7695094 -0.6587872 1.0207044 0.43228635 -1.04593
-0.2228613 -0.043456484 0.41646153 -1.1518722 1.4386684 0.3317086 0.8473418 0.16965438
0.097854614 0.13974148 -0.98368025 0.25381622 0.0025309795 -0.0041545713 0.017001256 0.055166364
-0.00431355 -0.0012530123 -0.0094176065 -0.10458162 0.07427788 -0.05528039 -0.071630485 0.2559179
-0.18717289 0.2869652 0.28401446 -0.33954886 -0.045364063 0.0026142776 0.39328665 -0.85441214
0.45604277 -0.42634526 -1.0462421 -0.10818615 -0.009948222 1.063005 -0.67655814 0.53931344
-0.03252476 -0.7169838 -0.193045 -0.049472988 0.29175264 -0.3165223 0.9866281 -0.021826142
0.14701979 -0.0019436468 0.0049571465 0.2905007 -0.7256516 0.6715946 0.16518997 0.19248214
0.07718707 0.017328605 0.1500707 -0.006662074 -0.25006965 0.028038723 -0.41026762 0.6289647
0.24712129 0.24392414 -0.12898044 0.3040952 0.00051073445 -0.0005114783 0.0063945465 0.05063908
-0.0012070377 0.00070202316 -0.014018071 0.11079518 -0.16550265 0.4293103 0.0935334 0.021041881
-0.021625271 0.019611336 -0.008901427 -0.0022074664 0.010217161 0.036013253 -0.005876079 -0.014281413
-0.030666241 0.008236315 -0.0039010954 0.008337042 -0.04714351 -0.0010569394 0.0010893053 0.017429955
0.043480683 0.07271294 -0.012090056 0.021292407 0.19236806 -0.07659095 0.04954603 0.05036316
-0.2201087 -0.42707303 -0.08730869 0.18644696 -0.28760332 0.25926846 -0.36315843 0.033516753
-0.00059884746 0.062527545 0.1754266 -0.25085288 0.31445858 -0.8602802 -1.0102999 -0.21104774
-0.045311507 0.47749573 -0.27057633 -0.55113226 0.22922285 -0.14843376 0.032002024 0.015919488
-0.18500388 -0.70981276 0.025901176 0.11539813 0.064750515 -0.0242665 -0.011587822 -0.043409605
0.022635004 -0.03463956 0.08076561 -0.083298795 -0.06733438 -0.01167473 0.20345776 -0.18459055
0.9884829 -0.37512156 -1.6076423 -0.18142508 -0.06068519 0.47366914 -0.2948133 0.6161652

hidden_layers.0.bias f4 [32]
00000000: c8cc 203d 2c21 6ebe 9128 2f3d fe59 123f
00000010: 7230 f43f e56b 463f f05a 5c3d b6e0 15bb
00000020: 3673 a83c 8ebb 4b40 fa77 183f 1700 153e
00000030: 7e0b 45bb 0da8 c13d 86fd ff3f bb46 8340
00000040: 1300 743f 3648 5c3e cf00 103e a1a1 903f
00000050: eb19 32bb cf65 963e 07c7 98ba a56f fb3a
00000060: ba12 7f3f d9b0 143f c644 493e 6a04 2840
00000070: 05bb 19bf e788 a7bd 11d3 3a3f d357 6f3f
0.039257795 -0.23254842 0.042763297 0.5716857 1.9077284 0.77508384 0.053797662 -0.0022869534
0.02056275 3.1833224 0.5955807 0.14550816 -0.0030066664 0.09455881 1.9999244 4.102384
0.95312613 0.21511921 0.14062808 1.1299325 -0.0027176093 0.2937455 -0.0011655994 0.0019183053
0.9963795 0.5808235 0.19655141 2.6252694 -0.60050994 -0.08180409 0.7297831 0.93493384

hidden_layers.1.weight f4 [16, 32]
00000000: c2fd e7b6 ca90 9b38 cec4 f433 dea3 97b6
00000010: eabd 8db7 9386 bab6 9b55 efb5 4627 0bb8
00000020: c6c9 f3b7 6deb 8137 df14 a136 d739 e8b7
00000030: 07c7 f136 efa7 05b7 28cb 9fb7 1a87 c336
00000040: ed16 3c38 1da3 0037 12b1 b236 b924 0ab7
00000050: 6ff6 d736 9876 91b7 6e2b 3838 450d 96b7
00000060: 7a70 a3b5 18a5 04b8 8d0d 29b7 b618 30b8
00000070: 8443 3db7 1eb4 f3b7 f6c9 2237 9852 3fb6
00000080: 73e6 abbd 5438 9fbe e763 803d 4057 0f3e
00000090: da31 b83e 3a6a 6a3e 3e38 0abd 5b5d 2c3c
000000a0: 50cc 993b eac5 65bf bc39 663e a0b5 d9be
000000b0: 9096 8d3c 1de2 1dbe 0ff9 5a3f 99a3 343e
000000c0: 2178 e8be 0bef 6ebe 8630 60bd 20d9 2a3e
000000d0: 51a7 6c3c aa76 083e e38a 6abb e253 9fbb
000000e0: 13ca f13e b063 2c3f 6c40 edbd 8ab3 45bf
000000f0: 4945 c6be 85fc a3bd 9b61 84bd a826 10ba
00000100: bade a5bd 6d71 f0bd a312 883d acf3 cc3d
00000110: a12a 6a3d 5ee6 f6bd de96 01bd c4a7 74bc
00000120: 027c ae3d ef93 f33d 5f25 363e b814 f8bc
00000130: 23f9 96bc d583 69bd db69 b13d 021b ba3d
00000140: 65f4 f7bb b7cc ca3d eca4 dbbd 2b68 f7bd
00000150: e873 84bc 09af d1bc 57cd 5abc 8a2f 483c
00000160: 480c a63d 75b2 303e 2e75 7cbd f2f4 973c
00000170: 2a63 3abe 111c 68bd b81b 173d e390 363d
00000180: 81df fdbd ad87 713e 691f 35be bae6 3bbe
00000190: 858e 663f 2a36 38bf b4c9 0abe ea75 9b3c
000001a0: 80bc 5ebe 51f6 c3be ff4e 4e3e c58a 63be
000001b0: 1801 933c f895 04be 36b6 523d 29c7 61bf
000001c0: 773d e9be 52df 8fbc e63e a53d 0e24 1f3f
000001d0: 8262 8f3c 7dee 903e d600 bb3c dc41 01bd
000001e0: d112 333f 1547 0abe 724d 0ebe 6ff9 2e3f
000001f0: da36 98bd b127 24be 42f6 41bf eb62 3e3e
00000200: 9157 ec36 3847 82b8 dccf 7c36 9659 76b5
00000210: 3632 5037 2519 cbb6 17bd 2c35 7de0 d837
00000220: 57e5 2238 da66 92b6 1402 1ab6 9617 f537
00000230: e0e9 ba34 5b11 e936 9d48 8c37 e834 bdb6
00000240: 869d 2bb8 7993 e4b6 a58f 7fb6 f8b5 9b36
00000250: f07a c0b5 760d 9337 1d1d 05b8 e2db 3f37
00000260: 5665 0b34 e8a7 a137 ba18 cb36 81fc 1138
00000270: 700f bd36 85e8 fe37 fdf1 d8b5 971b 9a35
00000280: f83a a83e ddcb 69bf 6366 973c c00d e43b
00000290: 2acb abbc dbd8 5f3f f9a2 72bc f2cb aa3b
000002a0: 0aef 43bc b79f d93f 9f2d 7abf a369 40be
000002b0: a81f 573c d72b c43e b6f4 3bbe 708f 1dc0
000002c0: db64 e73e f451 a6bc 16c7 403e 607b 4b3e
000002d0: 771f 0e3c a608 c4bd 088d ff3b 0eb2 1abb
000002e0: c268 7bbe e4a9 28be 7c50 053f db99 80bf
000002f0: c290 2d3e 82cc 8e3d 111a 0bbe aa5a 23bf
00000300: 2697 9337 fbfe d3b6 0ce9 feb6 515e 9b37
00000310: 83ab 89b6 579c 5538 da21 7137 3657 2137
00000320: 3136 bab7 450c 10b7 2bcc 17b7 128e 68b7
00000330: c9a7 9637 361b 3a37 8c1f 82b7 b717 0937
00000340: 2fd7 dc36 3970 57b6 0602 85b5 330f d536
00000350: 8b54 5f37 753a ad37 4d87 8b37 df88 29b7
00000360: f15b 23b7 a87e c836 b63d 5436 b4e0 11b6
00000370: 6344 4536 9273 5637 c08d 1ab7 d098 f336
00000380: f62a 93b6 e795 1ab8 5d1b 09b7 723c 80b7
00000390: aec7 ac37 8648 4fb8 b445 e0b6 029a 7eb7
000003a0: 9279 e337 a717 22b7 c851 00b6 186c 7b37
000003b0: 4d3b e336 2ff0 98b5 ad30 fa35 fb6c 26b7
000003c0: 735a f7b7 ddd1 d3b5 d6bc 5cb7 f922 eeb6
000003d0: dea3 e635 9c60 2e34 3d59 28b5 d8f0 33b6
000003e0: 9092 6eb7 7183 f936 e562 fcb4 a820 f536
000003f0: 0286 5eb5 3e8f 0336 fa90 3036 7b24 3ab6
-6.9138778e-06 7.417945e-05 1.1397934e-07 -4.5192273e-06 -1.6896945e-05 -5.5588985e-06 -1.7831802e-06 -3.317676e-05
-2.9061815e-05 1.5487627e-05 4.8006036e-06 -2.7683489e-05 7.2055295e-06 -7.966518e-06 -1.9048879e-05 5.8271808e-06
4.4844044e-05 7.667372e-06 5.325427e-06 -8.233991e-06 6.436188e-06 -1.7340572e-05 4.3909466e-05 -1.7887573e-05
-1.2177181e-06 -3.1625008e-05 -1.007634e-05 -4.1984684e-05 -1.1280998e-05 -2.9051731e-05 9.702975e-06 -2.8509294e-06
-0.08393564 -0.31097662 0.06269055 0.13998127 0.35975534 0.22892085 -0.033745043 0.010520305
0.0046935454 -0.8975512 0.22482961 -0.4252138 0.017283708 -0.15418287 0.85536283 0.17640533
-0.4540415 -0.23333375 -0.054733776 0.16684389 0.014444188 0.13326517 -0.003578835 -0.0048622945
0.47224483 0.6733961 -0.11584553 -0.7722708 -0.38724735 -0.08007149 -0.06463929 -0.00054989243
-0.08099122 -0.11740384 0.0664418 0.10007414 0.05716956 -0.12055658 -0.03163802 -0.014932577
0.08519746 0.118934505 0.17787693 -0.030283317 -0.018429345 -0.05701049 0.086627685 0.090871826
-0.007566976 0.099023275 -0.10724816 -0.12080415 -0.01616855 -0.025596159 -0.013354621 0.012218365
0.08107811 0.17255576 -0.06163519 0.018549416 -0.1820189 -0.05666739 0.03689167 0.04457177
-0.123961456 0.23586912 -0.17687763 -0.18349734 0.9006122 -0.7195765 -0.13553506 0.018977124
-0.21751595 -0.38273862 0.20147322 -0.22220905 0.017944857 -0.12947834 0.0514433 -0.8819452
-0.45554706 -0.017562542 0.080686375 0.6216439 0.017503027 0.28306952 0.022827547 -0.03155695
0.69950587 -0.13503678 -0.1389673 0.68349355 -0.07432337 -0.16030766 -0.75766385 0.18592422
7.043542e-06 -6.2121486e-05 3.7671916e-06 -9.1772506e-07 1.2409457e-05 -6.0527987e-06 6.4350155e-07 2.5853742e-05
3.88374e-05 -4.3631126e-06 -2.2948998e-06 2.9217259e-05 3.4815366e-07 6.9459616e-06 1.6723114e-05 -5.638798e-06
-4.0916282e-05 -6.8120976e-06 -3.8081573e-06 4.640544e-06 -1.4340894e-06 1.7530034e-05 -3.1736785e-05 1.1435683e-05
1.298225e-07 1.9270883e-05 6.05275e-06 3.4805857e-05 5.634436e-06 3.0387435e-05 -1.6163682e-06 1.1481924e-06
0.3285749 -0.91326696 0.018481439 0.006959647 -0.0209709 0.8744027 -0.0148093635 0.0052123005
-0.011958847 1.7001866 -0.9772586 -0.18790297 0.013130106 0.38314697 -0.18355069 -2.4618797
0.45194134 -0.02030275 0.18825945 0.19871283 0.008674494 -0.09571962 0.0077987947 -0.0023604664
-0.2455168 -0.16471058 0.52075934 -1.0046953 0.16949752 0.069726005 -0.13584162 -0.6381022
1.759415e-05 -6.3179737e-06 -7.59692e-06 1.852136e-05 -4.1028848e-06 5.092876e-05 1.4372601e-05 9.616653e-06
-2.2198163e-05 -8.585926e-06 -9.047838e-06 -1.3861356e-05 1.7959524e-05 1.10927995e-05 -1.5511898e-05 8.171358e-06
6.5815616e-06 -3.2102819e-06 -9.909861e-07 6.349664e-06 1.331152e-05 2.0650428e-05 1.6633096e-05 -1.0105053e-05
-9.736964e-06 5.975209e-06 3.1626382e-06 -2.1737478e-06 2.9395094e-06 1.2782302e-05 -9.212119e-06 7.259754e-06
-4.3859427e-06 -3.685607e-05 -8.172207e-06 -1.5286936e-05 2.059698e-05 -4.942019e-05 -6.6838347e-06 -1.51754375e-05
2.711712e-05 -9.661459e-06 -1.912109e-06 1.4985933e-05 6.7720307e-06 -1.1394785e-06 1.8640618e-06 -9.919745e-06
-2.9486813e-05 -1.5781803e-06 -1.3156989e-05 -7.097024e-06 1.7184027e-06 1.6240159e-07 -6.2714736e-07 -2.6813268e-06
-1.422003e-05 7.43608e-06 -4.7010613e-07 7.3053707e-06 -8.289645e-07 1.96039e-06 2.6310431e-06 -2.7737394e-06

hidden_layers.1.bias f4 [16]
00000000: 6137 6a37 30e8 4cbf 5f6c bcbe dc44 0dbf
00000010: 6454 47b7 59c7 8fbf 35cd 1ab7 3e0a 6ab6
00000020: 0c04 94be a093 90be 370f 1fbf 1650 bcbe
00000030: d158 28bf 81a7 c5be 0c80 17bf a079 6fb7
1.3960381e-05 -0.8004179 -0.3680143 -0.55183196 -1.1880973e-05 -1.1232711 -9.226894e-06 -3.487468e-06
-0.28909338 -0.2823763 -0.6213259 -0.3677985 -0.65760523 -0.38604358 -0.5917976 -1.4273828e-05

output_layer.weight f4 [1, 16]
00000000: fd79 0337 982d 29bf 77a3 a3be 02ca 7dbf
00000010: 57a0 c3b6 f53b c9bf 54c1 69b5 1c62 0535
00000020: 6f05 823f bb6f febe 625b 2ebf fba3 a3be
00000030: 5ef0 3bbf 4ad1 273f 75df 1bbf 5d3e 03b7
7.836611e-06 -0.66085196 -0.3196065 -0.99136364 -5.830119e-06 -1.5721422 -8.7080593e-07 4.968913e-07
1.0157908 -0.4969462 -0.6810819 -0.31961045 -0.73413646 0.65553725 -0.60887843 -7.822729e-06

hidden_layers.0.weight f4 [32, 7]
00000000: b421 51ba d132 5aba 7eb0 bc3a 904b 86b9
00000010: 03da d63a 3caa b0b7 2f1c c2b9 ec7b e739
00000020: 0c49 243a 86ce c9ba 629f 4a38 d07d 10b9
00000030: 7219 e839 16bc b2ba 875b 98ba 5f4a 95ba
00000040: 3a2a 10bb 0099 4839 3c15 0bb9 c776 f1b6
00000050: ac2f a139 8919 47ba e5f8 8b39 06ba 92ba
00000060: 356d 153b 3d04 81b9 14c4 bfb8 6a15 aeb9
00000070: b287 e7ba 88ff 3038 b837 84ba 6bfc dcb9
00000080: 6744 4239 69d5 19ba c5db 4738 7ef2 9aba
00000090: f301 253a c073 903a 2a54 573b ee14 0c3b
000000a0: 7933 61ba b393 073b f5c4 4db9 95c6 b3ba
000000b0: 97e7 b6b9 2729 b2ba ee8d c33a 5f36 97b9
000000c0: 4f14 2bba b9ef 8e39 2692 183a bf9c e439
000000d0: 7279 0c3a 128b a038 4247 423a 965f c83a
000000e0: 7597 92ba 7e62 ecb9 f967 91ba a318 293b
000000f0: 66ff b038 7418 003a 15e5 013a 2b36 9b3a
00000100: 472c 4aba 3003 e838 8a4a 0c3a 14a4 f73a
00000110: 17e0 c437 aec2 c4ba a4a7 02bb b5a9 e9b9
00000120: 8ffa 393a ca1f 1fb9 7359 053a 4444 4a39
00000130: b7b8 ac3a 48de 9bba 001e 88ba de99 f13a
00000140: 6a3f 8eba be85 423a 9918 7439 81e6 813a
00000150: c143 7fba 12dc c2b9 b292 97ba f87f 063b
00000160: 0f19 0aba 8b61 5739 c875 5739 75c4 80ba
00000170: d672 b1ba 4b9d a9ba 26eb bb39 8938 103b
00000180: aff2 bdb9 c013 d1ba 5309 e8ba 85a6 db3a
00000190: 1981 5e39 74fb 37ba 2d3e e1ba 5605 4eba
000001a0: f9bc de3a dd3f 9c3a 38b5 3eb9 2634 9a3a
000001b0: cd26 2f3a a75a 98b9 05a6 0239 34f0 d238
000001c0: d6de b3ba 0340 543a 0f32 5c3a 8587 743a
000001d0: f118 8c38 12dc a93a e23c 53b8 0640 98ba
000001e0: bfa8 e8b9 3e70 dab9 8147 48b8 cc20 b13a
000001f0: 427a b638 d301 1eba 44bf 4b3a 7dac 063a
00000200: ec02 9bb9 53e5 073b d92c 12b9 e71b 56ba
00000210: 8ed7 953a 5a11 3b3b 0ba5 81ba ab77 34b9
00000220: b8aa e5ba 6a3b 4a3b efc0 1d39 0780 57b7
00000230: edae 86ba 2ef9 3239 f366 0dba 727b 9d3a
00000240: 4df8 f237 832e 08b8 8345 723a 083a bb38
00000250: 63dc 3f3a d0dc f539 c4c3 dcb9 3fcd 09ba
00000260: ad73 d03a 050b 503a ab4c 9437 521a 6539
00000270: 173f 3139 53b2 0539 4853 8f38 bf87 443a
00000280: 221a 7f39 7ee0 14ba d96d acb9 772a 88b9
00000290: 42ec dab9 045d 99b8 3ab8 b33a dd40 8339
000002a0: 40a2 6039 5d60 9cba 0a7d b9ba 859e 30ba
000002b0: 5dd6 783a 9cd3 7f3a 9d2f 0eba c924 3c3a
000002c0: 7fea d2b9 6527 f6ba 78dc c2ba 366b 8739
000002d0: 4c51 ac3a 6d0b 033a 7500 e739 9a91 e8ba
000002e0: 140c 15ba f9d9 283a b93e 8d3a 3515 4f3a
000002f0: 7258 0cba 867b 62b9 8aae 1e39 52bd 8dba
00000300: 4ff3 4f36 bac7 dcb9 2b25 65ba fa01 ae38
00000310: f25e 9e3a e1fd 173a e9a5 ce39 57f9 a8b9
00000320: 3ee4 4239 b0a4 d4b9 d964 b4b9 5eac 873a
00000330: 6bc4 983a e805 97ba 01dc 2dba 31b1 6639
00000340: 1ff8 6239 7ab2 18b6 c0be 19ba 9064 2c3a
00000350: fe1c 7b39 e767 83ba ee14 bf3a 6605 9c38
00000360: 1826 d138 d646 31b7 c419 7f3a dd21 90ba
00000370: 6582 2539 c417 d33a d1e4 bdb9 237f 03bb
-0.00079777394 -0.0008323612 0.001439586 -0.0002561477 0.0016391877 -2.1060107e-05 -0.00037023562 0.00044152082
0.00062669883 -0.0015396632 4.830899e-05 -0.00013779779 0.00044269447 -0.0013636376 -0.0011623957 -0.0011389962
-0.0021997825 0.00019130483 -0.00013263983 -7.196187e-06 0.0003074383 -0.00075950526 0.00026697587 -0.0011194355
0.0022800688 -0.00024607955 -9.144112e-05 -0.0003320382 -0.0017664342 4.2199652e-05 -0.0010087406 -0.00042149736
0.00018526764 -0.00058682874 4.7649974e-05 -0.0011821536 0.0006294541 0.0011020824 0.0032856562 0.002137478
-0.0008590739 0.00206874 -0.00019623696 -0.0013715798 -0.00034886293 -0.0013592587 0.0014919618 -0.00028841474
-0.00065261585 0.00027262958 0.00058201177 0.00043604334 0.0005358673 7.6552984e-05 0.0007411131 0.0015287276
-0.0011184054 -0.0004508681 -0.0011093608 0.0025802038 8.439906e-05 0.00048864563 0.00049550954 0.0011841705
-0.00077122863 0.00011063216 0.00053516834 0.0018893504 2.346937e-05 -0.0015011632 -0.0019936347 -0.00044567665
0.0007094526 -0.00015175264 0.00050868763 0.00019289652 0.0013177608 -0.0011891806 -0.0010384917 0.0018432697
-0.0010852639 0.0007420442 0.00023278817 0.0009910614 -0.0009737574 -0.0003716653 -0.0011564104 0.0020523053
-0.0005268016 0.00020540335 0.00020547875 -0.0009824174 -0.0013538252 -0.0012940554 0.0003584262 0.0022006354
-0.00036229703 -0.001595132 -0.0017702974 0.0016758001 0.00021219662 -0.00070183654 -0.0017184668 -0.00078590715
0.0016993574 0.0011920888 -0.00018187321 0.0011764809 0.0006681502 -0.0002905924 0.00012459613 0.00010058322
-0.0013723026 0.00080966967 0.00083997933 0.00093280553 6.680366e-05 0.0012959263 -5.036302e-05 -0.001161576
-0.00044376214 -0.00041663827 -4.775031e-05 0.0013513803 8.7012086e-05 -0.00060274935 0.0007772336 0.0005137397
-0.0002956608 0.0020736053 -0.00013940352 -0.000816761 0.0011432038 0.0028544278 -0.0009891106 -0.00017210717
-0.0017522192 0.0030858167 0.0001504456 -1.2844807e-05 -0.0010275521 0.0001706823 -0.0005394064 0.0012014939
2.8964272e-05 -3.2468244e-05 0.00092419254 8.927664e-05 0.0007318912 0.0004689456 -0.00042107527 -0.00052567193
0.0015903615 0.00079362124 1.7678676e-05 0.00021848947 0.00016903538 0.000127503 6.834284e-05 0.00074970344
0.0002432843 -0.0005679204 -0.0003288824 -0.0002597158 -0.00041756226 -7.312934e-05 0.001371152 0.00025034594
0.00021422748 -0.0011930574 -0.0014151644 -0.00067374884 0.0009492392 0.000975901 -0.0005423965 0.0007177112
-0.00040229034 -0.0018780051 -0.001486673 0.00025829085 0.0013146787 0.0004998956 0.00044060094 -0.0017743588
-0.00056856987 0.0006441172 0.0010776139 0.00078995834 -0.00053537556 -0.00021599056 0.00015133075 -0.0010813868
3.0987028e-06 -0.00042110478 -0.0008741195 8.297335e-05 0.0012082739 0.0005798024 0.00039414995 -0.0003222923
0.00018586309 -0.00040558493 -0.00034407413 0.0010351052 0.0011655217 -0.0011522146 -0.00066322094 0.00022000518
0.00021645472 -2.2753652e-06 -0.0005864911 0.0006576264 0.00023948026 -0.0010025472 0.0014578381 7.439665e-05
9.972992e-05 -1.0566515e-05 0.00097313174 -0.001099642 0.00015784202 0.0016105105 -0.0003621937 -0.0020064793

hidden_layers.0.bias f4 [32]
00000000: 0000 0000 0000 0000 0000 0000 0000 0000
00000010: 0000 0000 0000 0000 0000 0000 0000 0000
00000020: 0000 0000 0000 0000 0000 0000 0000 0000
00000030: 0000 0000 0000 0000 0000 0000 0000 0000
00000040: 0000 0000 0000 0000 0000 0000 0000 0000
00000050: 0000 0000 0000 0000 0000 0000 0000 0000
00000060: 0000 0000 0000 0000 0000 0000 0000 0000
00000070: 0000 0000 0000 0000 0000 0000 0000 0000
0.0 0.0 0.0 0.0 0.0 0.0 0.0 0.0
0.0 0.0 0.0 0.0 0.0 0.0 0.0 0.0
0.0 0.0 0.0 0.0 0.0 0.0 0.0 0.0
0.0 0.0 0.0 0.0 0.0 0.0 0.0 0.0

hidden_layers.1.weight f4 [16, 32]
00000000: b216 bab8 6d5b e837 aa4d 6bba 290b c9b9
00000010: 51d8 0bba ed70 dc39 e49e 04b9 eb88 b23a
00000020: 908a 803a f6f4 d2b9 c453 36b8 6b87 da38
00000030: 00e0 0d3b 9b15 1439 25cf f4b9 42ec f7b9
00000040: 2986 a2ba 818c d13a b539 543a 2ad4 c4b9
00000050: 474a 9539 fcfe aab9 5084 1db9 1aa8 f6b7
00000060: f5c0 ddba 810c 3f3a 949b b139 d7c1 a8ba
00000070: 78cc ae38 9a50 35ba a99c df3a abf9 3eba
00000080: 5248 b23a e539 243a e55d feb8 b3f4 12ba
00000090: 6d92 f7ba 1793 79b9 de6a b63a 5b5c d2b9
000000a0: b3ce 55ba 082c 61b7 e9f5 24ba dcfc d73a
000000b0: e240 a238 943d 473a 3ed9 0d3b 9608 0137
000000c0: 8f7a f8b8 d008 e43a 1c42 15ba 0301 ab39
000000d0: 729e 00ba 0cb0 56ba ae64 b9b9 b705 a838
000000e0: b468 cd3a 2117 74ba 5c91 d13a 2115 37b9
000000f0: 6d64 6a39 8067 6e3a 52d8 d1b9 c4cc 3d3a
00000100: 98e5 bc3a 8111 13ba dd67 a539 48ec abba
00000110: 231b ee39 56b8 8dba 3d82 59ba 9776 0b3a
00000120: 858b 933a d5db 11ba a137 43ba 3aa1 77ba
00000130: bf76 7839 db78 1b3a d7f0 0335 48e2 51ba
00000140: db5e f13a 3b14 013a cbfb 0a3b b7b8 e6ba
00000150: 060b a23a 3c63 143b 7812 fb39 37ca d3b9
00000160: e9a8 e9b9 4ad7 203a 5200 64b9 aebd 3439
00000170: ddfa 9fba 2b74 1738 f7a6 773a 6d42 19bb
00000180: 1101 0ebb 3aff 11b9 558a e7b7 9e68 2739
00000190: d654 9139 1267 bf39 2d09 2d3a ee6c e839
000001a0: 8fd8 a1ba 5302 d539 95a5 d4ba c145 5d38
000001b0: 5d10 033a f694 78ba b1fb a8ba 183f 8bb9
000001c0: d5c5 59ba 5847 453a 1dbc 12ba ef06 eab9
000001d0: a27f 5238 a4a1 c0b5 323f 69ba 1899 47b8
000001e0: 92d8 2fba 2ecf 5d3a 7cf0 93ba 8cb3 263a
000001f0: 50de 97ba 9ac5 0fba c9c8 81b9 4bac 4139
00000200: 99f4 41ba 0a69 9339 bbe8 913a f53c 153a
00000210: 72d8 11ba 2a12 4a3a e752 c33a 4c9b 3aba
00000220: 96f9 9e39 8359 e43a f4ec 5d39 5aa1 59ba
00000230: c5b2 d1ba 9482 99ba e8a7 3e39 142b 533a
00000240: 2212 a7ba a0ab 89b9 903e 693a 2eef 753a
00000250: 9c5d 23ba 6a01 613a 1beb 8039 8fe1 b8ba
00000260: c08d 01b7 2a95 85ba a0bf c539 b024 913a
00000270: 959d 10b9 8f2e b33a e529 e7ba 03d3 b039
00000280: fb29 a139 34c5 b63a ec5e 513a 6b0f 903a
00000290: 096c d1ba 1205 6c3a 23cb 8fba af79 433a
000002a0: ead8 5e3a 458f 0a38 dc83 803a 01e0 6c3a
000002b0: d6d8 4a39 49af 19ba a2cf 8f3a c83a cbb9
000002c0: f630 623a 111e 853a f0fa b93a de20 913a
000002d0: 6312 abb9 fee2 feb9 b04a b5b9 8804 39ba
000002e0: 7118 55ba 6368 6139 b0f9 8d39 6fb2 d93a
000002f0: 6420 293b 2691 2cbb 0787 9239 8e67 5839
00000300: 6b61 e93a 5dee 51ba 5efd 53b9 bafb 153a
00000310: f638 a4ba 57ad bbba e65c a83a e7f0 a337
00000320: d7e9 2cba 2735 0f3b 8ce4 c53a bf3f 7d39
00000330: 9bf0 9b3a b4ab 16bb 3b93 b33a 3891 ee38
00000340: e483 293a 60b2 553a e0f3 56ba 38ff 82ba
00000350: 9666 a8ba 471b bc3a 4d65 3bba 0a09 e63a
00000360: 38fd ce39 c62b 13b9 7af2 9dba fe6c 80ba
00000370: e9c1 c83a a67c 9d3a 69ea 523a e382 95ba
00000380: cc86 b739 4025 0ebb dc0a 563a 1844 30b9
00000390: 67f7 583a 09af 12ba 7ff2 8d3a 93fc 5d39
000003a0: 4f06 813a fb6f d338 dd0c 893a 4974 dd39
000003b0: f540 8938 c4d0 18ba 845d 48ba e3ae 9439
000003c0: c5e9 28ba f963 e2b9 ef14 7c3a 1762 5c3a
000003d0: 2c1a f93a 63fb d63a d353 0fba a116 9e3a
000003e0: 0e83 2f3b 7dba ed3a 87a3 9239 c5bb fdb9
000003f0: a121 3f39 d30c e539 79d6 3cba 7b5a a639
-8.8733985e-05 2.7699129e-05 -0.00089761114 -0.00038346022 -0.0005334663 0.00042045806 -0.00012647692 0.0013621127
0.000980692 -0.0004023683 -4.3470194e-05 0.000104202736 0.0021648407 0.00014122429 -0.0004669364 -0.00047287537
-0.0012399602 0.0015987308 0.0008095757 -0.00037542108 0.00028474836 -0.00032614905 -0.00015021977 -2.9403764e-05
-0.0016918468 0.0007287935 0.00033875986 -0.0012875152 8.335052e-05 -0.00069166126 0.0017060238 -0.0007285128
0.0013601875 0.00062647305 -0.00012129153 -0.0005605921 -0.0018888243 -0.00023801286 0.0013917347 -0.00040123131
-0.0008156106 -1.3421297e-05 -0.0006292747 0.0016478556 7.736847e-05 0.00076004234 0.002164438 7.690998e-06
-0.0001184839 0.0017397646 -0.000569375 0.00032616415 -0.00049064227 -0.0008189685 -0.00035360962 8.011929e-05
0.0015671463 -0.0009311308 0.0015988755 -0.00017460111 0.0002235339 0.0009094402 -0.00040024758 0.000724029
0.0014411686 -0.0005610213 0.00031548637 -0.0013116682 0.00045415116 -0.0010812383 -0.00082973 0.00053201005
0.001125679 -0.00055640686 -0.0007446949 -0.0009446327 0.0002369536 0.00059307896 4.915177e-07 -0.0008006436
0.001841511 0.0004923974 0.002120721 -0.0017602657 0.0012362904 0.0022642156 0.0004788821 -0.00040395718
-0.0004456707 0.0006135596 -0.00021743894 0.00017236799 -0.00122055 3.6109395e-05 0.0009447182 -0.002338554
-0.0021668116 -0.00013923357 -2.7601762e-05 0.00015965334 0.00027719763 0.00036507152 0.00066007936 0.00044331647
-0.0012347865 0.00040628258 -0.0016223664 5.275547e-05 0.0004999692 -0.0009482646 -0.0012892393 -0.00026559155
-0.00083073723 0.00075255847 -0.0005597489 -0.00044637124 5.018677e-05 -1.4352158e-06 -0.00088976615 -4.7587877e-05
-0.00067079917 0.0008461353 -0.001128688 0.0006359152 -0.001158664 -0.0005484462 -0.00024754394 0.00018470098
-0.00073988136 0.00028116285 0.0011131981 0.0005692982 -0.0005563564 0.0007708395 0.0014902026 -0.0007118478
0.00030322064 0.0017421696 0.00021164474 -0.00083019363 -0.0015998712 -0.0011711889 0.00018182362 0.00080554304
-0.0012746493 -0.00026258547 0.0008897567 0.0009381649 -0.00062319054 0.00085832796 0.0002458923 -0.0014105308
-7.722003e-06 -0.0010191549 0.0003771754 0.0011073556 -0.00013791614 0.0013670492 -0.0017636387 0.00033726552
0.0003073959 0.0013944269 0.0007986862 0.0010990923 -0.0015977632 0.0009003441 -0.0010970574 0.0007456792
0.00085009506 3.3035194e-05 0.0009804922 0.0009036065 0.00019344999 -0.00058626063 0.0010971914 -0.00038762973
0.00086285116 0.0010156055 0.0014189165 0.0011072417 -0.0003262936 -0.00048615778 -0.00034578657 -0.0007057865
-0.0008128947 0.00021496559 0.00027079647 0.0016608963 0.002580666 -0.0026331632 0.00027947893 0.00020637942
0.0017805522 -0.0008008236 -0.00020216915 0.0005721409 -0.0012529183 -0.0014318627 0.0012845069 1.9543293e-05
-0.0006596124 0.002185175 0.001509802 0.00024151707 0.0011897268 -0.0022990527 0.0013700494 0.000113757735
0.00064664916 0.0008151885 -0.00081997924 -0.0009994274 -0.0012847956 0.0014351391 -0.0007148579 0.0017550301
0.00039480045 -0.0001403532 -0.0012050413 -0.0009798107 0.0015316579 0.0012015298 0.0008045794 -0.0011406805
0.00035004911 -0.0021689683 0.00081650703 -0.00016810035 0.0008276612 -0.000559554 0.0010829716 0.00021170294
0.0009843799 0.00010082122 0.0010456104 0.00042239044 6.544768e-05 -0.00058294483 -0.00076433294 0.0002835906
-0.0006443526 -0.00043180565 0.00096161565 0.00084069505 0.0019004992 0.0016401823 -0.0005467508 0.0012061187
0.0026780996 0.0018137243 0.00027969127 -0.0004839582 0.00018227707 0.00043687838 -0.000720359 0.000317294

hidden_layers.1.bias f4 [16]
00000000: 0000 0000 0000 0000 0000 0000 0000 0000
00000010: 0000 0000 0000 0000 0000 0000 0000 0000
00000020: 0000 0000 0000 0000 0000 0000 0000 0000
00000030: 0000 0000 0000 0000 0000 0000 0000 0000
0.0 0.0 0.0 0.0 0.0 0.0 0.0 0.0
0.0 0.0 0.0 0.0 0.0 0.0 0.0 0.0

output_layer.weight f4 [1, 16]
00000000: 62d5 9c3a c8d6 91ba c8c3 1bbb 4820 baba
00000010: e241 543a 5e5e 90ba 4feb 623a 62a4 be39
00000020: b764 e7b5 9e45 6dba f5af 18ba cf72 42bb
00000030: 61d1 93b9 7a10 e43a 505e 0bba 2e59 763a
0.0011965449 -0.0011126632 -0.0023767818 -0.0014200294 0.00080969755 -0.0011014452 0.00086562795 0.000363621
-1.7240153e-06 -0.0009051206 -0.00058245595 -0.0029670482 -0.00028194024 0.001739993 -0.0005316483 0.0009397444

exp_avg f4 [32, 7]
00000000: 831f 9fb8 4f9a c1b7 c2b0 e038 eb0c 17b8
00000010: 1eb7 e339 5eb9 24b9 b775 9a38 19a0 ba37
00000020: abe3 6a38 460f 9737 587d 7a38 05b6 30ba
00000030: ddc0 0039 90c8 e1b7 1cd0 033a 8a26 1539
00000040: f252 3eba 1ba8 38b9 99b3 12bb b016 b239
00000050: 1db9 72b9 2830 7a39 19ed d238 b016 f1b9
00000060: 9f18 2339 f26f 03bb 793f 5939 8c7a 96b4
00000070: b5a1 e1b9 402c 28b9 79c0 453a af21 6039
00000080: 3cdd ed3a 574c 44ba 9938 24ba f053 fb36
00000090: b8f2 f337 bc4b 1b38 7778 87b7 4182 aab8
000000a0: d276 8a38 3561 0937 36cb 0839 280c 3b38
000000b0: db7b 47b9 2b1e e4b8 2cf8 0eba 60c0 bd39
000000c0: 65b1 9fb8 7684 adb6 255c 67b5 ed2b 1737
000000d0: cd3f 0038 578d d936 8a9c 87b8 27aa bbb6
000000e0: e7db 8239 e110 af38 f7f6 b1b9 b8f0 0fb9
000000f0: 4ae3 17bb 17ab 6a39 9315 08b9 19c3 b9b8
00000100: bd5b f4b8 4b28 2836 bc33 f8b8 b6f0 4c3a
00000110: 29b5 19b9 841a 3a3a 62d8 88b9 e8be 95b8
00000120: 3ecb c939 3383 4339 e23f 9a3a 5e96 18b8
00000130: 50f8 97b9 3219 14b9 4663 81b8 45a2 8839
00000140: 49b7 f3b8 c87c 843a 9b17 0bb9 b919 1139
00000150: 507a 8236 3862 7c36 23f1 98b6 941b 74b7
00000160: 9a62 2439 c592 483a 335d 63b7 79f1 ffb7
00000170: 031e 09b7 79fa 1438 9229 16b9 e351 113a
00000180: b18b 8338 27f3 e237 2751 b039 af2c 0439
00000190: 4333 02ba cc2c 4e39 d1f3 1abb 5df0 6939
000001a0: a002 2c39 ece1 5f3a b05d 8e39 f3ae acba
000001b0: fa46 59ba 414e 9abb f9a8 6c3a a38c cdb9
000001c0: d13c 6539 8b86 1e38 6d33 68b9 0c1e 7e38
000001d0: 61ba 9ab9 7d3a 0cb9 809d b539 fdec 8939
000001e0: 8f5c a938 0491 dcb9 6946 1aba 291e 86b9
000001f0: 3ef6 5639 c685 36b9 7bce 63b8 8b40 77b7
00000200: 6b7f e438 d60d 0e39 593c b839 5201 8937
00000210: 5fc5 7738 8e47 7239 f441 a738 8c7b bbb9
00000220: d501 62b9 aa8d c3ba c2c7 f838 feb3 b2b9
00000230: 076e 72b7 46b8 90b6 3b52 c737 a8e0 a637
00000240: 903a 0339 7db3 39b7 c0d1 bbb6 b5bf c6b8
00000250: 9070 65b7 1f52 2c39 47f8 c138 754a 0d3a
00000260: a166 4fb9 6fbc 1bb8 ffc2 3fb7 22a5 6bb6
00000270: ff94 cf37 d92d cf37 37f8 d537 1cbe 57b8
00000280: 4913 25b7 f325 8138 34de bb37 87ed c3b8
00000290: a23f 80b8 50db 99b9 64ec 683a 173c 98b7
000002a0: 9ba5 4cba 7eb3 76b9 cd77 973a 464d 5839
000002b0: e70f a53b 3e18 7eba e595 7e39 70e4 8e38
000002c0: 20d3 a737 e0e3 1eb9 afe1 6238 41a1 16ba
000002d0: e95b 0637 9ecf 66b9 83b4 b5b8 240f 08b8
000002e0: 50c6 dc38 91c9 edb8 4e46 633a 0b25 67b8
000002f0: 450c b838 cc12 a0b9 a725 c2b7 951f b139
00000300: 16b2 7fb8 d480 553a d849 f337 01c6 bf39
00000310: aa6a 90b9 cc24 aeb8 6480 e539 eb3b 8438
00000320: 4335 ac3a 2a24 88b8 4460 7039 e647 193a
00000330: 8c14 4239 ebfc 55ba 912d 2fb8 ef38 80bb
00000340: cb37 c639 6532 eab9 20fb c138 edc7 8f38
00000350: bfa2 28b9 1384 1f39 1074 cdba b401 8e39
00000360: a11f 5a39 be4f d739 d32a 2539 cd62 2cba
00000370: 1a06 cdb9 a6cf 09bb 76a4 343a 921e 49b9
-7.58758e-05 -2.3079248e-05 0.00010714076 -3.6013236e-05 0.00043433247 -0.00015709313 7.365218e-05 2.224748e-05
5.600198e-05 1.8007715e-05 5.972138e-05 -0.000674099 0.00012278878 -2.6915484e-05 0.0005028264 0.00014224104
-0.00072602846 -0.00017610232 -0.002238488 0.0003396771 -0.00023147879 0.00023859798 0.00010057743 -0.00045984006
0.00015554063 -0.0020055738 0.00020718378 -2.8028842e-07 -0.00043035825 -0.00016038213 0.0007543634 0.00021374853
0.0018147598 -0.0007488182 -0.0006264537 7.4901545e-06 2.9080882e-05 3.7025413e-05 -1.614935e-05 -8.1304934e-05
6.602485e-05 8.188469e-06 0.00013045673 4.4595596e-05 -0.00019024259 -0.000108775064 -0.00054538506 0.0003619222
-7.614753e-05 -5.1712223e-06 -8.6188294e-07 9.010529e-06 3.0576997e-05 6.483558e-06 -6.466459e-05 -5.5928426e-06
0.00024959372 8.347794e-05 -0.00033944074 -0.00013727217 -0.0023176246 0.00022379715 -0.00012978008 -8.857827e-05
-0.00011651914 2.5057404e-06 -0.00011835198 0.0007817851 -0.00014658704 0.0007099288 -0.0002610116 -7.140433e-05
0.00038489135 0.00018645525 0.0011768306 -3.6379664e-05 -0.00028985972 -0.00014123766 -6.1696905e-05 0.00026060842
-0.000116212825 0.0010107988 -0.00013264867 0.0001383786 3.888541e-06 3.7608097e-06 -4.558025e-06 -1.4549954e-05
0.00015676991 0.0007651265 -1.3551954e-05 -3.0510813e-05 -8.172824e-06 3.551922e-05 -0.00014320601 0.0005543513
6.272586e-05 2.7054526e-05 0.000336298 0.00012605147 -0.0004966745 0.00019662379 -0.002364386 0.00022310154
0.00016404176 0.000854044 0.00027154153 -0.0013174698 -0.00082884694 -0.0047090356 0.00090278644 -0.0003920543
0.00021861798 3.779544e-05 -0.00022144402 6.0586302e-05 -0.00029512032 -0.00013373229 0.00034640357 0.00026307246
8.075788e-05 -0.00042069715 -0.0005885126 -0.00025580943 0.00020500363 -0.00017406707 -5.4313317e-05 -1.4737375e-05
0.00010895621 0.0001354733 0.00035140177 1.6332287e-05 5.9073205e-05 0.00023105575 7.975465e-05 -0.0003575947
-0.00021553722 -0.0014919539 0.00011862769 -0.0003408491 -1.4449942e-05 -4.3129867e-06 2.376094e-05 1.9893356e-05
0.0001251495 -1.106865e-05 -5.5974524e-06 -9.477084e-05 -1.3675672e-05 0.00016433791 9.2492024e-05 0.0005389818
-0.0001977929 -3.7130372e-05 -1.1429888e-05 -3.5113849e-06 2.4745705e-05 2.4697672e-05 2.5507163e-05 -5.1437048e-05
-9.839257e-06 6.158268e-05 2.2395609e-05 -9.3425675e-05 -6.115368e-05 -0.00029345835 0.00088853226 -1.8147794e-05
-0.00078066596 -0.00023527254 0.0011556089 0.00020628152 0.005037296 -0.00096929434 0.00024279168 6.8136374e-05
2.0006264e-05 -0.00015152944 5.4092783e-05 -0.00057460746 8.008422e-06 -0.00022011853 -8.6643755e-05 -3.2439028e-05
0.00010527356 -0.00011338585 0.0008669839 -5.510919e-05 8.776089e-05 -0.00030531583 -2.3144135e-05 0.000337836
-6.0962593e-05 0.0008144502 2.9002244e-05 0.00036577883 -0.0002754529 -8.3038205e-05 0.00043773942 6.305411e-05
0.0013138432 -6.4917214e-05 0.00022924045 0.00058472005 0.00018508936 -0.0008162993 -4.176569e-05 -0.003913037
0.00037807072 -0.00044669505 9.249733e-05 6.8560104e-05 -0.00016082356 0.00015212623 -0.0015674848 0.0002708562
0.00020801883 0.00041067408 0.0001575158 -0.0006576002 -0.00039105193 -0.002102831 0.00068909617 -0.00019180242

exp_avg_sq f4 [32, 7]
00000000: d16b 1c34 85ec 8a32 84f2 7434 c667 1e33
00000010: 2a97 b236 3d0a 7e34 78ee a733 a4a0 e037
00000020: 1c52 4836 8201 3738 952a d736 70b5 3f3a
00000030: a316 a136 1e2e 8a37 f632 b236 9f14 1b35
00000040: 9963 0e37 a140 a735 15c2 2039 e886 cc35
00000050: 4fdf 8036 b792 6836 c18c c034 ab8c a636
00000060: 34bd 6b35 c78a 1239 898a 2e35 cdf9 d435
00000070: 6c09 1137 f9d7 8935 2061 6f37 c794 1336
00000080: c5c5 8a39 0a0f fb36 73a0 8836 7e8f f035
00000090: eb4d 5834 1512 4a36 bcd7 fe34 c7f4 5a38
000000a0: 7ce6 cc34 de9d 8535 61eb 2c35 7166 9d33
000000b0: 86f8 8b35 6465 3634 ea94 c237 6ac4 9435
000000c0: 7fbf ac34 33cd ae32 3ed9 1b31 4d41 0c33
000000d0: 9eb7 ba31 5775 3b35 3ff2 1b33 0c1a c032
000000e0: 1ecf a635 646c 1634 89a4 0536 affc b034
000000f0: 852d 5438 bf0f 3835 8833 4835 288c a138
00000100: b246 0e37 9950 0439 04af 9e37 77b0 093b
00000110: 9977 3737 0728 3c38 ad58 2737 e182 8e35
00000120: bf9e 8837 32c4 1f36 44f6 8e39 850b 3435
00000130: b0aa f136 eb22 0836 0b5c 7e34 e2ad 4736
00000140: 7f26 1935 8aba 8238 9b4d e334 0c36 6335
00000150: 70bf 2f33 d309 9931 b1ca 8333 0810 1132
00000160: 3df3 1136 826b 1e36 1e35 3533 e86b f934
00000170: d5cc 5a33 3347 4135 6445 f633 b6fa a537
00000180: e8ec 6434 0a59 cb34 973d 3d37 fe6c 9e35
00000190: d0ae 8837 608d 4636 dc55 b839 0510 a835
000001a0: 1de7 8336 83e3 a037 62a6 1136 b0eb 0238
000001b0: ee83 b036 7de0 1e3a 9785 4a37 1917 5937
000001c0: d94f a237 ab33 0e36 9396 0638 f828 9736
000001d0: a100 0d3a a42c 5136 918c 7237 77d2 2937
000001e0: e384 9935 4f1e 8837 9936 3236 d055 d139
000001f0: c826 9d36 a927 ac36 b647 0835 6c39 7633
00000200: 8973 5a35 c660 1434 b3dd 7037 682a 7034
00000210: 670e 5635 f96f 0a35 7ad2 8033 1419 6635
00000220: 8b44 3034 0698 8d37 d2fc 9134 f0fa 0635
00000230: 164a 9232 d61e 0331 caab eb32 d486 a031
00000240: 66c5 0e35 d41f 4532 c1e9 4a32 903b aa35
00000250: cdce 1434 5341 f535 1495 a134 b4cc 2038
00000260: 1dd3 2635 46b0 7f35 2491 9d32 a2f1 0d31
00000270: f209 0033 ee16 a431 8dac 2c35 06c1 b532
00000280: 655b a332 df23 9933 359b 0832 94b0 f233
00000290: 1070 9332 a235 3836 908f 3336 2a14 8f33
000002a0: 3920 4437 7ca8 b435 4744 9f37 6541 4536
000002b0: 9803 bb39 737e f336 4a5c df36 2629 f935
000002c0: c9e3 6634 b888 5d36 079d 0935 0b92 8938
000002d0: 2ef5 1635 f9e2 9a35 e842 9634 6d7e 0a33
000002e0: 3926 f434 3b8e a233 ffa4 4637 7eec 1e34
000002f0: 4992 8a34 cbf0 7137 e49a d835 7aaa dc37
00000300: 559b 8736 60f2 dc39 a9b5 1636 4118 9b36
00000310: d2cb f435 0726 5334 febb 3936 79ec e334
00000320: 234b 8f38 c2c0 ed34 f7c0 b035 6b77 2436
00000330: 49b9 9434 b8f8 8236 acd0 2035 72dc c138
00000340: 4aec 6336 a391 d135 2e78 fa36 36d7 6035
00000350: fc05 4737 8599 f335 0f37 9039 411e c536
00000360: 390d 7f36 edc1 5337 4f16 bf35 f7e9 b037
00000370: aeff 6536 f868 df39 3a05 4437 47d2 be36
1.4567856e-07 1.6172871e-08 2.2812497e-07 3.6881623e-08 5.322411e-06 2.3659318e-07 7.819921e-08 2.6777685e-05
2.9850116e-06 4.3632004e-05 6.4124565e-06 0.0007313108 4.800809e-06 1.6472357e-05 5.310746e-06 5.777201e-07
8.487049e-06 1.2461279e-06 0.0001533109 1.5238447e-06 3.840694e-06 3.4656093e-06 3.58652e-07 4.9635614e-06
8.781965e-07 0.00013975344 6.5021646e-07 1.5867932e-06 8.644867e-06 1.0270152e-06 1.4268124e-05 2.1991307e-06
0.0002646876 7.4821337e-06 4.0717946e-06 1.7923155e-06 2.0144914e-07 3.011087e-06 4.7468154e-07 5.2203217e-05
3.816566e-07 9.955218e-07 6.4417515e-07 7.329516e-08 1.0428637e-06 1.6986957e-07 2.3195946e-05 1.1084023e-06
3.2176828e-07 2.034958e-08 2.2678956e-09 3.265568e-08 5.4341873e-09 6.983368e-07 3.630907e-08 2.2363587e-08
1.2428243e-06 1.4009271e-07 1.9914316e-06 3.2966406e-07 5.0587132e-05 6.8568255e-07 7.4580794e-07 7.7031844e-05
8.48032e-06 0.00012618526 1.8916566e-05 0.0021009722 1.0935496e-05 4.485997e-05 9.974622e-06 1.0617915e-06
1.6286385e-05 2.3807047e-06 0.00027267833 6.707199e-07 7.2022303e-06 2.0285904e-06 2.3689078e-07 2.9754524e-06
5.705296e-07 6.233629e-05 4.233851e-07 8.464274e-07 4.0919474e-08 4.454003e-09 6.137032e-08 8.443756e-09
2.1748267e-06 2.3606412e-06 4.2190656e-08 4.6458376e-07 5.0943374e-08 7.200171e-07 1.146789e-07 1.978628e-05
2.132034e-07 3.787648e-07 1.1279618e-05 1.1803638e-06 1.6293867e-05 2.958659e-06 0.00035159185 1.2521638e-06
3.9310094e-06 1.917943e-05 2.1703531e-06 3.1213916e-05 5.2605674e-06 0.0006060673 1.2071242e-05 1.2939586e-05
1.9349087e-05 2.1189724e-06 3.2088323e-05 4.50492e-06 0.0005378817 3.1169411e-06 1.4457052e-05 1.0122188e-05
1.1438063e-06 1.6226577e-05 2.6555847e-06 0.00039927522 4.6834793e-06 5.1306165e-06 5.07683e-07 5.7328563e-08
8.1379454e-07 1.381878e-07 1.4356733e-05 2.2367169e-07 7.974217e-07 5.157195e-07 5.99875e-08 8.571817e-07
1.6416213e-07 1.6879301e-05 2.7192306e-07 5.028405e-07 1.7030327e-08 1.9080537e-09 2.7435721e-08 4.671941e-09
5.3186375e-07 1.1474146e-08 1.1811097e-08 1.2683322e-06 1.3858808e-07 1.8272934e-06 3.0097056e-07 3.8337617e-05
6.214703e-07 9.5251414e-07 1.8343208e-08 2.0655553e-09 2.9811368e-08 4.775635e-09 6.432609e-07 2.115895e-08
1.9017259e-08 7.1311426e-08 7.951532e-09 1.13011225e-07 1.7164012e-08 2.7449355e-06 2.6756643e-06 6.662624e-08
1.1690013e-05 1.346008e-06 1.8986071e-05 2.9393352e-06 0.00035670097 7.256685e-06 6.6566618e-06 1.8563921e-06
2.1503287e-07 3.3011147e-06 5.126498e-07 6.559872e-05 5.623614e-07 1.1539952e-06 2.7988358e-07 3.2245612e-08
4.5476352e-07 7.5695844e-08 1.1840136e-05 1.4800932e-07 2.581094e-07 1.4420783e-05 1.6138333e-06 2.6305428e-05
4.0413966e-06 0.00042142253 2.2457482e-06 4.6221835e-06 1.8238736e-06 1.966474e-07 2.7676574e-06 4.24541e-07
6.832767e-05 4.428494e-07 1.3169182e-06 2.4507415e-06 2.770196e-07 3.9032566e-06 5.99083e-07 9.244018e-05
3.3963174e-06 1.5614099e-06 7.4645714e-06 8.3759676e-07 1.1862718e-05 1.8149591e-06 0.00027506842 5.8745795e-06
3.8005658e-06 1.2621732e-05 1.4237102e-06 2.1089783e-05 3.4272484e-06 0.00042612082 1.1683727e-05 5.6869208e-06

exp_avg f4 [32]
00000000: d688 a9b8 9723 0f39 3951 063a 85de c339
00000010: cf1c 12ba 835e 1938 513b 1a39 ef47 bcb6
00000020: b6a7 b539 d49b 42b9 6521 86b9 4982 5ab9
00000030: c6e7 3136 17fa 2fb8 2b2d d739 e693 853a
00000040: 87b9 fb38 81c8 7439 6fea 75b8 c877 8839
00000050: aa03 a0b7 4d59 b3b8 8678 5bb7 1e0c a038
00000060: ace7 74ba ba6a c538 1374 edb8 5b22 5fb9
00000070: 147b 94b9 03cd 303a 3f14 7939 e019 0f3a
-8.084036e-05 0.00013650801 0.00051237975 0.00037359088 -0.0005573751 3.6566063e-05 0.00014708682 -5.611211e-06
0.00034647965 -0.00018559332 -0.00025583353 -0.00020838635 2.6509965e-06 -4.1956166e-05 0.00041041648 0.0010191172
0.0001200317 0.00023344347 -5.8630885e-05 0.00026029185 -1.9075193e-05 -8.552019e-05 -1.3081479e-05 7.6316515e-05
-0.0009342383 9.4135714e-05 -0.00011322661 -0.00021279736 -0.0002832046 0.00067444163 0.00023754033 0.0005458873

exp_avg_sq f4 [32]
00000000: 9d5d 6634 5c62 2838 3b7c 0237 0ed3 a436
00000010: 5570 5b37 8c46 3736 d235 8235 8adb 0533
00000020: 893b ff35 c73c f438 e906 7737 c75b 4636
00000030: fbdf 8033 2fa3 3935 b35a 8437 83c5 f137
00000040: 6d5b f337 682e 7e37 71c1 4f35 f23f 5a35
00000050: 21f9 dd32 7398 fe35 2c84 f232 6fe8 e733
00000060: 43de 9437 1c40 3936 0a0a e934 d8e4 bf37
00000070: 5f4c 2e36 da6d 7536 d59a 3937 31dc a137
2.1454476e-07 4.0145926e-05 7.7775285e-06 4.912151e-06 1.30795715e-05 2.7310189e-06 9.701419e-07 3.1166145e-08
1.9016308e-06 0.00011646147 1.4723956e-05 2.955772e-06 6.001206e-08 6.9155334e-07 1.5777861e-05 2.8821412e-05
2.901043e-05 1.5150385e-05 7.7395003e-07 8.130438e-07 2.5841077e-08 1.8968843e-06 2.8232613e-08 1.0799055e-07
1.7746474e-05 2.7604465e-06 4.3406936e-07 2.2875538e-05 2.5972474e-06 3.6571787e-06 1.1062909e-05 1.929523e-05

exp_avg f4 [16, 32]
00000000: 5a1c a1b1 f5ff 06b1 1436 90b1 a8cf aeb3
00000010: 7862 dbaf c1f7 9a32 a091 2db1 e7eb c732
00000020: 06f0 f2b2 1722 28b1 c6dd 3bb0 22cb 3732
00000030: 1c58 91b1 8ede 30b1 8456 f931 816d 16b1
00000040: 3302 9430 7195 d82f ef40 c530 34a4 0331
00000050: 2c03 c1b0 baf4 67b2 eaa0 6bb2 0da3 3531
00000060: 4f16 5632 7950 7f32 6cf4 6a31 3d67 a632
00000070: 6ed1 96b3 ccfa 1a33 3772 cfaf 5353 8fb0
00000080: 0749 9738 342e d6b6 595d a7b8 93e9 87ba
00000090: 359b 1fb8 4682 b239 7b13 2638 17d0 6339
000000a0: 2411 44b9 a123 ea37 4388 ae37 80ee 9139
000000b0: 319c 0fb8 f9cf a838 75df 4239 8702 3438
000000c0: 397e 3238 a3b7 4c38 ee43 5739 f2cd ff38
000000d0: 1598 06b7 c38c 91b7 3603 02b9 5424 8637
000000e0: 592f 0239 bcbb 6a39 267e 1839 a67a be39
000000f0: 5e7a 51ba f71b 8138 ada9 b3b7 2dc9 1338
00000100: 5ba0 e138 e54e e138 6376 a138 87df 823a
00000110: a4c2 a638 1e8e 54b9 c335 4538 c0a8 abb9
00000120: 0ba0 db39 be00 1e39 0af0 e437 350f cdb8
00000130: 1ab7 8638 2747 9338 19e7 d536 053d 0938
00000140: db47 8038 edbb 0436 5926 4c38 8610 c436
00000150: fa01 c737 f40b 8339 abee 5039 5648 31b8
00000160: 8c10 14b9 3541 07b9 3153 02b7 451b 6ab9
00000170: dfc6 653a 98bf 23ba c205 b438 62d4 8937
00000180: f910 a439 7ec6 ab38 6c31 6fb8 d381 98ba
00000190: ab37 a539 12ad f039 96c8 db38 5750 9c35
000001a0: be1b b738 dc74 3839 1e6b 5038 d567 cd39
000001b0: e2f6 9737 6676 8c39 0e03 ba39 dcfb 2d38
000001c0: 2b7e 8739 934d ec38 0d42 053a 79f0 a339
000001d0: b59d 7737 f904 ea39 810c 9937 ed0c 9bb7
000001e0: 999d 3739 6ad5 9839 59a3 a839 0ead f039
000001f0: a123 2cba 430b 59ba dba0 5639 0c6d 8838
00000200: 2f37 7a31 ac20 cf30 0854 5b31 909c 8033
00000210: af54 2430 8eea 66b2 7d1a 0331 4dc7 94b2
00000220: 7877 b632 90d0 1031 1dab 0c30 9f81 04b2
00000230: 0b50 5a31 cbff 0b31 966c adb1 310a de30
00000240: c215 30b0 3059 99af 061c 6ab0 032c aeb0
00000250: 5aa5 9130 c164 3032 1a5f 2f32 16b8 07b1
00000260: 513f 1db2 db5a 39b2 40c4 24b1 a78d 76b2
00000270: bc6d 5e33 fda7 e9b2 c1d3 0a30 c0dd 5330
00000280: 2d4a a9b9 2802 9739 38b3 c436 e4d7 f9ba
00000290: f413 12b9 2acf dd39 a731 16b9 e668 553a
000002a0: 0340 9dba 982f 0939 c056 ee38 782c c936
000002b0: d816 1eb9 c810 70b9 c7ab 2f39 522c f0b8
000002c0: ac63 7438 1ad9 dab7 5e79 7bb9 4cd2 27b9
000002d0: ad65 4cb8 4075 50ba de24 f8b9 eda4 c238
000002e0: f8e1 b239 f151 e039 bf5a 79b8 9f57 113a
000002f0: 256a ecba 989f f13a b933 60b8 f926 a8b8
00000300: b717 fdaf 612d 8ab0 0be3 2130 41fa e432
00000310: 011d 6bb1 8009 b5b1 cee6 c12f 1638 bcb1
00000320: 8fcd d531 dc30 0eb1 285a a6ae ee3c adb1
00000330: 3567 a130 85e8 3fb0 3e29 bdb1 0d41 6630
00000340: 21af 35b1 6bee fbaf dbcb 83b1 0dd6 36b1
00000350: 3e27 fc2f f9dc 3830 bb62 6931 8396 39b0
00000360: 889f b9b1 48df f2b1 0188 3db1 0003 e1b1
00000370: cfb2 b632 ae47 23b1 3bf0 20b1 cec6 9d2f
00000380: ab58 bfaf af54 3ab0 2fee 9d2d 9dde 1fb1
00000390: 8cf2 b5af 4b90 dbaf 98c3 43af fd8b fe2f
000003a0: bc35 0fb0 7177 55b0 2837 f6ae 9c2b a12f
000003b0: 996d 05af 9413 7faf b36b 8baf e4ab dfae
000003c0: d54f 32b0 360b 1aae b861 5eaf 086a ecae
000003d0: 196d 95ae 61d8 11b0 2cb7 e9af 31a3 c22e
000003e0: 69a1 832f c857 ae2e 3555 b9ae 516c 38af
000003f0: e1d2 e8b0 08d5 9230 018f bfaf 9916 73ae
-4.68894e-09 -1.9645061e-09 -4.1970996e-09 -8.140279e-08 -3.9905834e-10 1.8040625e-08 -2.5257592e-09 2.3273925e-08
-2.8281658e-08 -2.4466595e-09 -6.834536e-10 1.0698189e-08 -4.2300723e-09 -2.5737878e-09 7.2566895e-09 -2.1890119e-09
1.0769042e-09 3.9396356e-10 1.4352092e-09 1.9156348e-09 -1.40435e-09 -1.3501614e-08 -1.3715388e-08 2.643165e-09
1.2461512e-08 1.4861251e-08 3.419042e-09 1.937189e-08 -7.023014e-08 3.6084018e-08 -3.7734235e-10 -1.0428302e-09
7.2138435e-05 -6.3830757e-06 -7.980568e-05 -0.0010369293 -3.8053102e-05 0.00034047867 3.9595627e-05 0.00021725926
-0.00018698402 2.7911565e-05 2.0805868e-05 0.00027834252 -3.423932e-05 8.049602e-05 0.00018584526 4.2917698e-05
4.255606e-05 4.8808415e-05 0.00020529304 0.00012197708 -8.022432e-06 -1.7350894e-05 -0.00012398962 1.5990961e-05
0.00012415404 0.00022385916 0.00014542844 0.00036331004 -0.00079909514 6.156408e-05 -2.1417474e-05 3.523489e-05
0.000107587046 0.00010743531 7.6991295e-05 0.0009984829 7.9517515e-05 -0.00020270838 4.701853e-05 -0.0003274139
0.00041890176 0.0001506833 2.7291495e-05 -9.777994e-05 6.423723e-05 7.0227594e-05 6.374798e-06 3.2720174e-05
6.1169e-05 1.977892e-06 4.8673104e-05 5.8431788e-06 2.3723569e-05 0.00024995173 0.00019925337 -4.2267457e-05
-0.00014120544 -0.00012898895 -7.767973e-06 -0.00022326138 0.0008765291 -0.0006246506 8.584141e-05 1.6430571e-05
0.00031293163 8.1908875e-05 -5.7028068e-05 -0.001163537 0.00031512728 0.00045905315 0.00010480096 1.1646288e-06
8.7312874e-05 0.00017591141 4.9690825e-05 0.00039178008 1.8115566e-05 0.00026791095 0.0003547896 4.1480977e-05
0.0002584321 0.00011267806 0.00050833897 0.0003126895 1.4759066e-05 0.00044635663 1.8244844e-05 -1.8483459e-05
0.0001751095 0.00029150705 0.0003216516 0.00045905303 -0.00065665884 -0.0008279571 0.00020468554 6.505297e-05
3.6411156e-09 1.5070518e-09 3.191646e-09 5.988943e-08 5.9783195e-10 -1.3441094e-08 1.9078066e-09 -1.73201e-08
2.1241917e-08 2.1073312e-09 5.117487e-10 -7.712884e-09 3.1768674e-09 2.0372564e-09 -5.0473075e-09 1.6155522e-09
-6.4059347e-10 -2.789391e-10 -8.516853e-10 -1.2672675e-09 1.0597134e-09 1.0267457e-08 1.0207964e-08 -1.9749726e-09
-9.152999e-09 -1.0789075e-08 -2.3976696e-09 -1.4351293e-08 5.1788206e-08 -2.7201162e-08 5.050503e-10 7.707648e-10
-0.00032289457 0.0002880257 5.862119e-06 -0.0019061533 -0.00013931078 0.00042306754 -0.00014323612 0.0008140936
-0.0011997226 0.00013083068 0.00011364883 5.9954436e-06 -0.00015076564 -0.00022894435 0.00016753293 -0.00011452347
5.826696e-05 -2.6088721e-05 -0.00023982438 -0.00016004703 -4.8732083e-05 -0.0007952042 -0.00047329714 9.281361e-05
0.00034119166 0.0004278566 -5.945074e-05 0.00055443676 -0.0018037005 0.0018434403 -5.3453932e-05 -8.0181235e-05
-4.6037282e-10 -1.0053719e-09 5.8894106e-10 2.6656496e-08 -3.4213488e-09 -5.2688733e-09 3.5270492e-10 -5.4778964e-09
6.222485e-09 -2.0691493e-09 -7.564821e-11 -5.0418896e-09 1.1743625e-09 -6.9815825e-10 -5.5053127e-09 8.3765955e-10
-2.6438516e-09 -4.582604e-10 -3.8357775e-09 -2.660616e-09 4.5866416e-10 6.725283e-10 3.3962084e-09 -6.75165e-10
-5.4023452e-09 -7.068511e-09 -2.758043e-09 -6.548703e-09 2.1268901e-08 -2.3760367e-09 -2.341962e-09 2.8699393e-10
-3.48057e-10 -6.778675e-10 1.7954608e-11 -2.3264086e-09 -3.3096048e-10 -3.9938394e-10 -1.7804636e-10 4.6301799e-10
-5.209946e-10 -7.7658685e-10 -1.11965825e-10 2.9316716e-10 -1.2135216e-10 -2.319907e-10 -2.5360478e-10 -1.01714e-10
-6.486947e-10 -3.5025503e-11 -2.0225499e-10 -1.07508724e-10 -6.795115e-11 -5.3058186e-10 -4.2512605e-10 8.851087e-11
2.394345e-10 7.928197e-11 -8.427962e-11 -1.6773184e-10 -1.6940157e-09 1.0683445e-09 -3.4844308e-10 -5.5271874e-11
